Training/checkpoints/wind_pressure_200_5/mlp/model_80.pth (torch, 132355 bytes, 17 tensors)

pos_encoder.0.weight f4 [24, 1]
000000 f6 59 49 3e 0b a2 89 3b 77 5a 65 bf 12 33 49 bf
       0.19663224 0.004200225 -0.89591163 -0.7859355
000010 27 e8 53 be 01 5e 72 bf 43 fb e2 3e 25 b3 07 bf
       -0.20694028 -0.9467469 0.44332322 -0.5300773
000020 5e ff 5a 3e 72 ac 58 bf 26 03 c0 bd 5c 2f 77 be
       0.21386477 -0.8463813 -0.093756005 -0.2413916
000030 a3 20 cf bd 9f 2a 49 3d e2 df 1e bf aa 96 19 3e
       -0.10113647 0.049112912 -0.6206037 0.1499888
000040 d7 31 8e 3e b4 39 27 3e 8b 45 52 3e d3 fb 74 bf
       0.277724 0.16330606 0.20534341 -0.95696753
000050 fb 20 13 be 5c 00 44 bf 60 a4 33 bf cf 90 60 bd
       -0.1436805 -0.7656305 -0.7017269 -0.0548256

pos_encoder.0.bias f4 [24]
000000 e0 bf 5a 3f 3d df 8e 3e d9 31 25 3f a8 c7 0f bd
       0.8544903 0.27904692 0.64529186 -0.035102516
000010 5e 44 12 bf 0a 23 51 3f 64 d9 18 3f b5 95 35 3f
       -0.5713557 0.8169409 0.5970671 0.7093156
000020 3a 58 14 3f 17 03 27 3f cf e9 10 bf 68 62 8d 3d
       0.57947123 0.6523909 -0.56606764 0.06903535
000030 38 2b 2f 3f 31 95 fc 3e 56 4f 47 bf 4d 41 a7 3e
       0.6842532 0.49332574 -0.7785543 0.32667008
000040 0a 83 6d 3f ea 7a 44 bf 3c 79 32 bf 37 7f 01 3e
       0.92778075 -0.7675005 -0.6971624 0.12646185
000050 a5 7c ad 3e 7d 11 2e bf 45 62 63 bf 2b 38 54 3e
       0.3388416 -0.67995435 -0.8882182 0.20724551

pos_encoder.2.weight f4 [48, 24]
000000 53 d2 84 be 2c de a1 be 8b b8 09 be c3 c0 b0 be
       -0.25941715 -0.31614816 -0.13449304 -0.34522066
000010 2a 27 c3 3e c5 6b 85 3e db b2 1f be 46 f5 7d 3c
       0.38115817 0.26058784 -0.15595572 0.015500372
000020 37 f9 74 3e 10 7f ed 3e 3e b7 df be 62 0c 92 3c
       0.23923193 0.46386003 -0.4369449 0.01782817
000030 b9 5b 1c be 05 e5 00 be f3 3b 77 bb 0b 36 f6 bc
       -0.15269364 -0.12587364 -0.0037724942 -0.030055067
000040 4c 3a ae be ae f3 77 3e 12 fa dd 3d bd 24 51 be
       -0.34028852 0.2421405 0.10838713 -0.20424171
000050 30 cd a6 3e 67 42 7f be d1 a8 16 be d8 ce b8 bd
       0.3257842 -0.24927674 -0.14712836 -0.09023827
000060 25 ce e1 bd 32 bb a8 be b6 f4 de be c3 b6 5c 3e
       -0.11025647 -0.3295532 -0.43546075 0.21554093
000070 22 d2 e9 bd a9 0a c3 3e db 70 b5 3e 96 2c 20 3e
       -0.11417033 0.3809407 0.35437664 0.15642008
000080 3c 44 ec 3d 03 6f 90 3b 6c 9a b9 3e be aa 87 3e
       0.11536452 0.004407765 0.36250627 0.26497453
000090 67 ec c9 3e a7 ce a0 3d cb 42 90 be 6f a8 af be
       0.39438173 0.07851916 -0.2817596 -0.34308192
0000a0 7a 6e 41 be 13 a2 87 3e 00 68 e2 3e 48 2b 0e 3e
       -0.188898 0.2649084 0.4421997 0.13883698
0000b0 75 23 99 bd b0 4a 2e be 07 09 1a 3e 9e 3b a0 be
       -0.07477466 -0.17020679 0.15042506 -0.31295484
0000c0 f5 18 b6 be 02 dc 86 3e 67 a0 91 bd 3e 52 ee be
       -0.35565916 0.26339728 -0.071106724 -0.4654712
0000d0 4a 63 e7 3e d6 95 da be be 87 65 3e 23 69 84 3e
       0.4519294 -0.4269244 0.22415063 0.25861463
0000e0 8c 16 bc 3c 06 63 52 3e f8 aa 20 be 22 13 30 be
       0.02295997 0.20545587 -0.1569022 -0.17194799
0000f0 1b e6 4f be 54 81 94 be 54 85 f5 3e 1f 45 85 be
       -0.20302622 -0.2900492 0.47953284 -0.26029298
000100 ff 2b b7 be 61 19 d8 3e 1f ca 06 be e5 23 ab be
       -0.35775754 0.42206863 -0.1316304 -0.33425823
000110 98 c9 84 3e e2 90 aa be 32 90 f3 3d 87 e7 c7 3e
       0.25935054 -0.33313662 0.118927374 0.3904383
000120 c7 2f 80 3d 57 01 3e 3d 31 66 e8 3d 98 ba fa be
       0.06259113 0.046387997 0.113476165 -0.48970485
000130 f6 65 90 3e f5 f9 a7 be 04 b5 bd 3e b1 23 3c bb
       0.2820279 -0.3280789 0.37052166 -0.0028707797
000140 16 63 a2 be d5 77 02 bf 1f ea 38 be f9 96 0b be
       -0.31716222 -0.509641 -0.1805806 -0.1363181
000150 26 d5 22 be 6f 16 bb 3d 41 0a bb 3e af 63 30 be
       -0.15901622 0.09135138 0.3653126 -0.17225526
000160 de ff a7 be 17 49 9d 3e 02 88 33 be 0c 02 20 3d
       -0.328124 0.30719826 -0.17532352 0.039064452
000170 8a 01 c1 3d 66 4d aa bd 7b ca e5 3d 47 82 99 be
       0.09424122 -0.08315544 0.11220261 -0.29982206
000180 0f a7 e9 bd d7 4a 2f 3e 7f 45 58 bd c6 f0 d4 3e
       -0.11408817 0.17118393 -0.05280065 0.41589946
000190 62 ad 9f be d5 f7 d2 3e 6b fe a9 be 50 fa 64 3d
       -0.31186968 0.41204706 -0.33201918 0.05590278
0001a0 df 51 98 be c6 b2 38 be 1a 69 9a bd 09 38 1c 3e
       -0.29749963 -0.18036947 -0.07539578 0.1525575
0001b0 f6 39 83 3e cd ef 97 be 79 f3 07 be 98 4e ea be
       0.25630158 -0.2967514 -0.13276471 -0.45763087
0001c0 d2 13 85 be 71 0d b2 be 89 bf 4b 3d 33 a0 61 bd
       -0.25991684 -0.3477588 0.04974321 -0.05508442
0001d0 e1 41 f5 3e 54 6c 3e be 73 25 7e be e3 67 ac be
       0.47901824 -0.18596011 -0.24818973 -0.3367301
0001e0 eb b1 48 3d 77 a5 a9 be ef 05 a2 3e c1 13 37 3e
       0.0489978 -0.33134052 0.31645152 0.1787863
0001f0 d3 b8 52 3e a8 84 a2 3e 6b dc cf 3e 99 70 eb 3e
       0.20578317 0.31741834 0.40597853 0.45984343
000200 fe 5c 3e be 38 76 cf be a2 5e 8f be c5 2d cf 3e
       -0.18590161 -0.4051988 -0.28001887 0.40464607
000210 4a 85 be bd b9 15 50 3e 2d 1e 0f be 77 ca 6c be
       -0.093027666 0.20320787 -0.13976355 -0.23124109
000220 7e db ba be a8 bb c7 3e 76 f8 16 3e b6 18 09 be
       -0.36495584 0.39010358 0.14743218 -0.13388333
000230 8a ec 24 be c7 99 1a 3e dd 15 aa 3d 37 0d 02 bf
       -0.16105857 0.15097724 0.08304951 -0.50801414
000240 94 7b c6 3e d6 aa e7 bd 5e 23 6d 3e f1 ed 3c 3e
       0.38766158 -0.11311881 0.23158023 0.18450142
000250 eb ca e5 be 28 d3 5b be ec 9f db 3e b4 68 a1 be
       -0.44881377 -0.21467268 0.42895448 -0.31525195
000260 91 9c c9 3e fe 71 b8 be 0e ef 87 3e 27 76 be be
       0.39377263 -0.3602447 0.26549572 -0.37199518
000270 e7 bc 46 3e 4b 59 b1 3e 46 60 2b 3e a3 db 0e be
       0.19407998 0.34638438 0.16735944 -0.13950972
000280 24 5e 10 be d2 0a f4 be 30 a3 56 3d 0c 7a 69 3e
       -0.14098412 -0.47664505 0.05240172 0.22800463
000290 81 ab 36 bd 73 66 a3 be 61 f0 0a be 00 78 61 be
       -0.044597153 -0.319141 -0.1356826 -0.22018433
0002a0 61 bb d1 3d 58 b5 a1 3e 6c 4a e6 be 25 e4 78 be
       0.10240818 0.31583667 -0.44978654 -0.2430578
0002b0 85 a7 9b 3e 50 1e 12 be a8 6a 1d be 8a ca a6 be
       0.30401245 -0.14269376 -0.15372717 -0.325764
0002c0 2b a5 7c be f1 ec b1 3e 1a 46 a7 3e 57 5d 7e 3e
       -0.24672382 0.34751084 0.3267067 0.24840294
0002d0 39 70 a5 3e 18 4e 3e 3e 74 74 62 3e 3e a7 d9 3e
       0.32312182 0.18584478 0.22114736 0.42510408
0002e0 9d a1 f3 3e f8 7e 5a 3e 7a e4 bb be 4a 5b 91 be
       0.4758424 0.21337497 -0.3669775 -0.2838996
0002f0 1c 1a 2c 3d d7 8c 40 3e 46 4d 06 be 8a 46 31 be
       0.042017087 0.18803726 -0.13115415 -0.17312065
000300 4f 66 02 3e 66 f8 ba 3e 10 27 d1 be 0f f3 9a 3d
       0.1273434 0.36517638 -0.40850115 0.07565891
000310 69 08 6c 3e 9c 9d 14 bd 77 df 8b 3e d1 ef 01 be
       0.23050083 -0.03628312 0.27318928 -0.12689139
000320 a3 85 eb be 30 0a 23 be ab 77 d2 3e c8 57 86 3e
       -0.46000394 -0.15921855 0.41106924 0.26238847
000330 40 b4 c5 be 4b da 4f 3e 68 b1 dc be bb 80 df be
       -0.38614082 0.20298116 -0.431041 -0.436529
000340 86 b2 ef 3e 60 f5 7f 3e 31 ad 14 be 7d 56 63 3e
       0.4681589 0.24995947 -0.14519192 0.22200961
000350 3b dc d1 3e bb c1 41 3e 3a 3e f6 3e 07 50 e3 be
       0.40988335 0.18921559 0.4809435 -0.44396994
000360 a5 0f 23 3d 29 6e d0 be a2 1a ec 3e dc 95 34 bd
       0.03980984 -0.40709046 0.4611407 -0.04408823
000370 4e b4 1e 3e 41 17 67 3d 55 37 f5 bd d2 3a bd 3e
       0.15498468 0.05641866 -0.11973444 0.3695894
000380 4b dd db be ee a1 2f 3e a7 84 53 3e f8 5f d3 be
       -0.4294227 0.17151615 0.20656072 -0.41284156
000390 60 ca 1b be 34 5c db bc 2b 30 fa bd b7 6a 33 be
       -0.15213919 -0.026777364 -0.122162186 -0.17521177
0003a0 29 a1 b7 3e 3f 18 9e be 90 98 39 bc 87 5d 5d 3d
       0.35865143 -0.30877873 -0.011327878 0.054044273
0003b0 b4 2f ee bc ca a7 ca be a9 53 c4 3e 94 65 b6 be
       -0.029075481 -0.39581138 0.38345078 -0.35624373
0003c0 68 b8 8a bd 3c 66 f1 be 76 83 82 3e fd a8 e0 3e
       -0.06773454 -0.4714831 0.25490922 0.43878928
0003d0 53 d4 f4 be 76 5a 2b 3e e1 cf c6 3e 83 35 45 be
       -0.4781824 0.16733727 0.38830474 -0.19258694
0003e0 4c 65 19 3e 4d 9a a9 be 07 8a 87 bc 19 76 11 3e
       0.14980048 -0.33125535 -0.016545309 0.14205207
0003f0 62 6e 6b 3e 35 39 8c be a6 27 8d be 35 46 b6 3e
       0.22991326 -0.27387396 -0.27569312 0.3560044

pos_encoder.2.bias f4 [48]
000000 6f 02 db be 4e 40 34 be a5 c8 3e bd 8a 33 ee be
       -0.42775294 -0.17602655 -0.04657807 -0.46523696
000010 a1 dd 3f 3e ff 69 64 3e d5 6c 9a 3e 78 62 bc be
       0.18736888 0.2230606 0.30161157 -0.36793876
000020 f1 c6 76 3e df 9a 20 be 23 6d ce 3d d3 4f 68 3d
       0.24099328 -0.15684079 0.1007941 0.05671675
000030 9c 7a 03 bd 82 a4 ce 3e 9a e8 bf be 0b 92 73 be
       -0.03209935 0.40359885 -0.37482148 -0.2378618
000040 99 21 1a 3e 37 05 e7 3e 30 3f f8 3e 5e 0d c0 be
       0.15051879 0.45121166 0.48485708 -0.37510198
000050 f3 db fe 3e 1f ef 9c be 2e 0a 3c be 66 43 34 be
       0.49777183 -0.30651185 -0.18363258 -0.17603835
000060 44 79 41 3d 43 a0 ba be a8 42 02 3e 9d d8 6d 3e
       0.04723479 -0.36450395 0.1272074 0.23227163
000070 ad d9 9c 3e c9 45 44 3e 06 39 e8 be 08 8c 89 3e
       0.30634823 0.19167246 -0.45356005 0.26864648
000080 f9 0d 8e bd 6f 8b 8d be df a7 79 3e ea 6c 71 be
       -0.06936259 -0.27645442 0.24380444 -0.23576704
000090 37 f3 b0 be 76 11 69 be d7 11 ca be 9c 3a ea be
       -0.34560558 -0.22760567 -0.39466736 -0.4574784
0000a0 f2 1d 9b be 19 12 e3 bd f3 e0 c8 be 7e c7 c5 3e
       -0.30296284 -0.11087436 -0.39234123 0.38628763
0000b0 c4 52 8d 3e 0c 22 b9 3e 94 bf db 3e 86 72 93 bd
       0.27602208 0.36158788 0.429196 -0.07199578

pos_encoder.4.weight f4 [96, 48]
000000 be c4 35 3e 4c 81 ce bd ae bf 07 3e 2a e3 f8 3d
       0.17750832 -0.10083255 0.13256714 0.12152703
000010 f3 5f 2a 3e cc 4a 72 3e 6b 50 31 3e 23 f8 02 3d
       0.16638164 0.23661345 0.17315833 0.031974923
000020 97 62 13 3d f5 ee 5b bc 1b 39 2a be aa df aa be
       0.035982694 -0.013423671 -0.16623347 -0.33373767
000030 1d 4b d2 3d af 1d f2 3c 96 f7 76 be 84 78 8e 3d
       0.10268233 0.02955517 -0.24117884 0.0695658
000040 2c 31 ba 3d ca 69 1e 3e ef 47 1c 3e 9c bf 93 be
       0.0909141 0.15470043 0.15261815 -0.28857124
000050 fa b7 bb 3d 7b 43 25 3e ed f9 51 3d 4c 91 18 3d
       0.0916595 0.16139023 0.05126374 0.03724794
000060 ac cd 3d be 66 b2 a6 3e 84 3d ce 3d 46 57 fe 3d
       -0.18535489 0.32557982 0.10070327 0.1241899
000070 bf 34 b8 ba ea 59 37 bd b0 4c 26 be 70 ea 59 be
       -0.0014053805 -0.044763483 -0.16240191 -0.21280837
000080 51 5d 2e be 8d 2c 18 be ba 50 43 3e 6c 53 8d be
       -0.17027785 -0.14860745 0.19073763 -0.27602708
000090 47 de 9f 3e 68 7e ce 3d 0a b1 59 be 65 ab 25 3e
       0.31224272 0.10082704 -0.21258941 0.16178663
0000a0 bd 89 74 be 3d 12 a7 3e 6a be 7c 3b 1f b9 64 3d
       -0.23880668 0.32631102 0.0038565644 0.055840608
0000b0 23 4e 4b be d8 a3 02 be a7 bc 0f bd ea f4 89 3d
       -0.19854026 -0.12757814 -0.035092022 0.06736167
0000c0 33 fa d5 3d 6f db 20 bd d2 34 81 bb f9 ab 85 be
       0.10448112 -0.03927177 -0.0039430643 -0.26107767
0000d0 fd bb 53 be b1 86 f8 3d aa 66 41 3e 56 70 90 be
       -0.2067718 0.12135065 0.1888682 -0.28210706
0000e0 b4 4c 5e 3e 99 1c 1a 3d 40 f1 54 be d4 17 8b 3d
       0.21708947 0.03762493 -0.20795155 0.06791654
0000f0 54 6d 22 3e e3 fb 61 3d 82 d7 55 bd 3f d2 83 3d
       0.15862018 0.05517186 -0.052207477 0.06436586
000100 53 b6 a6 bd a4 4d 81 be 76 93 aa be 6b f3 e9 bd
       -0.08140244 -0.25254548 -0.3331563 -0.114233814
000110 9d af f7 bd 6e d0 2a be da fa 84 bd 7d 5a 1e 3e
       -0.120940425 -0.16681072 -0.06493159 0.15464206
000120 65 37 96 bd 61 7c 75 3e c4 ce 8c 3e e7 5e a2 be
       -0.073347844 0.23973228 0.275015 -0.3171303
000130 a6 cc 38 be 77 f2 f8 3c a8 6e 77 bc 64 84 93 3b
       -0.18046817 0.030389054 -0.015102066 0.004501866
000140 39 4f 52 3d 41 05 58 be 99 6d a5 3e fe b5 44 3e
       0.051345084 -0.21095754 0.3231018 0.1921005
000150 c2 a7 cd 3d 15 07 99 3e cc e5 9d be f8 0c 0d be
       0.10041763 0.29888216 -0.30839384 -0.13774478
000160 5b fe ad be 9f 12 ca 3d 7e f6 29 3e 03 a6 a8 be
       -0.3398312 0.09866833 0.16597936 -0.32939157
000170 5e 01 17 3e 9c 53 54 be cd 09 95 3e a1 ae 9c be
       0.14746615 -0.2073502 0.2910904 -0.3060198
000180 5a 64 8a be 27 f1 b5 bc f6 ce 6d be 05 49 8c 3e
       -0.27029687 -0.022209717 -0.2322348 0.2739946
000190 bf 4c 36 3e e4 fd a1 be 15 fd 9c 3c 0f 4f 01 3c
       0.17802714 -0.31639016 0.019163648 0.007892384
0001a0 d0 cb 3b 3c 49 a3 99 3e bd 50 9f bd 95 26 8f be
       0.011462167 0.3000739 -0.077790715 -0.27959123
0001b0 94 53 82 be 11 cc 25 be 2f 05 8a 3e 7c be 9c 3e
       -0.2545439 -0.16191126 0.2695708 0.30614078
0001c0 86 41 9c 3e b6 4a c4 bd bc 4c a6 be 2f 7d 93 be
       0.3051874 -0.095845625 -0.3248042 -0.28806445
0001d0 bd 65 92 3c e9 ee a6 3e f7 fe 97 be ea 69 7e be
       0.017870778 0.3260415 -0.2968671 -0.2484509
0001e0 68 fe 46 be 21 a9 38 be b2 6d 63 be 7c 26 c2 3d
       -0.19432986 -0.18033268 -0.22209814 0.094799966
0001f0 0d c1 fc bd bd fe 65 be f3 ee 07 be 9f 45 a9 be
       -0.12341509 -0.22460456 -0.13274746 -0.3306093
000200 9d 3d 7a be 1a 0c f7 3d 3b c3 10 3e 2d 69 a3 be
       -0.24437566 0.12062855 0.14136975 -0.3191618
000210 6d 52 e0 3d c0 d7 83 3e 63 9a a1 3d 71 d4 99 3e
       0.109532215 0.25750542 0.07890775 0.30044892
000220 00 04 ed bd 1f 52 db 3c 93 a5 0b be 16 67 8a 3e
       -0.115730286 0.026772557 -0.1363738 0.27031773
000230 8f 52 99 3c dd d3 6c be c5 5f fe 3d 6c fb 5e be
       0.018716125 -0.23127694 0.1242061 -0.21775597
000240 a2 ed a7 3e 2e 04 c1 bd 93 0b 5d 3b 5d 76 29 bd
       0.32798487 -0.09424625 0.0033728823 -0.041372646
000250 2e 40 ef 3d b4 3e 6e be 29 90 46 3e 1d 30 63 be
       0.11682163 -0.23266107 0.1939093 -0.22186323
000260 7d b9 d0 bd ce 5c 09 be d4 e1 75 bd 1c 46 0a 3e
       -0.10191629 -0.13414308 -0.06002982 0.13503307
000270 13 64 33 3e 95 03 7a 3e 39 e4 95 3e 92 50 ac be
       0.17518644 0.24415429 0.29275683 -0.3365522
000280 4e c2 af be 21 43 09 be 81 9e 78 be 23 1e 99 be
       -0.3432793 -0.13404514 -0.24279214 -0.29905805
000290 36 ef ce bd b0 21 05 3c 60 89 f9 bd ba 9b 83 3c
       -0.101042196 0.0081257075 -0.12184405 0.016065467
0002a0 35 4c 49 be c8 ac f9 bd b8 e2 41 3a 36 d9 58 3c
       -0.19657977 -0.121911585 0.00073961494 0.013235381
0002b0 97 b3 d6 3d b3 94 e9 bd 02 0e 4a 3d c5 bc 5d 3e
       0.10483473 -0.11405315 0.049329765 0.21654041
0002c0 f1 8e a1 3e 7b 49 3f bd 11 70 0a be 52 08 02 3e
       0.31554368 -0.046700936 -0.13519312 0.12698486
0002d0 f2 71 1f 3e 3c 1d a2 be fd 0b 2c be b9 70 fd 3d
       0.1557081 -0.3166293 -0.16801448 0.12375016
0002e0 1d 1c 3d 3e f0 49 0f be 22 68 85 be 08 33 77 be
       0.18467756 -0.13993049 -0.2605601 -0.2414056
0002f0 43 3c 01 be fd 1b 84 3e 97 a2 ad be bb 60 a0 3e
       -0.12620644 0.25802603 -0.3391311 0.313238
000300 7d df 52 3e a7 30 64 3e ac f8 7c be c3 50 5b bc
       0.20593067 0.22284184 -0.24704236 -0.013385954
000310 59 37 ac be f7 71 8a 3e 1e f4 b7 3c d0 49 89 3e
       -0.33635977 0.27040073 0.022455271 0.26814127
000320 06 ec 81 be 9c f5 51 3d 0d f1 85 be 2e 8f 85 3b
       -0.25375384 0.051259622 -0.2616047 0.0040759062
000330 e7 d5 43 3e ce 07 a2 3e 4e e0 6b 3c d9 1d 36 be
       0.19124566 0.3164658 0.01439674 -0.17784823
000340 19 58 a7 be 4f c9 fd 3d 09 6d db 3d 40 a8 43 3d
       -0.326844 0.12391912 0.10714156 0.047767878
000350 d3 d3 37 3d a0 99 81 3d 52 08 a9 3e 77 ba 89 bb
       0.044879746 0.0632813 0.3301416 -0.0042031365
000360 78 ba 56 be 4c 54 7f bd 84 06 ef bd 45 20 9b 3e
       -0.2096957 -0.06233625 -0.11671165 0.30298057
000370 fc 94 22 3e 58 82 a6 be c9 c8 0c 3e 24 92 86 3e
       0.15877146 -0.3252132 0.13748468 0.2628337
000380 69 5b 6e 3e 48 0f 3a 3e ca 20 41 be eb 57 e9 bc
       0.23277058 0.18169892 -0.18860164 -0.028484305
000390 8f 6f 49 3e f6 ab 8f 3d 75 6f 9c 3e 17 2d 1e be
       0.19671462 0.07015221 0.30553785 -0.15446888
0003a0 01 e2 ae be 97 4e 9b 3e 69 a8 fe bd f9 f4 8a bc
       -0.34156802 0.30333397 -0.124344654 -0.016962515
0003b0 55 1a 5f be c0 42 8c 3e 67 ba f6 bd 3a 4e a2 3e
       -0.21787389 0.27394676 -0.12047272 0.31700307
0003c0 a3 01 83 bd 66 d7 4d be 25 77 18 3e bd 2e 44 be
       -0.063967966 -0.20101699 0.148892 -0.19158454
0003d0 5e 83 c1 bd ae 81 fb 3d eb f1 e4 bd f3 55 7c 3e
       -0.094488844 0.12280594 -0.11178955 0.24642162
0003e0 5e 89 3f be 3a 97 52 3e 7a a4 89 bd 3a 7d 3a 3e
       -0.18704745 0.20565501 -0.067208245 0.18211833
0003f0 8e dc d4 3c e7 90 b0 be bd eb a8 3e ab 19 fe 3d
       0.025984075 -0.34485552 0.32992354 0.124072395

pos_encoder.4.bias f4 [96]
000000 b0 f7 05 be 92 2b 08 3e c3 0a 8d be d3 e2 3c be
       -0.13082767 0.13297871 -0.27547273 -0.18445902
000010 13 bc 27 3e 06 92 ae be 90 b1 b0 be 4e 44 6f 3e
       0.16380338 -0.34095782 -0.3451047 0.233659
000020 01 93 8e bd c2 14 ea 3d 2a fb b1 be 36 32 06 be
       -0.069616325 0.114297405 -0.34761935 -0.13105091
000030 df 11 17 3e 42 61 49 3e 02 1c d6 bd 38 4e cf bd
       0.14752911 0.19666007 -0.10454561 -0.10122341
000040 89 3b 23 3b 1c 72 39 be fc 16 f0 3c 3e 51 48 be
       0.0024907312 -0.18109936 0.029307835 -0.19562241
000050 eb cd 38 be 1e 45 a5 3e 14 bc 9b 3e de 10 a2 be
       -0.18047301 0.32279295 0.3041693 -0.31653494
000060 9f 07 9d 3e fd 74 36 3e e8 29 1a be 67 0c 9e 3e
       0.30669877 0.17818065 -0.15055048 0.30868837
000070 81 a8 98 be f3 24 d7 bd 9c 8a aa 3e e6 d5 a7 be
       -0.29816058 -0.105050944 0.33308876 -0.3278038
000080 d7 2e ce bd 61 eb 08 3e 54 7f 38 3e e0 a6 65 3e
       -0.10067528 0.1337104 0.18017322 0.22426939
000090 15 1f 4f be 9c 89 20 bb 29 e6 5e 3e 65 34 fc 3d
       -0.202267 -0.0024496084 0.21767487 0.12314681
0000a0 18 94 97 be ff 42 76 3e e2 fb ba bd 62 1e 89 3e
       -0.29605174 0.24048994 -0.09130074 0.26780993
0000b0 d4 53 f4 bd 2c ee 53 be 1b 1d 06 3e 47 b5 1d bc
       -0.119300514 -0.20696324 0.1309704 -0.009625739
0000c0 82 1a e8 3d 74 a8 33 bc 51 9e f9 bd d3 b2 90 bd
       0.11333181 -0.010965455 -0.121883996 -0.07065358
0000d0 7a be 4a be cc 67 a4 bd 2d 73 8f be 6e 13 cf bd
       -0.19799224 -0.0802761 -0.2801756 -0.10111128
0000e0 2c 5a 99 3e 51 4d d4 bd 5f b6 9e be 2f 87 ed bd
       0.29951608 -0.103663094 -0.30998513 -0.1159805
0000f0 d7 4f fb bd 53 fe 27 3d ba d6 ad 3c 72 bb 86 3e
       -0.122710876 0.041014027 0.021220554 0.26314884
000100 dd 40 4f 3e b8 4a cd 3d b3 9c 03 be 88 8a 9d be
       0.20239587 0.10024017 -0.12852745 -0.30769753
000110 b6 44 6d bd 0d c0 85 be fb f5 6e 3e 3c c0 d8 3d
       -0.057926856 -0.26123086 0.23336022 0.10583541
000120 d0 d1 86 3e d2 2c 5c be da fc 81 3e 66 26 cc 3d
       0.2633195 -0.21501473 0.25388223 0.099682614
000130 f5 91 8c 3e 76 e1 06 bd 9e 8e f1 3d ee 0f 2f 3e
       0.27455106 -0.03292986 0.1179478 0.1709592
000140 d1 f6 31 3d f8 04 11 3e 87 da 3f 3e be 19 06 3e
       0.043448273 0.14162052 0.18735705 0.13095757
000150 f3 f3 28 3e 39 bc 9f 3e 67 06 f4 bd 76 7f 8a be
       0.16499309 0.3119829 -0.11915284 -0.2705037
000160 b0 9e 00 be 1d 4c 01 bc b4 c0 94 be cb 10 0c 3e
       -0.12560534 -0.007891682 -0.2905327 0.13678281
000170 a6 19 83 3e b1 b0 9b bd b7 34 5f be c0 e5 a6 3e
       0.25605506 -0.076020606 -0.21797453 0.3259716

fc_encoder.0.weight f4 [8, 14]
000000 f3 9f 99 bc de b1 86 bb 03 2a a6 bc 37 6d 3d bd
       -0.018753028 -0.004110559 -0.020283705 -0.046246734
000010 fe 72 8e 3d 7b d3 16 3d 70 5d b0 ba ec 0d 59 3d
       0.06955527 0.036822777 -0.0013455581 0.052991793
000020 af 4d 61 3b 7d 2c 51 3d 16 56 2c 3d 50 89 d4 bb
       0.0034378578 0.051067818 0.042074285 -0.0064860955
000030 b0 11 75 bc a6 c1 9b bc 55 f9 0e 3d c3 98 03 bc
       -0.01495783 -0.019013237 0.03490575 -0.008032027
000040 22 e3 50 bd ba 87 8f 3c 8e 01 2e 3c e7 2e 0f 3d
       -0.05099786 0.017520774 0.010620488 0.03495684
000050 49 32 1b 3d 14 27 02 3d 96 d8 a6 3c 7a 2a d9 bc
       0.037889753 0.03177555 0.020366948 -0.026509512
000060 5b e1 8b 3d 70 d6 75 3b d5 19 8b 3c 5c e4 73 bc
       0.068300925 0.0037511848 0.016980091 -0.014885988
000070 d3 d5 06 3d 99 30 c6 3c 18 d6 25 bd e1 df 33 bd
       0.032918762 0.024193095 -0.04048738 -0.04391468
000080 71 36 05 3c be 37 ab 3c 6e fb f2 3c d0 f1 a2 3c
       0.008130656 0.020900603 0.029660907 0.019890696
000090 6f e4 02 3d 8e fc b1 bc ca 94 c8 ba b0 2c c4 bc
       0.031956133 -0.021726873 -0.0015303132 -0.02394709
0000a0 68 cd d5 bc 96 1c e4 3c df 12 17 bb 94 50 42 3b
       -0.026098922 0.027845662 -0.002305202 0.002965008
0000b0 e1 92 02 bb 3a 97 da 38 af a8 80 ba 53 be ca 3b
       -0.0019923972 0.00010423218 -0.0009815897 0.006187239
0000c0 37 e3 9e bd 6d 9d 02 bc e0 34 76 bb 59 a9 c8 3a
       -0.077581815 -0.007972104 -0.0037568137 0.0015309259
0000d0 79 8e 3c 3a 6f 19 f5 bb 66 1e a7 bb ff c9 8a bd
       0.0007192861 -0.0074798386 -0.0051000593 -0.06776809
0000e0 b3 ec 19 bb 08 39 18 bb 25 38 10 bb 2f 34 1c bb
       -0.002348703 -0.0023227353 -0.002200612 -0.0023834815
0000f0 9e 77 1b bb 53 c9 13 bb 9d 28 0d bb 32 69 19 bb
       -0.002372242 -0.0022550419 -0.00215391 -0.0023408649
000100 e5 c4 1b bb c7 7b 1b bb a6 b0 0a bb 77 b2 19 bb
       -0.0023768481 -0.00237249 -0.002116242 -0.002345232
000110 67 ad 18 bb e8 94 19 bb 81 9b 41 bd 96 20 1b bd
       -0.0023296715 -0.0023434702 -0.04726744 -0.037872873
000120 9d ba 3c 3d 4e 76 eb bb 14 75 88 bc df 19 22 3d
       0.046076406 -0.007185734 -0.01665739 0.039575454
000130 d1 24 da 3a 1c ad a0 3d 00 8f d7 bc c4 50 35 3c
       0.0016643052 0.07845518 -0.026313305 0.011066619
000140 71 87 ff 3c 2c c9 6f bd de b6 ae 3c 7f 5d 2c 3c
       0.031192513 -0.05854146 0.021327432 0.010520338
000150 3b d3 46 bd 88 0a a1 3b ed 0c f2 bc 00 61 02 bd
       -0.04854129 0.0049145855 -0.02954718 -0.031830788
000160 a9 85 21 bd 88 a1 99 3c 3e 97 37 3d e5 d3 39 bd
       -0.03943411 0.018753782 0.04482197 -0.045368094
000170 6d d2 1a 3d 1c 1e 2c 3d de de af bc b4 99 fd bc
       0.037798334 0.042020902 -0.021468576 -0.03095708
000180 98 56 b9 bc 90 4a 15 bd d4 23 01 bd c4 63 32 3c
       -0.022624299 -0.03644806 -0.03152831 0.010888044
000190 75 fb 61 3d b0 38 41 bc f4 9b d6 bb 51 25 02 bd
       0.05517145 -0.0117933005 -0.006549353 -0.03177387
0001a0 14 8a 52 3d bf 0d f2 bc 15 ca 53 bc 1c 8f f9 3c
       0.051401213 -0.02954757 -0.012926598 0.030463748
0001b0 7a 73 86 bd 49 b9 85 36 18 bb 49 bc da 8d 8f 3c
       -0.06564994 3.985279e-06 -0.012312673 0.017523695

fc_encoder.0.bias f4 [8]
000000 aa 9a 92 3d ad c9 f0 3c 94 00 80 bd 84 50 37 bd
       0.07158406 0.029393042 -0.0625011 -0.04475452
000010 8d 8f 84 bd cd ab 21 3d a2 04 15 3b c1 36 66 3d
       -0.06472693 0.039470483 0.0022738357 0.05620456

fc_encoder.2.weight f4 [16, 8]
000000 e0 c4 1c bd 0b 48 4f 3e eb 7d 46 3e d1 dd c4 3d
       -0.038273692 0.20242326 0.19383971 0.096126206
000010 1b 05 76 3f 1e 6f 1c be 2f b0 91 3d 1f 54 be 3c
       0.9610154 -0.15276763 0.071136825 0.023233471
000020 18 98 8c bc 8c 73 ca 3b 1b bf 65 3e 9c 77 2a bd
       -0.017162368 0.006178325 0.22436182 -0.041617975
000030 e9 2a 03 3f e1 fa d5 3e b3 bf 77 3e e1 3c 96 3e
       0.5123735 0.41792968 0.24194221 0.29343322
000040 e7 bc 89 be 8c 8a b7 be 01 0f 02 bf 78 0d 07 3e
       -0.26901934 -0.3584789 -0.50804144 0.13188732
000050 35 08 8a 3c 4e ca e5 3e d7 f6 c2 3d b7 83 bd 3e
       0.016849617 0.4488091 0.09519737 0.37014553
000060 d3 cb 7d 3e d6 66 ed 3c f6 e9 2f 3e da 74 c2 bd
       0.24784784 0.0289797 0.17179093 -0.09494944
000070 e0 8b a6 3c fe c3 a2 3e b4 b2 16 3f f0 24 9a be
       0.02033037 0.31790155 0.5886643 -0.30106306
000080 e4 bd 7c 3d 8c f3 31 be bd 2b 49 be dd 54 33 be
       0.06170453 -0.17378062 -0.19645591 -0.17512842
000090 2e 62 9a be 03 1a 7e 3e 07 4f 23 bf 14 2b be bd
       -0.3015303 0.2481461 -0.6379246 -0.0928556
0000a0 b3 d0 74 be 72 a5 8b 3e 42 25 04 be 77 46 13 3e
       -0.23907737 0.27274662 -0.12904838 0.14382349
0000b0 6a 86 28 3f 18 a2 82 be 1b 16 c7 be 08 76 11 3f
       0.658301 -0.25514293 -0.38884053 0.56820726
0000c0 c7 3c 50 bd d3 33 0a bf c2 98 36 3e a0 a3 59 3d
       -0.05083921 -0.5398533 0.1783171 0.05313456
0000d0 ac 27 20 bf 8c a6 ec 3e 43 a8 32 3f 6c f9 09 be
       -0.62560534 0.46220815 0.69787997 -0.13474053
0000e0 f7 c1 a4 be 2f af 9e 3d 10 db 9e 3e 58 dd 2b bd
       -0.32179233 0.07748257 0.31026506 -0.041959137
0000f0 5d a1 22 bf 56 5a 5a 3e c3 9e 3b 3d 63 27 c0 3e
       -0.6352747 0.21323523 0.045805704 0.3753005
000100 a1 6e f0 3d d1 8e b5 3e 9a f9 d9 bb 4c b1 7f bd
       0.11739851 0.35460523 -0.0066520693 -0.062424943
000110 07 c1 09 bf 10 68 a5 bc ae 5d e8 be 6d 95 8e 3d
       -0.5381016 -0.020191222 -0.45383972 0.069620945
000120 41 a8 98 bd 38 98 aa be 6f 34 fd 3e 71 4e 3e be
       -0.07453967 -0.3331926 0.49454066 -0.1858461
000130 2b ee 2b 3e 6c f0 15 3f 74 67 81 3e 46 a8 c2 3e
       0.16790073 0.5856998 0.2527424 0.38019007
000140 36 0b 99 bd d6 22 95 be 2d 49 85 be 14 87 a5 3e
       -0.074728414 -0.2912814 -0.2603239 0.3232962
000150 56 18 24 3e 31 70 2b 3e d6 09 66 3e 32 c6 d5 be
       0.16024908 0.16742016 0.2246469 -0.41752774
000160 39 2a c2 bb 4a 28 ef 3e ab 3d 52 be bf db af 3e
       -0.0059254435 0.46710426 -0.20531337 0.3434734
000170 73 34 02 bf 70 db fd bd d8 88 74 3e cc ce 95 3d
       -0.5086128 -0.1239537 0.23880327 0.07314834
000180 1c a4 9a 3e 0e 82 60 bc 4f 80 ea 3e 37 2d 95 bd
       0.3020333 -0.013702882 0.45801017 -0.07284015
000190 82 c0 22 bf c3 aa a2 3e 19 0b 57 3e 62 f7 6e 3e
       -0.63574994 0.31770906 0.21000327 0.23336557
0001a0 fc bf f1 3e 2f a4 04 bf 8c cb c9 3e 9c 09 d4 bd
       0.47216785 -0.51813024 0.39413106 -0.10353395
0001b0 66 ce 5e 3e 0c 24 f1 3d 34 3f c4 3d 2d 43 2d bf
       0.21758422 0.117744535 0.095823675 -0.6768063
0001c0 35 7e 2e 3e 1d cc d3 be 01 41 a4 3e 58 da 8c 3e
       0.17040332 -0.41366664 0.32080844 0.27510333
0001d0 8d 22 20 bf fd f2 99 3b 7f a0 f0 3e 38 8e c7 be
       -0.6255272 0.004698156 0.4699745 -0.38975692
0001e0 c9 e6 6c be 77 ba 9e 3e 61 13 22 be 67 80 ad 3d
       -0.23134913 0.31001636 -0.15827705 0.084717564
0001f0 31 2e 29 bf 6d 66 ab be c6 2e db be b6 39 c5 3e
       -0.6608611 -0.33476582 -0.42809123 0.38520592

fc_encoder.2.bias f4 [16]
000000 e7 86 3a be 41 22 8f be ab a3 0c bf a2 4c 49 3f
       -0.18215524 -0.2795582 -0.5493724 0.7863256
000010 8d 19 11 3f b2 e7 b5 3e 03 50 4a bf 98 28 4e 3e
       0.5667961 0.35528332 -0.7902834 0.20132673
000020 56 35 3e 3f be 03 2f bf 1c 4a 01 be 80 6a c0 3e
       0.74300134 -0.68365085 -0.12625927 0.37581253
000030 75 da 39 bd 8f f2 13 bf f6 45 de 3e ba 0c fd be
       -0.045374352 -0.5779199 0.4341275 -0.49423772

fc_encoder.4.weight f4 [32, 16]
000000 21 98 82 3e 76 a6 cf 3e 75 fd 52 3e 6f 38 17 3e
       0.2550669 0.40556687 0.20604499 0.14767621
000010 57 f8 dc bd 44 18 fd bd 6f 6d a9 3e 6f 1a 62 be
       -0.107895546 -0.12358144 0.33091304 -0.22080396
000020 9d c2 f0 3e 53 6f ae be 72 24 91 3e 26 8f af 3e
       0.47023478 -0.3406931 0.28348118 0.342889
000030 45 51 8f be d1 dd 13 3f 96 d3 74 3d 3a 1f 52 3e
       -0.2799169 0.5776034 0.059772097 0.20519724
000040 18 f6 4b 3d 2f 59 60 bc 50 eb a6 be 44 5c 28 3e
       0.04979524 -0.013693138 -0.32601404 0.16441447
000050 bf 8e 21 3e 58 32 81 be 91 7c 80 be e9 f2 a9 3e
       0.1577711 -0.25233722 -0.25095037 0.33193138
000060 00 4a 0a 3f f9 65 e5 3d 8b 29 dd 3e a2 45 29 be
       0.54019165 0.1120109 0.43195757 -0.16530469
000070 1f 11 0e bf 5b 1f 8b 3e 31 85 06 bf e0 be 9a be
       -0.55494875 0.2717236 -0.52546984 -0.3022375
000080 b0 47 9e 3e af 9d 35 3e 92 ab b2 3e e8 8d bd 3e
       0.30914068 0.17735933 0.34896523 0.37022328
000090 58 55 64 3e a6 1c 9f 3e 7a 1c 91 be 5a 2f c8 be
       0.22298181 0.31076545 -0.28342038 -0.39098626
0000a0 04 5c be bd cd 8b 0b 3e 26 5d cf be 76 e9 ec be
       -0.09294894 0.13627549 -0.40500754 -0.46271867
0000b0 53 c4 d2 be 36 b4 f6 be 80 d0 dd 3e 2a 5e 5f 3c
       -0.41165408 -0.48184365 0.43323135 0.01363329
0000c0 b8 e9 83 3e 7f a1 86 3e 77 24 49 3e ca db 2c 3c
       0.2576425 0.26295087 0.19642816 0.010550449
0000d0 00 68 78 be 2e 59 91 be 7a 2f a9 be 8c 30 02 bf
       -0.24258423 -0.2838835 -0.33044034 -0.50855327
0000e0 e6 15 b4 be e4 54 0c bf 52 86 88 3d cb 9a bc bd
       -0.35172957 -0.5481703 0.066662446 -0.09209212
0000f0 7e 94 8a 3e 78 3e 10 bf c0 e6 18 be 65 5b bd be
       0.27066416 -0.5634532 -0.14931774 -0.3698379
000100 20 f0 dd 3e 13 27 7c be 57 17 cf 3e ed df b2 bd
       0.43347263 -0.2462428 0.40447494 -0.08734117
000110 a3 a4 c9 be f1 d8 c5 bd ff ab da 3e a7 2c 21 bd
       -0.3938342 -0.09660519 0.42709348 -0.039349224
000120 40 6e ed 3e fb ce ba 3d de 5a 18 be 52 f3 5e be
       0.46373177 0.0912151 -0.14878413 -0.21772507
000130 fe 29 b2 bd eb ad b3 be 95 a4 34 be fd 7d 0a bd
       -0.086994156 -0.35093626 -0.17640908 -0.033811558
000140 34 6b 9e be ba a8 98 be 63 c0 60 bd c8 7b 27 3e
       -0.30941164 -0.29816228 -0.054870974 0.16355813
000150 fb ca f7 3e 32 2d e1 3e b3 5d ad bd fb 67 ab 3c
       0.4839705 0.43979794 -0.08465137 0.020923605
000160 e7 a8 ec be 5c a5 65 bd d1 18 ce 3e d6 17 26 3e
       -0.46222612 -0.056065902 0.40253308 0.1622003
000170 98 84 13 3f df 3b fd 3e 41 ce d3 3d 90 bc 51 3e
       0.57624197 0.4945974 0.10342074 0.20482087
000180 7f d0 18 be ea 3c 19 bf 2f 24 f4 3e 0e 3c 83 bd
       -0.14923285 -0.5985857 0.47683856 -0.06407939
000190 7f e7 b4 3e db 9d 74 3e af f1 ae be 62 f4 b9 3e
       0.35332868 0.23888342 -0.34168765 0.36319262
0001a0 f2 c7 0e bf 4f 02 03 3f 44 7e cb be 45 0a d1 3d
       -0.5577384 0.511754 -0.3974477 0.10207037
0001b0 31 58 d3 bd 67 83 24 3e 7d 3e b9 3e 07 f6 90 3e
       -0.103195556 0.16065751 0.36180487 0.28312704
0001c0 b6 1f a3 3e a0 d8 81 3e 59 2c 65 3e b0 ef ae 3e
       0.3186013 0.25360584 0.22380199 0.34167242
0001d0 0e 58 8f be 90 32 f2 be c2 4c a3 3e ff 1a 8b 3e
       -0.27996868 -0.473042 0.318945 0.27169034
0001e0 37 6d 10 bf 5f c8 63 3e 58 3e d4 3d 56 1f c5 3e
       -0.5641665 0.22244404 0.103634536 0.3850047
0001f0 ea 13 f0 3e 22 e6 db bc e2 4e e8 be 5f 63 8e 3e
       0.46890193 -0.026843134 -0.45372683 0.2781019
000200 cd 66 e3 be 4f 5d 81 3e d4 a7 90 3d 58 71 2c be
       -0.44414368 0.252665 0.07063261 -0.16840112
000210 18 27 98 be c5 ee 9b 3e 02 09 0b 3f f9 07 ae be
       -0.29717326 0.30455604 0.5431062 -0.33990458
000220 b3 ae 03 3f 94 b7 10 bf 1e de c8 be 55 6c ba be
       0.51438445 -0.5653012 -0.39231962 -0.36410776
000230 fb 66 05 3f 22 2a 84 be 3b a6 24 be 12 a7 7e 3e
       0.5211026 -0.25813395 -0.16079037 0.2486842
000240 5e f5 e4 3e 45 6b 85 be 9f 95 0e be e2 8b a7 be
       0.4471845 -0.26058403 -0.13924263 -0.3272391
000250 1a 28 02 3e 32 67 c9 3e 0e 73 19 3f de 89 09 be
       0.1271061 0.39336544 0.59941185 -0.13431498
000260 bb 08 66 3e a6 7b c0 bd ef 92 19 be a9 19 ab 3d
       0.22464268 -0.09398584 -0.14997457 0.08354504
000270 12 f9 1a be ed 11 5e be 20 05 85 be 57 4b 40 3b
       -0.15134075 -0.21686526 -0.25980473 0.002934178
000280 9a 08 9f 3d bd ef c1 be 4e 06 04 3e 16 e4 e0 be
       0.077653125 -0.37878218 0.1289303 -0.43924016
000290 18 51 0c 3f 13 5e c0 be e2 a0 59 3e 82 6f 96 3c
       0.5481124 -0.37571773 0.21252778 0.018363718
0002a0 4d 51 84 be c4 90 07 bf 25 90 1e be 85 6a ef be
       -0.25843278 -0.5295527 -0.15484674 -0.46760955
0002b0 b9 0c 19 be bd a3 28 be dc a0 18 3f fa 58 e6 be
       -0.1494626 -0.16468711 0.5962045 -0.4498976
0002c0 85 5e 6c be d9 fb 04 3e 22 fc c9 3e 36 4a d3 3d
       -0.23082931 0.12986697 0.39450175 0.10316889
0002d0 3c 95 df be 1b a8 0c 3f 64 58 b0 be c6 8e cc 3e
       -0.43668544 0.5494401 -0.34442437 0.39952677
0002e0 67 5d e2 be c9 e9 1f be f1 ad 70 3e 65 92 f1 be
       -0.44211885 -0.15616526 0.23503853 -0.47182003
0002f0 0a 10 de bd 6f 50 d9 3e 5e fa f2 3d 57 89 f2 bd
       -0.10842903 0.42444178 0.1186416 -0.11842602
000300 4a c8 16 3f a9 db ee be ce 2a 7b 3e 5d 4a cc 3d
       0.58899367 -0.46651962 0.24528047 0.09975121
000310 0b 4e c2 be c2 bc 7d 3e a9 94 c7 bd a4 5b e7 3e
       -0.37950167 0.24779037 -0.097451515 0.45187104
000320 31 f6 0e bf a3 7b f5 be 75 36 98 bb 6f d2 82 bd
       -0.5584441 -0.4794589 -0.0046451637 -0.06387793
000330 ef ac b2 3e 54 0e 45 3e d0 b9 ce 3e 5b 8b d2 3e
       0.34897563 0.19243747 0.4037614 0.41121945
000340 55 e3 fd 3d 02 1b 07 bf 5c 70 b3 be 73 dd af bd
       0.12396876 -0.52775586 -0.3504666 -0.0858716
000350 35 8e 45 3e 2a 29 a3 3d 91 76 e4 3d 78 06 06 bf
       0.19292529 0.07966836 0.11155427 -0.5235362
000360 d7 a0 bd 3e e6 10 8f 3e ce ab c9 be 98 3b 70 3e
       0.37036774 0.2794258 -0.3938889 0.23460233
000370 c7 95 c6 be 65 af ec be 87 1e ba 3e 38 03 b7 3e
       -0.38786146 -0.46227565 0.36351416 0.35744643
000380 21 88 1b 3d 6f c1 7d 3e 6e b2 ad be 5a f5 81 3d
       0.03797162 0.2478082 -0.33925194 0.06345625
000390 96 cb 68 bd ee 92 f5 3e 45 32 8c bd e4 a7 bd be
       -0.05683478 0.4796366 -0.06845526 -0.37042153
0003a0 81 6e 5b be 51 13 4e 3e 72 91 b7 be e3 b3 94 be
       -0.21428873 0.20124556 -0.35853153 -0.29043493
0003b0 b7 cb 43 be f7 bc 30 3d 67 63 93 3e c5 47 87 be
       -0.1912068 0.04314896 0.28786775 -0.26421943
0003c0 d1 ab a6 be 83 4e 86 bd d7 28 b0 be ee be 8d bd
       -0.3255296 -0.06557944 -0.34406158 -0.069211826
0003d0 95 b9 8e be 37 16 8b be d2 2e 8d be b3 b9 30 3e
       -0.27875963 -0.27165386 -0.27574784 0.17258339
0003e0 0c f8 de be 54 6f a8 3c 5a b2 ef 3e 7c df ee 3e
       -0.4354862 0.020560898 0.4681576 0.4665488
0003f0 11 29 bd 3e 96 c2 88 be d3 8e 89 bd 13 d0 a5 3d
       0.36945394 -0.26710957 -0.06716695 0.08096328

fc_encoder.4.bias f4 [32]
000000 63 ab da 3e be 72 c5 be cb 96 b1 3e ff 3e 8f 3e
       0.42708883 -0.38564104 0.34685358 0.2797775
000010 79 ed 84 3e 6f 94 b8 3e 2b 35 bf be f0 02 b2 3e
       0.25962427 0.36050746 -0.3734525 0.34767866
000020 9e 51 f9 be de d9 90 be ef a3 d3 3e 0b 12 ce 3e
       -0.4869508 -0.2829122 0.4133601 0.4024814
000030 58 b1 bd 3e db 24 4d be e1 8b d8 3d d7 30 9c 3e
       0.37049365 -0.2003359 0.10573555 0.30506012
000040 70 05 e9 be 9f b3 d1 be b7 da a4 3e 0e b2 dd 3e
       -0.4551196 -0.40957353 0.32198116 0.43299907
000050 6b 2c d6 be 61 77 a2 bd 6f 3a 3e 3e 10 f0 a0 be
       -0.41830763 -0.07932926 0.18576978 -0.31433153
000060 97 3b a6 be e0 c0 ed 3e b3 bc 96 3e e7 0e 3c be
       -0.32467338 0.46436214 0.2944084 -0.1836506
000070 3b c6 f2 3c 6a 5e 96 be 9e ae f3 3e 79 35 07 bf
       0.02963554 -0.29368907 0.4759416 -0.5281597

decoder.0.weight f4 [128, 128]
000000 ba d3 ca 3b 30 4b 28 3c 05 af 69 3b 28 2c b8 3b
       0.0061897906 0.010271832 0.0035657298 0.005620498
000010 4f 87 d3 3b dd bc b5 3b 7e 14 c2 bb 9d e7 7e 3a
       0.006455339 0.005546196 -0.005922853 0.0009723844
000020 3a 6a 2b bb 84 75 91 3b a9 7b c9 bb 4a d4 de bb
       -0.0026155845 0.004439058 -0.0061487746 -0.006800209
000030 92 aa 23 3a 8e 26 db bb 16 25 be ba aa 10 0e 3c
       0.00062433735 -0.0066879457 -0.0014506902 0.008670965
000040 f9 0b a6 bb ac a1 d7 3a 7b cf af b9 16 a8 c2 bb
       -0.005067345 0.001645138 -0.00033533186 -0.0059404476
000050 73 d9 04 3b 1c 32 5a bb 76 a8 29 3a df 8f 91 ba
       0.0020271211 -0.0033294028 0.0006471941 -0.0011105499
000060 c1 50 e7 3b 39 0c b9 3b 28 2f ee ba f8 6e 76 3b
       0.007059187 0.005647209 -0.0018172013 0.0037602764
000070 c8 c4 08 3c 3f 8d 02 3b cb 0a d1 3b 99 f0 30 3c
       0.008347698 0.0019920615 0.0063794605 0.01079955
000080 34 0f 81 39 b3 cc 48 3c e3 a5 4d bb 6b b0 c8 39
       0.00024616125 0.012255835 -0.0031379394 0.00038278414
000090 f3 da ef 3a ab 50 fd ba 54 6b 29 bb 2b 56 68 bb
       0.0018299505 -0.0019326409 -0.0025851326 -0.003545175
0000a0 e9 6a 61 bb 0d 8f cc 39 cf b7 1f 3c 9d c9 07 bb
       -0.0034395999 0.00039016493 0.009748413 -0.0020719536
0000b0 c5 3e b7 bb 2d b2 7d 39 b0 40 d5 3a b4 88 01 3c
       -0.0055921995 0.00024194336 0.0016269889 0.007906128
0000c0 74 a0 05 3c a5 2c 25 3a d1 c6 bb 3a 2e ff 76 3b
       0.008155931 0.0006300903 0.001432622 0.003768872
0000d0 2e b3 fb b9 c2 68 96 bb 52 87 ec 3b 50 c4 5f bb
       -0.0004800795 -0.004590125 0.00721828 -0.003414411
0000e0 db bd a3 ba e4 70 9c bb 75 3e 28 3b 1c 7a 01 3c
       -0.0012492494 -0.0047742 0.0025671993 0.007902648
0000f0 3a fc 16 3b bf 17 69 bb 05 4f 78 3b fa 60 91 3a
       0.0023038522 -0.0035567132 0.0037888896 0.0011091523
000100 0a 8f 9b ba a1 f9 a6 3a 7f f3 ce bb d9 f0 38 bb
       -0.001186819 0.001273919 -0.006315648 -0.0028219728
000110 b8 2f a7 bb 2d fd d9 ba e1 b5 05 3b 8f db 56 3c
       -0.005102124 -0.0016631238 0.0020402598 0.01311387
000120 88 1b 02 3b 85 d5 4d 3b b8 7c 3b 3c a2 6e e8 39
       0.0019852836 0.0031407785 0.0114433095 0.00044332916
000130 bb 27 53 3c d8 b2 39 3b fc aa 83 3b 2c 25 28 bb
       0.01288789 0.002833536 0.0040181857 -0.0025656922
000140 67 d5 13 3c 6d fb 99 ba 56 0f ce 3b 1b 83 90 3b
       0.009023047 -0.0011747904 0.0062884493 0.0044101602
000150 a9 bd 08 bc d8 91 2c bc 7e a4 d4 ba fc e1 e8 bb
       -0.008346 -0.010532819 -0.0016223339 -0.0071070176
000160 25 a3 c4 ba 8b 6d a8 3b 28 a3 bc 3b 4d 52 cd ba
       -0.0015002234 0.0051400117 0.0057567544 -0.0015664786
000170 1b f1 b3 3b ab e5 b1 3b bc 63 15 bc 18 71 06 3b
       0.0054913885 0.00542899 -0.009118017 0.0020514186
000180 45 34 36 bb 7a 17 01 3b 9c 90 3c 3b 60 bb b7 bb
       -0.002780215 0.001969783 0.0028772717 -0.0056070536
000190 53 4f 10 bc a3 6c f7 bb e5 09 75 bb be 68 2a 3b
       -0.008807975 -0.0075507923 -0.003738993 0.0026002373
0001a0 75 22 bb 3b 67 29 24 bb 97 dd a6 bb ef 78 c3 3a
       0.0057108947 -0.0025049092 -0.0050923335 0.001491336
0001b0 b4 9f 41 3b a0 16 c4 3a ca 18 e8 3a bb b3 95 3a
       0.0029544653 0.0014960356 0.0017707583 0.0011421362
0001c0 ac c7 08 38 bb 85 38 3b 2b cc bf bb c2 48 22 ba
       3.2610886e-05 0.0028155881 -0.005853196 -0.00061906513
0001d0 53 22 d3 bb 4e 00 a3 3b d7 57 cc 3b e1 09 31 3a
       -0.0064433008 0.0049744016 0.0062360573 0.0006753486
0001e0 19 82 61 ba 1b 38 d1 ba b8 18 53 3b 48 19 cb bb
       -0.0008602455 -0.0015962155 0.0032210778 -0.006198082
0001f0 b3 6e 58 3a 7b 5d 96 bb 7f 9a 40 bb ea ac 25 3c
       0.00082562416 -0.0045887805 -0.0029388962 0.010112027
000200 30 d1 06 3b 71 b0 89 ba 6d 4e 1d bc 52 86 3b bb
       0.0020571463 -0.0010504854 -0.009601218 -0.0028613997
000210 96 be 22 bb 93 ad 13 bc e2 45 18 3a 30 e6 ec ba
       -0.0024832836 -0.009013551 0.0005808753 -0.0018073972
000220 9b 80 9a b9 29 6d 40 bc 41 c5 c7 3b 5c 06 d8 bb
       -0.00029468987 -0.011744776 0.0060965125 -0.006592555
000230 3a bf 22 3b 25 5d 38 bc 6c 25 62 3b 24 e5 88 bb
       0.0024833218 -0.011252676 0.0034507168 -0.0041777063
000240 af 6d 9d bb 64 78 63 bb fb 63 60 bc 2f 5a a7 bb
       -0.004804335 -0.003470921 -0.013695712 -0.0051071863
000250 83 87 86 3b 02 93 b9 3b d9 74 2d 3c 70 7e 81 ba
       0.0041055097 0.0056632767 0.010586941 -0.00098796
000260 87 f9 32 bc eb b4 9b 3b 16 bd 66 3c 38 53 df 3a
       -0.01092375 0.0047517917 0.014083168 0.0017038351
000270 a6 64 5f bb 8c a7 5b bc 93 79 14 3c 91 4a f6 bb
       -0.003408709 -0.0134066455 0.009062189 -0.007516213
000280 e1 4b cb 3b 9d d4 de ba 76 14 c7 bb 74 22 83 3b
       0.006204114 -0.001700062 -0.006075437 0.00400191
000290 88 3c 4b 3c 57 c9 41 bc 6c 48 b7 3b a8 56 2c 3c
       0.0124045685 -0.011827788 0.00559335 0.010518707
0002a0 29 ba 16 bb 8c 6d 51 3b e9 60 d5 3b e3 ae 15 3c
       -0.0022999144 0.0031956164 0.0065117967 0.0091359345
0002b0 f5 7b e2 3a 8d 4d 1b 3b 36 90 d4 3b b1 38 6b bb
       0.0017279374 0.0023697347 0.006486918 -0.0035891945
0002c0 49 e7 b9 b7 32 94 6a 3b 60 b0 a2 ba ca d0 f7 ba
       -2.216142e-05 0.0035793898 -0.0012412183 -0.0018906828
0002d0 10 90 18 3c 53 96 e5 39 2b fc 47 bb 0e a3 9d 3b
       0.009311691 0.00043790284 -0.0030515294 0.0048106974
0002e0 99 0f c6 bb 88 7d be 3b b2 34 26 bb 17 e3 82 bb
       -0.00604434 0.0058133043 -0.0025360999 -0.0039943564
0002f0 23 b1 28 bb 1e 96 f9 39 98 8c f6 3b 44 9e e8 3a
       -0.0025740347 0.00047604827 0.0075240843 0.0017747362
000300 31 4b e8 ba 32 67 27 3c 1d 2a b4 3b 50 80 78 bb
       -0.0017722604 0.010217475 0.0054981844 -0.0037918277
000310 79 b4 4b bb c5 97 ea bb 38 1f c8 bb c7 42 20 bb
       -0.0031082912 -0.0071592056 -0.006107237 -0.0024453865
000320 c8 e7 bd bb 9e d4 bd bb 9f 8a 07 3c 99 b0 8f 3a
       -0.0057954527 -0.005793168 0.008272796 0.0010962664
000330 f4 df 92 bc 99 26 20 bc cb 1c 0d bb 76 42 85 3b
       -0.017929055 -0.009774827 -0.0021532055 0.0040667607
000340 e5 88 f6 bb e7 b3 24 ba 54 a7 08 bc 27 b1 3e bb
       -0.0075236433 -0.0006282911 -0.008340675 -0.002909729
000350 8c 2b 52 3c ae 24 a8 b9 3e 50 e0 3b 26 65 42 b9
       0.012827765 -0.00032070786 0.006845503 -0.00018538962
000360 5a d0 20 bc 82 b4 10 bb 74 0b 0f bc d2 e7 23 3c
       -0.0098153 -0.0022080247 -0.008730758 0.010004001
000370 6f f7 45 bc 3b 49 68 b9 a8 b9 91 3b 58 5b 98 ba
       -0.012082919 -0.00022152525 0.004447181 -0.0011623902
000380 58 32 9f bb 99 e9 09 3b 71 90 22 3b 9b 85 42 3b
       -0.0048582964 0.0021043776 0.0024805332 0.0029681686
000390 22 b2 3a bb 11 8c 1d bb bf 6b 91 bb 45 16 dd ba
       -0.0028487523 -0.0024039785 -0.004437893 -0.0016867599
0003a0 f3 93 c1 b9 42 9f 9f 3a f5 e5 30 3b 71 e4 b2 3a
       -0.0003692206 0.00121782 0.0026992534 0.0013648403
0003b0 01 4d 17 3b ad 0f 6c 3a 48 27 46 bb a5 e2 17 bb
       0.002308667 0.00090050214 -0.0030235816 -0.0023175862
0003c0 f1 24 9f 39 e8 b6 a8 3a 8d 7f d5 bb 7c e5 ae b9
       0.00030354367 0.0012871893 -0.0065154494 -0.00033358845
0003d0 c3 e8 e5 ba 8e 2e 41 3b 1b 8d 95 3b 85 1b 74 3b
       -0.0017540682 0.0029477212 0.00456394 0.0037247848
0003e0 2c 8e 3f 3b 79 81 a2 3a 79 85 93 ba f2 9d 1c 3b
       0.0029229028 0.0012398205 -0.0011254988 0.0023897854
0003f0 4c d5 ee ba f3 39 7b 37 cc 8f 64 39 a9 13 60 ba
       -0.0018221526 1.4974258e-05 0.00021797343 -0.00085478515

decoder.0.bias f4 [128]
000000 6a 88 22 3a d5 12 1b bb ec 08 6d 3a e5 cc 92 bb
       0.0006200137 -0.0023662348 0.0009042162 -0.0044799917
000010 d6 88 15 3c 56 4e f3 bb 05 6b b1 bb be b5 03 bc
       0.0091268625 -0.00742511 -0.005414369 -0.008038936
000020 b0 10 9e ba 4a 1d 54 39 e6 c6 ca 3b 38 93 dc bb
       -0.0012059417 0.00020228807 0.0061882613 -0.006731417
000030 93 5f 52 bb f1 20 10 3c 4f 2a 51 3b dc 51 c0 bb
       -0.0032100424 0.008796916 0.0031916087 -0.0058691334
000040 39 3d 33 3b bf 6a 17 3b 47 b0 aa 3a 61 be be 3b
       0.0027349724 0.0023104397 0.0013022505 0.005821035
000050 b8 17 ea bb e3 0d 98 3a 3b ac 95 ba 99 99 78 bb
       -0.007143941 0.0011600818 -0.0011419127 -0.0037933348
000060 51 50 98 3b 63 b1 c6 bb 83 73 84 3b 20 be 31 3b
       0.0046482463 -0.0060636266 0.0040420904 0.002712138
000070 e2 ea c7 3a 6b b8 1a bb b1 e2 9b bb c2 31 1b bc
       0.0015252496 -0.0023608457 -0.0047572483 -0.009472312
000080 f5 90 02 3b e6 6d e3 3b 57 4b 09 3c 3a 65 4b 3b
       0.0019922827 0.006940591 0.008379779 0.0031035678
000090 d9 23 22 3c 82 d2 33 3c d4 de be bb dc 5b 88 3b
       0.009896242 0.010975482 -0.005824903 0.004161341
0000a0 c7 ca 9e 3b b4 bb 96 3a ea 14 1c bc 07 8e bd bb
       0.0048459503 0.0011500032 -0.009526471 -0.0057847532
0000b0 22 cb 2f bb 6d 17 25 3b 47 24 ec bb 94 31 e7 bb
       -0.0026823957 0.0025190965 -0.007206473 -0.0070554707
0000c0 8b e2 17 bc 8f 9a 38 3b c3 e2 d4 3b fc d3 44 3b
       -0.009270321 0.0028168296 0.0064967587 0.003003358
0000d0 2b 2b cb 3b c2 bf ea 3b 4f 51 4e 3a e8 96 de 3a
       0.0062002144 0.0071639726 0.00078703923 0.001698223
0000e0 44 99 1d bc 43 96 23 bb 60 f0 86 ba ed 1c 6e bb
       -0.009619061 -0.002496139 -0.0010295026 -0.003633316
0000f0 47 f0 c0 bb 32 25 c1 bb 8f 04 60 3b 70 a5 47 3b
       -0.0058880183 -0.0058943266 0.0034182405 0.0030463599
000100 3d 8f af 39 22 ac e6 ba b1 c5 d1 3a d6 d2 03 bc
       0.00033485322 -0.0017598907 0.0016004351 -0.008045873
000110 fc e0 98 bb 2d a8 a3 3b 7c fd f5 bb b1 8b ee 3b
       -0.004665492 0.0049944133 -0.0075070243 0.007279836
000120 31 3c c7 3a 5f cd d3 3b a4 97 d9 bb 65 fe 7c bb
       0.0015200434 0.006463691 -0.0066403914 -0.003860378
000130 27 6c b5 bb ff aa a5 3b 77 fe c5 bb 4c 82 8e bb
       -0.0055365744 0.0050557847 -0.0060422975 -0.0043490287
000140 54 a3 83 bb d1 30 ce bb 0a da 85 3b fc e2 64 3a
       -0.004017273 -0.0062924405 0.00408483 0.0008731333
000150 91 44 9a 3b 89 42 14 bc b0 c8 0f bc 4c 1a b8 bb
       0.004707881 -0.009049066 -0.008775875 -0.005618369
000160 37 ed e0 3b 40 da 3f 3b 9f c2 e2 3b 44 ad 1c bc
       0.0068642157 0.0029274374 0.0069201733 -0.009562794
000170 ca 9e 6a bc d6 b9 cd bb bb 62 05 bb cd 85 43 b9
       -0.014320085 -0.006278257 -0.0020353037 -0.00018646494
000180 5c 7e 3b bb c2 10 7f 3b a5 d7 a6 bb 19 8c e7 3a
       -0.0028609252 0.00389199 -0.005091625 0.0017665654
000190 fe cd 38 bb ca 1b 33 bb d1 b6 21 3b 5d d9 6a bb
       -0.0028198953 -0.0027329796 0.0024675617 -0.0035835125
0001a0 88 4e a0 ba 73 04 13 bb ad 12 16 ba 3c fd 04 3b
       -0.0012230435 -0.0022433072 -0.0005724829 0.002029254
0001b0 b6 a6 db 3b e7 6e b6 3b 9d 74 ae 3b a7 df 3d bc
       0.006703223 0.00556742 0.00532396 -0.011588967
0001c0 f6 45 78 3b a1 c7 f6 3b 27 c6 bb 3b 4f 5b 10 3c
       0.0037883497 0.007531122 0.0057304087 0.008810832
0001d0 c4 93 75 b9 eb af 96 3b 50 60 8e bb b0 26 16 3a
       -0.00023420068 0.004598608 -0.0043449774 0.0005727811
0001e0 ae 6b ce 3b 9c ea 0d bb 3e f5 d6 3b 87 4c ad bb
       0.0062994575 -0.002165473 0.006559997 -0.005288664
0001f0 bf 94 06 bc 70 19 76 3b 2a c4 ba 3b 9a a6 c6 3b
       -0.008214175 0.0037551783 0.005699654 0.006062341
