Training/checkpoints/wind_pressure_200_5/mlp/model_90.pth (torch, 132355 bytes, 17 tensors)

pos_encoder.0.weight f4 [24, 1]
000000 aa 55 49 3e df 77 89 3b f1 56 65 bf 0a 30 49 bf
       0.19661584 0.004195198 -0.8958579 -0.78588927
000010 14 d2 53 be 67 58 72 bf 5e 09 e3 3e a7 b7 07 bf
       -0.20685607 -0.9466614 0.44343084 -0.53014606
000020 99 16 5b 3e 8f a7 58 bf f9 d8 bf bd a5 27 77 be
       0.21395339 -0.84630674 -0.09367556 -0.24136217
000030 80 01 cf bd 7b 82 49 3d ca ce 1e bf a7 99 19 3e
       -0.10107708 0.0491967 -0.62034285 0.1500002
000040 c7 31 8e 3e 96 17 27 3e 6e 04 52 3e eb f1 74 bf
       0.27772352 0.16317591 0.20509502 -0.9568164
000050 45 12 13 be 0d f6 43 bf a1 9b 33 bf 82 53 60 bd
       -0.14362438 -0.7654732 -0.70159346 -0.05476714

pos_encoder.0.bias f4 [24]
000000 3e ca 5a 3f ce dd 8e 3e 31 38 25 3f d0 8b 0f bd
       0.8546485 0.279036 0.64538866 -0.035045445
000010 18 43 12 bf 06 25 51 3f 9d de 18 3f c7 96 35 3f
       -0.57133627 0.8169712 0.5971468 0.7093319
000020 66 54 14 3f c7 07 27 3f 42 e9 10 bf f2 d9 8d 3d
       0.5794128 0.6524624 -0.56605923 0.069263354
000030 f8 30 2f 3f c3 97 fc 3e e3 4b 47 bf 7f 3a a7 3e
       0.68434095 0.49334535 -0.7785017 0.32661816
000040 8d 83 6d 3f 91 85 44 bf 23 77 32 bf ce 75 01 3e
       0.92778856 -0.76766306 -0.6971304 0.12642595
000050 fe 8c ad 3e a5 0d 2e bf 9a 5e 63 bf 81 43 54 3e
       0.3389663 -0.6798957 -0.88816226 0.20728876

pos_encoder.2.weight f4 [48, 24]
000000 f3 1c 85 be 54 ea a1 be 75 b7 0a be 26 f0 af be
       -0.2599865 -0.3162409 -0.13546546 -0.34362906
000010 85 f5 c2 3e ec ae 85 3e 91 e3 1f be e9 d3 86 3c
       0.38077942 0.26110017 -0.15614153 0.016458469
000020 e9 52 75 3e 70 a2 ed 3e bf b7 df be dc a9 8e 3c
       0.23957409 0.46412992 -0.43694875 0.01741498
000030 2e 89 1c be a8 cc 00 be 5f e8 65 bb 7f 97 f7 bc
       -0.15286705 -0.1257807 -0.003508113 -0.030223606
000040 4d 44 ae be 89 64 78 3e 13 20 df 3d 9b 42 51 be
       -0.34036484 0.24257101 0.108947895 -0.20435564
000050 39 42 a7 3e 7f e5 7e be 7d 38 16 be b4 62 b9 bd
       0.3266771 -0.24892233 -0.14669986 -0.09052029
000060 6c 56 e3 bd a4 dd a8 be f6 d7 de be 3e 17 5c 3e
       -0.11100468 -0.32981598 -0.4352414 0.21493241
000070 a8 f6 e9 bd e2 c5 c2 3e 64 23 b5 3e 4d ac 1f 3e
       -0.11423999 0.38041598 0.35378563 0.15593071
000080 f8 1b ec 3d 95 89 a7 3b f3 c5 b9 3e a8 ee 87 3e
       0.11528772 0.0051128366 0.36283836 0.26549268
000090 b0 0a ca 3e 12 56 a0 3d 8a 54 90 be b9 90 af be
       0.3946128 0.078289166 -0.28189498 -0.34290102
0000a0 42 8a 41 be 7d 56 87 3e b6 9d e2 3e f6 8d 0e 3e
       -0.18900397 0.26433173 0.4426095 0.13921341
0000b0 e4 be 98 bd 53 37 2d be 1f 84 19 3e f8 93 a0 be
       -0.074582845 -0.16915636 0.14991806 -0.3136289
0000c0 dc 34 b6 be 4b ef 86 3e 7f 56 91 bd b0 0c ee be
       -0.35587204 0.2635444 -0.07096576 -0.46494055
0000d0 c4 95 e7 3e bb 83 da be f1 7b 64 3e 62 3a 84 3e
       0.4523145 -0.42678627 0.22312905 0.25825793
0000e0 ee ba b7 3c ac ac 52 3e 72 e3 20 be b1 d2 2f be
       0.022428002 0.20573682 -0.15711764 -0.17170216
0000f0 d7 33 50 be 25 0f 94 be 6e 89 f5 3e e4 54 85 be
       -0.20332275 -0.28917804 0.47956413 -0.2604133
000100 50 9a b7 be 31 37 d8 3e 10 f4 06 be fd 09 ab be
       -0.3585992 0.42229608 -0.1317904 -0.33406058
000110 e1 c7 84 3e e5 60 aa be c5 7b f5 3d ca 26 c8 3e
       0.25933746 -0.3327705 0.11986498 0.39092094
000120 00 35 80 3d 36 97 3f 3d 1b 7f ea 3d 2b e1 fa be
       0.06260109 0.046775065 0.11450025 -0.48999915
000130 e7 20 90 3e cf cd a7 be 5f 07 be 3e c0 36 74 bb
       0.28150102 -0.32774207 0.37115 -0.003726408
000140 c1 34 a2 be df a8 02 bf 51 bf 38 be 06 23 0c be
       -0.31680873 -0.51038927 -0.18041731 -0.13685235
000150 9c 93 22 be 20 48 b9 3d d2 d6 ba 3e f4 f2 2f be
       -0.15876621 0.0904696 0.3649202 -0.17182523
000160 c9 02 a8 be 5e 2c 9d 3e c8 e3 32 be a6 6a 1e 3d
       -0.32814625 0.30697912 -0.17469704 0.038675927
000170 9f 4f c1 3d 8f 05 aa bd 2a 25 e4 3d 13 d4 99 be
       0.09439015 -0.083018415 0.11139901 -0.30044612
000180 b7 66 e9 bd 8f 09 2f 3e 5c 3d 55 bd 65 c9 d4 3e
       -0.113965444 0.1709349 -0.05206047 0.41559902
000190 f7 86 9f be d6 d3 d2 3e 8c 0d aa be 55 23 61 3d
       -0.31157658 0.41177243 -0.3321346 0.054965336
0001a0 ad 57 98 be 3b d6 37 be ca 8d 9a bd d0 1c 1c 3e
       -0.2975439 -0.17952816 -0.07546575 0.15245366
0001b0 34 33 83 3e c5 07 98 be bf 63 08 be 63 65 ea be
       0.25625002 -0.29693428 -0.133193 -0.45780477
0001c0 c0 f5 84 be 17 eb b1 be cb 25 4a 3d a2 f1 60 bd
       -0.25968742 -0.34749672 0.04935245 -0.05491794
0001d0 da 4d f5 3e 0f 4f 3e be 27 4e 7e be 16 8e ac be
       0.4791096 -0.18584846 -0.248345 -0.33702153
0001e0 ab 2a 4b 3d 57 ae a9 be ce 34 a2 3e 85 66 37 3e
       0.04960124 -0.33140823 0.31680912 0.17910202
0001f0 8e 9e 52 3e 53 79 a2 3e 75 ad cf 3e 54 59 eb 3e
       0.20568296 0.31733188 0.40562025 0.4596659
000200 c1 36 3e be 8a b0 cf be c4 a8 8f be b7 6a cf 3e
       -0.18575574 -0.40564376 -0.28058445 0.40511104
000210 e3 49 bf bd d0 ac 4f 3e 09 4a 0f be 84 d7 6c be
       -0.09340265 0.20280766 -0.13993086 -0.23129088
000220 e8 0f bb be 5b d3 c7 3e a5 b9 16 3e 7a 1d 09 be
       -0.36535573 0.3902844 0.14719255 -0.1339015
000230 33 1d 25 be 2f 8d 1a 3e 37 2e a9 3d da 13 02 bf
       -0.1612442 0.1509292 0.08260768 -0.5081154
000240 5e bc c6 3e 2a 0f e7 bd 43 04 6d 3e e9 09 3d 3e
       0.38815588 -0.11282189 0.23146157 0.18460812
000250 24 81 e5 be 87 c6 5a be 09 d6 db 3e aa 10 a1 be
       -0.4482509 -0.21364795 0.42936733 -0.31458026
000260 a4 64 c9 3e df 53 b8 be 41 dd 87 3e cb f6 be be
       0.39334595 -0.3600149 0.2653599 -0.37297663
000270 7b e0 46 3e 4e 36 b1 3e aa cf 29 3e 23 5e 0f be
       0.1942157 0.34611744 0.16583124 -0.14000754
000280 1e b1 0f be 68 a7 f3 be 67 0d 54 3d 7b d7 68 3e
       -0.14032409 -0.47588658 0.051770594 0.2273845
000290 0d 55 37 bd e5 22 a3 be 4f 29 0a be 09 a0 61 be
       -0.044758845 -0.3186256 -0.1349232 -0.22033705
0002a0 f8 15 d1 3d 69 0b a2 3e de d5 e5 be e8 61 78 be
       0.10209268 0.3164933 -0.4488973 -0.24256098
0002b0 96 9b 9b 3e e0 e8 11 be ac d4 1c be 91 d9 a6 be
       0.3039214 -0.14248991 -0.15315503 -0.32587865
0002c0 f9 c2 7c be 9b 13 b2 3e 8a 4c a7 3e a4 69 7e 3e
       -0.24683751 0.34780583 0.32675582 0.24844986
0002d0 42 83 a5 3e ef 1e 3e 3e 05 5c 62 3e fb 99 d9 3e
       0.32326704 0.18566488 0.22105415 0.4250029
0002e0 63 73 f3 3e 20 3b 5a 3e ea bc bb be 4c 6d 91 be
       0.4754897 0.21311617 -0.36667567 -0.284037
0002f0 7a 14 2b 3d f5 84 40 3e 9e c9 06 be 94 9d 31 be
       0.041767575 0.18800719 -0.13162848 -0.17345268
000300 7b aa 02 3e cc c6 ba 3e 37 ec d0 be 2c 5b 9b 3d
       0.12760346 0.36479795 -0.40805218 0.07585749
000310 d7 2a 6c 3e 46 e8 15 bd 02 32 8c 3e c0 ab 02 be
       0.23063217 -0.036598466 0.27381903 -0.1276083
000320 49 8e eb be cd 5a 21 be 11 c1 d2 3e 9a 62 86 3e
       -0.46006992 -0.15757294 0.41162923 0.26247102
000330 96 51 c5 be f2 05 50 3e 8c 3c dc be 2c 7c df be
       -0.38538808 0.20314768 -0.43014944 -0.43649423
000340 1b d8 ef 3e a5 05 80 3e 1d ec 14 be a3 7d 63 3e
       0.46844563 0.25004306 -0.14543195 0.22215895
000350 99 df d1 3e a4 0c 43 3e ca 7b f6 3e 38 47 e3 be
       0.40990904 0.19047791 0.4814132 -0.44390273
000360 cc 37 21 3d f2 46 d0 be 97 a3 eb 3e 5b 02 37 bd
       0.039359853 -0.40679127 0.46023247 -0.04467998
000370 4e e2 1e 3e 24 46 69 3d 22 a8 f4 bd a3 15 bd 3e
       0.15516016 0.056951657 -0.11946131 0.3693057
000380 4b ff db be ba 6e 2f 3e 8b 17 53 3e 53 64 d3 be
       -0.4296821 0.17132083 0.2061445 -0.4128748
000390 99 13 1c be 30 88 e1 bc c1 a1 fa bd e6 be 33 be
       -0.15241851 -0.02753076 -0.12237883 -0.1755329
0003a0 09 94 b7 3e 1b 36 9e be dc 1d 39 bc 30 0b 5c 3d
       0.3585513 -0.30900654 -0.011298623 0.053721607
0003b0 ea 06 f1 bc 16 e5 ca be 12 40 c4 3e 75 b1 b6 be
       -0.029422242 -0.39627904 0.38330132 -0.35682264
0003c0 d9 72 8a bd f7 20 f1 be f8 d1 82 3e c3 41 e0 3e
       -0.06760187 -0.47095463 0.25550818 0.43800172
0003d0 b4 ad f4 be ea 85 2b 3e 5b a9 c6 3e 58 d0 45 be
       -0.47788775 0.16750303 0.38801083 -0.19317758
0003e0 b5 e9 18 3e ba 45 a9 be 34 3e 85 bc 7a 56 11 3e
       0.14932902 -0.3306101 -0.016265012 0.14193144
0003f0 f6 5e 6b 3e 8e ff 8b be ea 0c 8d be 78 78 b6 3e
       0.22985443 -0.2734341 -0.27548915 0.35638785

pos_encoder.2.bias f4 [48]
000000 22 11 db be bb 87 34 be 3e 47 3e bd 2a fd ed be
       -0.4278651 -0.17629902 -0.04645466 -0.4648221
000010 a2 9b 3f 3e b2 5c 64 3e f0 94 9a 3e 31 0c bc be
       0.18711713 0.22300985 0.30191755 -0.3672805
000020 7e 64 76 3e d7 48 20 be 73 82 cf 3d 72 02 69 3d
       0.24061772 -0.15652786 0.10132303 0.056887098
000030 4d 7a 04 bd 9d e5 ce 3e 34 bc bf be 9f b7 73 be
       -0.032343198 0.40409556 -0.37448275 -0.23800515
000040 9a b1 19 3e e5 f8 e6 3e 14 c1 f7 3e a3 f5 bf be
       0.15009156 0.45111766 0.48389494 -0.37492093
000050 5a 0b ff 3e 01 da 9c be 40 f7 3b be f7 0b 34 be
       0.49813348 -0.30635074 -0.18356037 -0.17582689
000060 5f 7a 42 3d 58 d9 ba be 1c 6b 02 3e 80 4e 6d 3e
       0.047479983 -0.36493945 0.12736171 0.23174477
000070 ee 01 9d 3e 15 0d 44 3e cd 39 e8 be c0 77 89 3e
       0.30665535 0.19145615 -0.45356598 0.26849174
000080 18 6b 8e bd b8 b0 8d be bb 5e 79 3e c6 e6 70 be
       -0.0695402 -0.27673888 0.24352543 -0.23525533
000090 3c ee b0 be a4 20 69 be ee 26 ca be 7f ce e9 be
       -0.34556758 -0.22766358 -0.39482826 -0.45665357
0000a0 e2 dd 9a be ec 12 e3 bd 13 79 c8 be b7 e7 c5 3e
       -0.30247408 -0.110875934 -0.39154872 0.38653347
0000b0 8b 4f 8d 3e 66 d6 b8 3e e1 b4 db 3e 7a c6 92 bd
       0.2759975 0.36101073 0.42911437 -0.07166763

pos_encoder.4.weight f4 [96, 48]
000000 93 23 35 3e 19 a7 ce bd a7 21 07 3e 67 a5 f7 3d
       0.17689352 -0.10090465 0.13196431 0.12092095
000010 3c b3 2a 3e a9 84 72 3e cc ca 31 3e ec 2b 01 3d
       0.16669935 0.23683418 0.17362517 0.031536028
000020 e5 9c 12 3d 88 c7 61 bc f9 af 29 be 31 fc aa be
       0.035794158 -0.013780482 -0.16571034 -0.33395532
000030 93 76 d1 3d 7e 07 f5 3c ed 70 76 be 53 3c 8c 3d
       0.10227694 0.0299108 -0.24066515 0.068474434
000040 93 4a ba 3d 29 71 1e 3e 99 31 1c 3e b0 b5 93 be
       0.09096255 0.15472855 0.15253295 -0.28849554
000050 e5 2c bb 3d 5c 25 25 3e c2 fc 51 3d 20 a8 18 3d
       0.09139422 0.16127533 0.05126644 0.03726971
000060 04 8b 3d be ef 67 a6 3e 9a be cd 3d 00 f5 fe 3d
       -0.18510062 0.3250117 0.1004612 0.12449074
000070 b4 47 e9 ba e2 39 35 bd 04 81 26 be 68 2d 59 be
       -0.0017797858 -0.044244654 -0.16260153 -0.21208727
000080 54 31 2e be c0 fd 17 be c1 e9 43 3e 90 a4 8d be
       -0.17011005 -0.14842892 0.19132139 -0.27664614
000090 3a 8b 9f 3e 6e 4c cd 3d d7 09 5a be 5b 83 25 3e
       0.3116091 0.100243434 -0.21292816 0.1616339
0000a0 dc af 74 be 2a 1b a7 3e 7c fc 6e 3b ae 20 67 3d
       -0.2389521 0.32637912 0.003646641 0.05642765
0000b0 ca 27 4b be ee 3b 02 be 6f 7c 10 bd 65 9b 89 3d
       -0.19839397 -0.12718174 -0.03527492 0.06719092
0000c0 2e 01 d5 3d cf 97 21 bd 12 18 87 bb f3 a7 85 be
       0.10400616 -0.039451417 -0.0041227425 -0.26104698
0000d0 26 00 54 be 1f b6 f7 3d f7 a5 41 3e 3e 74 90 be
       -0.20703182 0.12095284 0.18910967 -0.28213686
0000e0 46 49 5e 3e 5b a6 1a 3d db b8 54 be fe 21 8a 3d
       0.21707639 0.037756305 -0.20773642 0.06744765
0000f0 5d c2 22 3e 32 c7 61 3d f0 d5 53 bd 4c 9f 83 3d
       0.15894456 0.055121608 -0.0517177 0.06426868
000100 cd 78 a6 bd f6 11 81 be 63 ab aa be d7 88 e9 bd
       -0.0812851 -0.25209016 -0.33333883 -0.11403053
000110 a2 22 f8 bd 38 78 2a be ba 2c 84 bd 97 0f 1e 3e
       -0.12115981 -0.16647422 -0.064538434 0.15435635
000120 5a 66 94 bd 9e c4 75 3e 1e b5 8c 3e 09 39 a2 be
       -0.072460845 0.24000785 0.2748193 -0.3168414
000130 e6 15 39 be 79 5b f9 3c ba 42 76 bc 21 3e 91 3b
       -0.1807476 0.030439125 -0.015030557 0.004432455
000140 c6 13 55 3d d9 65 57 be a7 8a a5 3e 7b 87 44 3e
       0.05202081 -0.21034946 0.32332346 0.19192307
000150 24 4b cd 3d 55 cd 98 3e 95 6a 9d be a8 03 0d be
       0.100240976 0.29844156 -0.30745378 -0.13770926
000160 74 e4 ad be 43 42 cb 3d ff 05 29 3e fe ca a8 be
       -0.33963358 0.09924748 0.16506194 -0.3296737
000170 42 38 17 3e 25 11 54 be 0c 87 94 3e 44 9c 9c be
       0.14767554 -0.20709665 0.29009283 -0.3058797
000180 74 e2 89 be ab 43 b9 bc 54 2c 6e be 91 52 8c 3e
       -0.26930583 -0.022615274 -0.23259097 0.27406743
000190 00 d8 36 3e ad 5c a2 be fd 6f 9d 3c c2 2b 0a 3c
       0.17855835 -0.3171133 0.01921844 0.008433284
0001a0 cb ba 32 3c 91 68 99 3e 86 9f 9e bd 09 42 8f be
       0.010908793 0.2996259 -0.077452704 -0.27980068
0001b0 03 91 82 be 24 2e 26 be 80 1c 89 3e 7f a3 9c 3e
       -0.2550126 -0.16228539 0.26779556 0.30593488
0001c0 5d f2 9b 3e 8a 6b c4 bd 67 85 a6 be 91 63 93 be
       0.30458346 -0.09590824 -0.32523653 -0.287869
0001d0 f7 2d 92 3c d9 20 a7 3e 7f 68 97 be 75 e5 7d be
       0.017844183 0.32642248 -0.29571912 -0.24794562
0001e0 59 7a 46 be 2e f9 38 be b4 6a 63 be b5 ce c2 3d
       -0.1938261 -0.18063805 -0.22208673 0.095120825
0001f0 41 ba fc bd 34 30 66 be 33 de 07 be 24 4a a9 be
       -0.123402126 -0.22479326 -0.13268356 -0.33064377
000200 97 e8 7a be 8e bd f6 3d ff fc 10 3e 30 47 a3 be
       -0.24502788 0.120478734 0.1415901 -0.3189025
000210 d2 1e e0 3d 79 cd 83 3e 0e a8 a2 3d ce 2e 9a 3e
       0.109433785 0.257427 0.0794221 0.30113834
000220 35 59 ec bd a9 9f d5 3c 77 13 0c be b6 37 8a 3e
       -0.115404524 0.026077108 -0.136793 0.2699563
000230 20 65 96 3c df d6 6c be d9 4d 00 3e cb c0 5f be
       0.018358767 -0.23128842 0.12529697 -0.21850888
000240 33 d9 a7 3e d4 b6 c2 bd dc e8 55 3b e5 7e 2b bd
       0.32782897 -0.09507528 0.0032640016 -0.041869063
000250 5d 55 ef 3d fa ee 6d be 70 cd 45 3e ec 15 63 be
       0.11686204 -0.23235694 0.1931665 -0.22176331
000260 8f c1 d0 bd 63 0d 09 be 7e 9e 76 bd e2 4f 0a 3e
       -0.10193168 -0.13384013 -0.060209744 0.13507035
000270 e3 17 33 3e e2 7b 7a 3e e6 fa 95 3e cc 54 ac be
       0.17489581 0.2446132 0.29292983 -0.33658445
000280 eb b7 af be 40 95 08 be 0c 3c 79 be 7b 92 99 be
       -0.34320006 -0.13338184 -0.24339312 -0.29994568
000290 cd 9f ce bd b5 17 0b 3c 49 5d f9 bd 44 65 83 3c
       -0.10089073 0.008489539 -0.12175996 0.016039498
0002a0 70 59 48 be 98 a4 f9 bd 2c b7 4f 3a 14 78 51 3c
       -0.19565368 -0.12189597 0.0007923718 0.0127849765
0002b0 99 fe d6 3d d7 35 ea bd 05 7b 4a 3d bd 35 5e 3e
       0.104977794 -0.114360504 0.049433727 0.21700187
0002c0 10 44 a1 3e e7 89 3f bd f7 71 0a be a2 c7 01 3e
       0.3149724 -0.046762373 -0.13520037 0.1267381
0002d0 59 33 1f 3e 8c 1d a2 be c7 73 2b be 35 20 fd 3d
       0.15546931 -0.31663167 -0.16743384 0.12359659
0002e0 b2 4f 3d 3e 27 48 0f be c4 42 85 be 32 13 77 be
       0.18487433 -0.13992368 -0.260275 -0.24128416
0002f0 ac 28 01 be 91 30 84 3e 5b be ad be be 4e a0 3e
       -0.12613171 0.25818303 -0.33934292 0.31310076
000300 13 0b 53 3e c5 8f 64 3e c1 32 7d be 83 21 5b bc
       0.20609693 0.22320469 -0.24726392 -0.013374689
000310 f5 e5 ab be a4 aa 8a 3e e9 0e b8 3c fe 5f 89 3e
       -0.3357388 0.27083313 0.022468047 0.2683105
000320 47 13 82 be c9 11 51 3d 29 97 85 be 15 f0 82 3b
       -0.25405332 0.051042352 -0.2609189 0.003995905
000330 08 9c 43 3e 7a a4 a1 3e d2 c9 62 3c 7d 21 36 be
       0.1910249 0.31570798 0.013842063 -0.17786212
000340 77 c1 a7 be 66 dc fd 3d bc d1 da 3d 1c e4 42 3d
       -0.3276479 0.12395553 0.10684535 0.047580823
000350 1d 5f 37 3d fc c2 81 3d 5f ca a8 3e 99 3e 91 bb
       0.04476844 0.063360184 0.32966897 -0.004432511
000360 e6 12 57 be 6d 77 80 bd 24 aa ed bd 9e 17 9b 3e
       -0.21003303 -0.06272779 -0.116047174 0.30291456
000370 cf 27 22 3e 0c 14 a6 be cd f9 0c 3e f0 74 86 3e
       0.15835498 -0.3243717 0.13767166 0.2626109
000380 70 4f 6e 3e 52 ab 39 3e dd 9e 40 be d3 02 eb bc
       0.2327249 0.1813176 -0.18810602 -0.02868787
000390 01 1d 49 3e 14 86 90 3d 29 4f 9c 3e 2a 2e 1e be
       0.1963997 0.070568234 0.30529144 -0.15447298
0003a0 0c e3 ae be 1f 21 9b 3e 27 b9 fc bd 90 94 8b bc
       -0.34157598 0.30298707 -0.123400025 -0.017038614
0003b0 4a e3 5e be bf 58 8c 3e 4d 08 f5 bd 0d 5d a2 3e
       -0.21766391 0.27411458 -0.11964474 0.31711617
0003c0 80 1e 83 bd 81 86 4d be 70 0c 18 3e 20 05 44 be
       -0.06402302 -0.2007084 0.14848495 -0.1914258
0003d0 c1 e8 c1 bd d9 36 fb 3d 5b 1a e5 bd 4f 1e 7c 3e
       -0.094682224 0.12266321 -0.111866675 0.24620937
0003e0 8c a1 3f be 46 82 52 3e cd 08 8a bd 99 b1 3a 3e
       -0.18713969 0.20557508 -0.0673996 0.1823181
0003f0 71 0d d4 3c 90 91 b0 be ba 08 a9 3e 90 2b fc 3d
       0.025885316 -0.34486055 0.3301447 0.123129964

pos_encoder.4.bias f4 [96]
000000 b1 9c 05 be 37 fb 07 3e c7 2a 8d be 8b c5 3c be
       -0.13048054 0.13279425 -0.275717 -0.18434732
000010 ac 8f 27 3e cc d7 ae be 14 d7 b0 be 7d b1 6f 3e
       0.163634 -0.34149015 -0.34539092 0.2340755
000020 9d a3 8e bd 22 4a e9 3d 26 ea b1 be 42 fc 05 be
       -0.069648005 0.11391093 -0.34748954 -0.1308451
000030 4c 33 17 3e 24 16 49 3e 5f b3 d6 bd 78 9f cf bd
       0.14765662 0.19637352 -0.10483431 -0.10137838
000040 36 44 27 3b ce 6c 39 be 6d 1b eb 3c 59 5f 48 be
       0.0025522835 -0.18107912 0.028699601 -0.19567622
000050 c0 8d 38 be e2 f1 a4 3e d4 a4 9b 3e f5 01 a2 be
       -0.18022823 0.32215792 0.3039919 -0.31642118
000060 c8 f8 9c 3e 40 fa 36 3e 59 32 1a be 9d 2f 9e 3e
       0.30658555 0.178689 -0.15058269 0.308957
000070 5f ab 98 be 1f 9f d6 bd 83 9d aa 3e 6c cf a7 be
       -0.29818246 -0.10479569 0.33323297 -0.32775438
000080 80 ec ce bd b2 c3 08 3e 58 33 38 3e e3 a2 65 3e
       -0.101037025 0.13355902 0.17988336 0.22425418
000090 cf fd 4e be ce 4f ea ba 05 db 5e 3e fe e2 fb 3d
       -0.20214008 -0.0017876567 0.21763237 0.12299155
0000a0 b5 9e 97 be 1f d4 75 3e 27 01 bb bd 23 2b 89 3e
       -0.2961327 0.24006699 -0.09131079 0.26790723
0000b0 e0 82 f4 bd 99 2d 54 be d2 53 06 3e 67 35 1b bc
       -0.11939025 -0.20720519 0.13117912 -0.009473181
0000c0 62 8e e9 3d 23 9c 31 bc 05 a4 f9 bd 47 7a 90 bd
       0.114041105 -0.010840449 -0.12189487 -0.070545726
0000d0 60 68 4a be 7e a9 a4 bd 61 6e 8f be 1d 38 cf bd
       -0.19766378 -0.080401406 -0.280139 -0.10118125
0000e0 01 84 99 3e 25 02 d4 bd 39 b9 9e be 25 c7 ed bd
       0.29983523 -0.103519715 -0.3100069 -0.116102494
0000f0 2f 6d fa bd a6 07 26 3d ae d1 ac 3c 15 96 86 3e
       -0.12227856 0.040534638 0.021096077 0.26286379
000100 23 44 4f 3e d7 9c cd 3d e4 86 03 be 83 78 9d be
       0.20240836 0.100396805 -0.12844425 -0.30756006
000110 e9 d0 6d bd 30 af 85 be e6 18 6f 3e f3 71 d8 3d
       -0.05806056 -0.2611022 0.23349342 0.10568609
000120 06 d2 86 3e 6f 0c 5c be 60 22 82 3e 6b 84 cc 3d
       0.2633211 -0.21489118 0.2541685 0.09986194
000130 2d c6 8c 3e 4a d2 06 bd 7f 5e f1 3d b1 4a 2f 3e
       0.27494946 -0.03291539 0.11785602 0.17118336
000140 c7 88 31 3d 99 1c 11 3e 7c f7 3f 3e 06 26 06 3e
       0.04334333 0.14171065 0.18746752 0.13100442
000150 00 0d 29 3e 8f 54 9f 3e 42 d3 f3 bd a9 92 8a be
       0.16508865 0.311192 -0.119055286 -0.27065018
000160 b7 3e 00 be b9 71 f6 bb db ca 94 be 21 29 0c 3e
       -0.12523924 -0.007520881 -0.29061016 0.13687564
000170 46 49 83 3e 52 78 9c bd 8c 11 5f be 20 a6 a6 3e
       0.2564184 -0.07640137 -0.21784037 0.32548618

fc_encoder.0.weight f4 [8, 14]
000000 91 1f 93 bc a1 38 7b bb 6b 3f ac bc cc 21 3e bd
       -0.017959388 -0.0038333314 -0.021026334 -0.04641895
000010 74 9a 90 3d 37 19 13 3d 68 a1 63 ba 69 60 5a 3d
       0.070607096 0.03591272 -0.0008683414 0.0533146
000020 dc 75 4b 3b eb d6 4b 3d f9 03 30 3d 7f 04 d9 bb
       0.0031045591 0.04976551 0.04297254 -0.0066228504
000030 ef fb 7d bc 6e f5 90 bc 4c 98 0e 3d 7b e2 03 bc
       -0.01550196 -0.017695155 0.03481321 -0.008049603
000040 6d cf 52 bd 07 50 89 3c eb b4 30 3c 95 2d 0d 3d
       -0.051467348 0.016761793 0.010785322 0.0344673
000050 ef bb 1d 3d 31 3a 03 3d f8 95 a5 3c e5 81 e0 bc
       0.038509306 0.032037918 0.020213112 -0.027405689
000060 f5 ca 8b 3d 6c e6 86 3b 09 66 88 3c 67 5a 72 bc
       0.0682582 0.004116824 0.016650217 -0.014792061
000070 6b cc 01 3d 01 09 c2 3c d4 af 23 bd b0 7e 32 bd
       0.03168909 0.023685934 -0.039962605 -0.04357785
000080 70 89 0d 3c 52 e9 b0 3c 11 82 f5 3c 57 bc a6 3c
       0.008638725 0.02159563 0.029969247 0.02035348
000090 0b 15 fe 3c 08 52 ad bc d7 05 dc ba eb 88 bb bc
       0.031015893 -0.02115728 -0.0016786408 -0.022892436
0000a0 26 8d d5 bc c7 54 e5 3c 31 5e 94 ba 6c 32 21 3b
       -0.026068281 0.027994527 -0.0011319575 0.0024596704
0000b0 b3 59 17 bb b3 83 27 ba da 51 5d b9 f9 61 b0 3b
       -0.0023094236 -0.0006390169 -0.00021106694 0.005382773
0000c0 a5 5c 9f bd 59 f6 c3 bb 6d 15 40 bb 5b e1 bb 3a
       -0.077813424 -0.0059802947 -0.0029309646 0.0014334129
0000d0 76 14 e6 39 8a 49 e3 bb f9 54 8e bb 53 ea 8c bd
       0.00043884263 -0.006936257 -0.0043436256 -0.06880631
0000e0 6e f6 16 bb b2 2e 13 bb 14 b0 12 bb 0f 05 1c bb
       -0.0023035067 -0.0022458252 -0.0022382783 -0.0023806726
0000f0 38 74 16 bb 58 bd 15 bb 7a 51 0d bb 1e 03 18 bb
       -0.0022957455 -0.0022848453 -0.0021563456 -0.0023195217
000100 b5 b5 1c bb 97 e0 1a bb c9 e8 11 bb 1b 1f 13 bb
       -0.0023912017 -0.00236324 -0.0022263995 -0.002244896
000110 af a4 13 bb 1d 0e 18 bb dd e8 3f bd a7 67 19 bd
       -0.002252858 -0.0023201772 -0.046852935 -0.037452366
000120 43 0c 3d 3d 3e 81 df bb 5d 30 84 bc 35 ad 1e 3d
       0.04615427 -0.006820827 -0.016136343 0.0387394
000130 8e bf fc 3a 20 4e a0 3d d6 21 d3 bc 37 d2 3c 3c
       0.0019283162 0.07827401 -0.02577297 0.0115247285
000140 c6 72 f9 3c 10 71 70 bd bf 3e b4 3c 21 2d 2e 3c
       0.030450236 -0.058701575 0.022002576 0.010630877
000150 1f a6 47 bd 8c c5 9c 3b 27 81 f5 bc fa 19 03 bd
       -0.04874241 0.0047842916 -0.029968811 -0.032007195
000160 e8 c7 23 bd 6c 9d 9d 3c cc 2d 39 3d 90 8c 39 bd
       -0.039985567 0.019240104 0.04520969 -0.045300066
000170 7b 01 1b 3d 36 5a 29 3d 7e 48 b1 bc 48 64 00 bd
       0.03784321 0.041345797 -0.021641012 -0.031345636
000180 15 45 b5 bc 51 ab 17 bd d8 21 02 bd 79 04 2f 3c
       -0.022127667 -0.037028614 -0.031770557 0.010682219
000190 cf d5 62 3d ba 56 3b bc b2 fa d9 bb 38 ce 00 bd
       0.055379685 -0.011434251 -0.0066521997 -0.031446666
0001a0 08 06 4e 3d 06 e6 f1 bc 32 80 54 bc 28 57 fd 3c
       0.05029872 -0.029528629 -0.012970017 0.030925348
0001b0 4a 8a 86 bd 21 1f a2 b9 97 77 46 bc 0b 89 8a 3c
       -0.06569345 -0.0003092224 -0.012113473 0.01691105

fc_encoder.0.bias f4 [8]
000000 67 2a 93 3d 48 6c eb 3c 34 0d 81 bd 84 cc 39 bd
       0.07185822 0.028738156 -0.063013464 -0.045361057
000010 13 92 84 bd e3 62 23 3d a7 56 26 3b 21 52 63 3d
       -0.06473174 0.039889228 0.0025381239 0.055498246

fc_encoder.2.weight f4 [16, 8]
000000 28 c8 1d bd 81 ff 4c 3e e0 df 43 3e 3d 2e c3 3d
       -0.038520962 0.20019342 0.1912837 0.095303036
000010 be 66 76 3f a4 e2 19 be 59 53 8c 3d c1 81 b7 3c
       0.9625052 -0.15027863 0.06851835 0.022400739
000020 f3 ef 85 bc be c3 ab 3b 7a 6e 63 3e be d2 2b bd
       -0.016349768 0.00524184 0.22210112 -0.041949026
000030 01 7d 03 3f a5 d1 d4 3e 97 bb 75 3e 0e fd 95 3e
       0.51362616 0.41566196 0.23997341 0.29294628
000040 a4 b3 86 be 48 b6 b6 be 12 0d 00 bf 99 1a 0e 3e
       -0.2630893 -0.35685945 -0.50019944 0.13877334
000050 c4 64 6d 3c a9 4f e0 3e e1 a4 ca 3d 88 c6 bc 3e
       0.014489356 0.43810776 0.098947294 0.36870217
000060 1b 9c 7b 3e 27 22 dd 3c 23 e3 30 3e 6c 20 be bd
       0.24571268 0.026993824 0.17274146 -0.09283528
000070 58 eb a3 3c b4 c2 a1 3e 9d 06 16 3f 5d 5c 99 be
       0.020009682 0.3159386 0.5860384 -0.2995328
000080 4a 6e 64 3d 62 fe 33 be 45 a3 43 be 80 4c 2b be
       0.055769242 -0.17577508 -0.19105251 -0.16728401
000090 58 e3 9a be 90 d9 79 3e 23 da 22 bf 3c 22 bf bd
       -0.30251575 0.243994 -0.636141 -0.093327016
0000a0 c5 89 6f be 18 ea 8c 3e d5 96 06 be b3 5f 15 3e
       -0.23392399 0.2752235 -0.13143475 0.14587288
0000b0 80 9d 28 3f 86 f2 80 be 4e 83 c4 be 07 ee 10 3f
       0.65865326 -0.2518503 -0.38381428 0.566132
0000c0 83 04 51 bd 3b ef 09 bf cc fa 37 3e 2f ad 54 3d
       -0.051029693 -0.5388066 0.17966765 0.051922973
0000d0 b1 25 20 bf fc bc ea 3e 97 6f 31 3f 7f c9 0b be
       -0.6255751 0.4584731 0.693109 -0.13651083
0000e0 08 d2 a2 be dd 62 9d 3d 9f 7b 9e 3e b3 9a 26 bd
       -0.31800866 0.07684872 0.3095369 -0.040674876
0000f0 9d ef 22 bf 49 57 58 3e bd 22 3a 3d 20 15 bf 3e
       -0.6364687 0.21127047 0.045443285 0.37320805
000100 31 e5 ef 3d fd 02 b5 3e da f7 ff bb 23 bb 76 bd
       0.11713637 0.35353842 -0.0078115286 -0.06023706
000110 8c 58 0a bf 89 57 a8 bc f0 1f e7 be e1 de 8e 3d
       -0.5404136 -0.020549553 -0.45141554 0.069761045
000120 2a 43 97 bd 6f b1 a8 be 3c 37 fa 3e 95 de 37 be
       -0.073858574 -0.3294787 0.48870265 -0.17956002
000130 0a 3c 2b 3e 6b 52 14 3f 6f dd 80 3e 70 0f c1 3e
       0.16722122 0.5793826 0.2516894 0.3770709
000140 d2 97 96 bd 88 3b 98 be fa 70 84 be 0b 00 a8 3e
       -0.07353176 -0.2973292 -0.25867444 0.32812533
000150 03 47 29 3e e3 8b 26 3e 51 d4 61 3e 25 0b d6 be
       0.16530995 0.162643 0.22053649 -0.41805378
000160 90 05 92 bb 3b 88 ee 3e 4d 02 4e be 39 c1 ae 3e
       -0.0044562295 0.4658831 -0.20118065 0.34131792
000170 e7 e7 02 bf ec 81 f7 bd 08 95 70 3e 70 e4 95 3d
       -0.51135105 -0.120853275 0.23494351 0.073189616
000180 99 c3 99 3e 4f d3 30 bc cf 8e e8 3e 4c 35 96 bd
       0.30032042 -0.010792567 0.45421454 -0.07334384
000190 92 3b 22 bf 81 02 a1 3e 4c de 55 3e 3b 7b 6e 3e
       -0.6337215 0.31447223 0.20885581 0.23289196
0001a0 3f 44 ee 3e eb 63 04 bf f9 e0 c7 3e 09 c5 c0 bd
       0.46536443 -0.5171496 0.39038828 -0.094125815
0001b0 d4 9c 5f 3e 63 92 00 3e 16 54 c9 3d 69 b3 2c bf
       0.21837169 0.12555842 0.09830491 -0.6746126
0001c0 74 d3 28 3e 2d 33 d4 be 04 66 a2 3e ff 1c 8c 3e
       0.16486913 -0.41445294 0.31718457 0.27365872
0001d0 05 a5 20 bf 8e 68 ed 3b 57 c7 ec 3e 84 6d c7 be
       -0.627518 0.00724513 0.46245834 -0.3895074
0001e0 d2 1f 69 be bf 5d 9e 3e 66 9b 21 be f7 23 b0 3d
       -0.22766045 0.30930898 -0.15781936 0.0860061
0001f0 05 52 29 bf 51 09 aa be 80 4a da be b5 4b c5 3e
       -0.66140777 -0.33210233 -0.42634964 0.38534322

fc_encoder.2.bias f4 [16]
000000 5d 76 3a be 03 2f 8f be 3e 40 0e bf fe 3a 49 3f
       -0.18209215 -0.27965555 -0.55566776 0.7860564
000010 5e bd 10 3f b6 bf b4 3e 77 33 4a bf a8 80 4d 3e
       0.5653895 0.35302514 -0.7898478 0.2006861
000020 3c 05 3e 3f 07 29 2f bf 67 7c 02 be 0b 3b bf 3e
       0.7422674 -0.6842198 -0.12742768 0.37349734
000030 a3 83 34 bd 7e 4f 15 bf 9a 10 de 3e 4d db fc be
       -0.04407085 -0.5832442 0.4337204 -0.49386063

fc_encoder.4.weight f4 [32, 16]
000000 52 33 81 3e cd c4 cf 3e ca f9 53 3e 69 d9 15 3e
       0.25234467 0.40579835 0.20700756 0.14633717
000010 a7 52 d8 bd 17 2f ff bd b5 cd a9 3e 0e 9d 62 be
       -0.1056264 -0.124601535 0.33164755 -0.22130224
000020 d7 e8 f0 3e dc 05 ae be 2b 4e 91 3e 7c 25 ae 3e
       0.47052643 -0.33988845 0.2837995 0.34012973
000030 39 3d 8f be ed 23 14 3f 1f ae 72 3d 80 b5 52 3e
       -0.27976397 0.5786732 0.059248086 0.2057705
000040 de ef 49 3d ff ce 4f bc e0 8a a5 be 34 b4 27 3e
       0.04930102 -0.012683629 -0.32332516 0.16377336
000050 fb b7 21 3e 5b 4f 81 be 5a 3a 80 be 52 73 a9 3e
       0.15792839 -0.25255856 -0.2504452 0.33095795
000060 e0 00 0a 3f aa a9 e4 3d 14 e2 de 3e ba 77 28 be
       0.53907585 0.11165173 0.4353186 -0.16451922
000070 ec 42 0e bf 05 d1 8b 3e 7b 17 06 bf fa c6 9a be
       -0.55570865 0.27307907 -0.5237958 -0.30229932
000080 4c 80 9e 3e f3 bb 35 3e 3d ab b1 3e 1f 96 bd 3e
       0.30957258 0.17747478 0.34700957 0.37028596
000090 e1 00 66 3e ec 1e 9f 3e 80 18 91 be 37 3f c8 be
       0.22461273 0.3107828 -0.28339005 -0.3911073
0000a0 a5 62 bc bd f3 64 0b 3e 8d d0 ce be 4e c0 ed be
       -0.091985025 0.13612728 -0.40393487 -0.4643578
0000b0 5b 01 d3 be e3 4c f6 be 24 c5 dd 3e 58 1c 52 3c
       -0.41211972 -0.48105535 0.4331447 0.0128241405
0000c0 10 0b 84 3e fd d2 86 3e 26 56 48 3e 21 4e 29 3c
       0.2578969 0.26332846 0.19564113 0.010333569
0000d0 43 a3 78 be 35 41 91 be 6b 60 a9 be d7 3b 02 bf
       -0.2428103 -0.28370062 -0.33081374 -0.5087256
0000e0 67 b8 b3 be 74 3d 0c bf 06 59 84 3d 7f eb bd bd
       -0.35101625 -0.5478127 0.064622924 -0.09273433
0000f0 94 31 8b 3e 25 25 10 bf e4 75 19 be c2 ff bc be
       0.27186263 -0.5630668 -0.14986378 -0.36913878
000100 7c e2 de 3e 3c 30 7d be b1 52 ce 3e 12 d3 b1 bd
       0.4353217 -0.24725431 0.40297464 -0.086828366
000110 a0 31 ca be 7a ef c4 bd ab 02 da 3e d3 5d 21 bd
       -0.39490986 -0.09615989 0.4258016 -0.03939612
000120 23 05 ee 3e 55 48 ba 3d 86 b9 18 be 22 28 5e be
       0.46488294 0.090958275 -0.14914522 -0.21694997
000130 a6 36 b0 bd bb 4c b3 be 4a 35 32 be f1 3f 0f bd
       -0.08604173 -0.35019478 -0.1740314 -0.03497309
000140 38 09 9e be 18 10 98 be c2 dd 61 bd d7 dd 26 3e
       -0.30866408 -0.2969978 -0.055143125 0.16295563
000150 48 0a f8 3e 14 75 e1 3e 98 ec ae bd fd 4f b4 3c
       0.48445344 0.44034636 -0.085412204 0.022010798
000160 a9 fb eb be 20 04 65 bd 4b f1 cd 3e 9b 28 26 3e
       -0.4609044 -0.055912137 0.40223154 0.16226427
000170 5c ac 13 3f 5d 66 fd 3e 75 b8 d3 3d c1 c2 51 3e
       0.57684875 0.4949216 0.10337917 0.20484449
000180 42 ba 18 be e6 a3 19 bf ff a8 f4 3e 23 de 82 bd
       -0.14914802 -0.60015714 0.47785184 -0.063900255
000190 2f bf b3 3e 1a 92 74 3e 57 8d ae be bd 38 b9 3e
       0.351068 0.23883858 -0.3409221 0.361761
0001a0 87 0d 0f bf a3 b1 02 3f 35 cd cb be 85 cf d3 3d
       -0.55880016 0.510523 -0.39804998 0.103423156
0001b0 ae d3 d3 bd da 51 24 3e 94 8f b9 3e 18 09 91 3e
       -0.10343109 0.16046849 0.36242354 0.2832725
0001c0 6c a7 a3 3e 45 72 81 3e d2 77 68 3e cb e4 ad 3e
       0.3196367 0.25282493 0.22701958 0.33963618
0001d0 8f 57 8e be b8 1d f1 be 45 fe a1 3e 60 27 8b 3e
       -0.27801177 -0.47092986 0.31639305 0.27178478
0001e0 d2 29 10 bf 91 19 63 3e 09 82 d5 3d d1 f3 c4 3e
       -0.5631381 0.22177722 0.10425193 0.38467267
0001f0 95 e1 ee 3e 88 ab d4 bc b4 2b e9 be 61 13 8f 3e
       0.4665648 -0.025960699 -0.45541155 0.27944472
000200 e4 aa e3 be bd 00 82 3e d6 27 91 3d a2 fe 2a be
       -0.44466317 0.25391188 0.07087676 -0.16698697
000210 7a 11 98 be 2d 3d 9b 3e 01 5d 0b 3f 32 c2 ad be
       -0.29700834 0.3032011 0.5443879 -0.33937222
000220 dc d6 03 3f d4 b1 10 bf 9a b6 c7 be 40 fa b8 be
       0.51499724 -0.56521344 -0.390065 -0.36128426
000230 d5 10 06 3f 4e 4e 84 be 4e 4d 24 be 99 0d 7e 3e
       0.52369434 -0.25840992 -0.16045114 0.24809875
000240 ad 2d e5 3e 46 08 85 be c3 48 0e be aa b0 a7 be
       0.4476141 -0.25982875 -0.13894944 -0.3275197
000250 75 a7 01 3e e2 6e c9 3e 11 5a 19 3f 7e 97 09 be
       0.12661536 0.3934241 0.59903055 -0.13436696
000260 c9 1f 66 3e 36 05 c0 bd ee 5a 19 be cc d2 ab 3d
       0.22473063 -0.09375994 -0.14976093 0.08389816
000270 2c 68 1a be a9 b5 5e be b2 bc 84 be 64 f8 42 3b
       -0.15078801 -0.21748985 -0.25925213 0.0029750103
000280 4d 22 a1 3d 87 78 c2 be 47 af 02 3e 33 7a df be
       0.078678705 -0.3798258 0.12762176 -0.43647918
000290 88 7e 0c 3f 48 fc bf be 7f ce 58 3e 4c d5 a3 3c
       0.5488057 -0.37497163 0.21172522 0.019999169
0002a0 1d 15 84 be c5 45 07 bf c7 e6 1b be 24 1d f0 be
       -0.25797358 -0.52840835 -0.15224753 -0.46897233
0002b0 25 d9 1b be 8d 84 28 be 16 0f 1a 3f c3 e0 e8 be
       -0.15219553 -0.16456814 0.6017927 -0.4548398
0002c0 16 f9 6b be a0 1a 06 3e a0 f3 c9 3e fd 71 d1 3d
       -0.23044237 0.13096094 0.39443684 0.1022682
0002d0 bc be df be a0 b0 0c 3f d6 2a b0 be 5f 80 cc 3e
       -0.43700206 0.5495701 -0.3440768 0.3994169
0002e0 0d a1 e2 be 5c 70 1f be 48 f2 71 3e b9 78 f1 be
       -0.44263497 -0.15570205 0.23627579 -0.47162417
0002f0 4c be dd bd 05 4f d9 3e 93 d7 f3 3d 6b 86 f1 bd
       -0.10827312 0.424431 0.11906352 -0.11793216
000300 08 d2 16 3f 2f f8 ee be bd 73 7b 3e da 47 ca 3d
       0.5891423 -0.46673724 0.2455587 0.09876986
000310 c5 0c c2 be 45 b1 7d 3e 7a c9 c7 bd 94 34 e7 3e
       -0.37900367 0.24774654 -0.097552255 0.451573
000320 80 d2 0e bf 4d 59 f5 be 87 74 11 bb a2 f8 82 bd
       -0.5578995 -0.47919694 -0.00221947 -0.06395079
000330 4e e0 b2 3e 68 ca 45 3e eb 55 cf 3e 99 02 d3 3e
       0.34936756 0.19315493 0.40495238 0.4121292
000340 e0 95 fb 3d a9 11 07 bf 9b 71 b3 be dc e6 af bd
       0.12284446 -0.5276132 -0.35047612 -0.08588955
000350 96 6a 45 3e ec d5 a1 3d 48 81 e4 3d 62 fa 05 bf
       0.1927894 0.079021305 0.11157471 -0.5233518
000360 e9 84 bd 3e 70 f1 8e 3e 40 59 c9 be b9 50 70 3e
       0.37015465 0.27918577 -0.39325905 0.23468293
000370 90 ae c5 be ca b6 ec be 83 31 ba 3e 89 79 b7 3e
       -0.38609743 -0.46233207 0.363659 0.3583491
000380 47 e9 13 3d 81 d8 7c 3e c8 04 ad be 1f 3b 81 3d
       0.036111142 0.24691965 -0.3379271 0.063101046
000390 c9 5f 61 bd 5b 1b f5 3e ad 5f 8b bd 9f 30 bd be
       -0.05502299 0.47872433 -0.06805358 -0.36951157
0003a0 b6 c4 5a be e3 68 4d 3e 59 cb b6 be cb b4 94 be
       -0.21364102 0.20059542 -0.35702017 -0.29044184
0003b0 34 91 44 be 85 93 2c 3d 02 15 93 3e ba db 86 be
       -0.19196016 0.042132873 0.28726965 -0.26339513
0003c0 1c 17 a7 be 8d 2a 87 bd 6f f2 af be 8b fc 8e bd
       -0.3263482 -0.06599913 -0.3436465 -0.069817625
0003d0 e6 f4 8d be 70 5b 8b be eb 58 8d be f1 39 30 3e
       -0.27725905 -0.272182 -0.27606902 0.17209603
0003e0 75 13 df be 37 88 a4 3c 45 55 ef 3e aa d7 ed 3e
       -0.43569532 0.020084484 0.46744743 0.464536
0003f0 01 3d bc 3e 88 41 88 be cf 89 8d bd 04 fc a5 3d
       0.36765292 -0.26612496 -0.069110505 0.08104709

fc_encoder.4.bias f4 [32]
000000 d1 57 da 3e f4 76 c5 be ed a2 b1 3e 47 39 8f 3e
       0.42645124 -0.38567317 0.34694615 0.27973387
000010 96 39 85 3e 61 9a b8 3e 53 81 bf be 9c e0 b1 3e
       0.26020497 0.36055282 -0.37403354 0.34741676
000020 16 32 f9 be 47 fb 90 be f4 13 d5 3e bd 03 ce 3e
       -0.48671025 -0.2831671 0.41616786 0.40237227
000030 8e 6a bd 3e c4 c7 4d be 11 ea d7 3d 3d 05 9c 3e
       0.36995357 -0.20095736 0.105426915 0.30472746
000040 19 9d e8 be 75 35 d2 be 7f a9 a4 3e bb a1 dd 3e
       -0.45432356 -0.4105641 0.32160565 0.43287453
000050 83 3b d6 be bc 29 a3 bd c1 20 3e 3e 29 17 a1 be
       -0.4184228 -0.079669446 0.18567182 -0.31462982
000060 bd 04 a6 be 18 b7 ed 3e 60 50 97 3e dd d2 3c be
       -0.3242549 0.46428752 0.2955351 -0.18439813
000070 2f 27 f1 3c d4 71 96 be ba 09 f4 3e b0 51 07 bf
       0.02943763 -0.2938372 0.4766367 -0.5285902

decoder.0.weight f4 [128, 128]
000000 66 76 c6 3b 9e 59 2d 3c 7f b6 53 3b ce ae ba 3b
       0.0060565947 0.010580448 0.003230482 0.005697108
000010 e7 79 d3 3b 2f 71 b9 3b d8 cf c6 bb 12 7b 57 3a
       0.006453741 0.0056592445 -0.0060672574 0.0008219938
000020 6a c2 1c bb 96 01 8d 3b 64 84 cb bb cc d3 e9 bb
       -0.002391959 0.0043031676 -0.0062108506 -0.007135844
000030 81 e3 1f 39 2a 7e e7 bb 35 6c b3 ba 64 84 10 3c
       0.00015248173 -0.0070646005 -0.0013688864 0.008820627
000040 23 d6 a4 bb d9 d9 c1 3a 28 68 c9 b9 d8 a1 cd bb
       -0.00503041 0.0014789655 -0.0003841531 -0.006275397
000050 4b 6d c0 3a 64 3e 46 bb a7 8f 22 3a b4 cd 98 ba
       0.0014681009 -0.003024959 0.00062012154 -0.0011657984
000060 08 31 f6 3b e3 88 b8 3b 7e 8f af ba 15 ef 80 3b
       0.007513169 0.0056315525 -0.0013394204 0.003934751
000070 cc 00 0c 3c 23 64 09 3b 02 0a df 3b d0 62 31 3c
       0.008545112 0.0020964227 0.006806613 0.010826781
000080 62 08 69 b8 4b e4 4b 3c 9e e7 40 bb 41 aa 98 39
       -5.5559336e-05 0.012444566 -0.002943493 0.00029118548
000090 33 5e 0e 3b 45 cf 2b bb 2b 44 2e bb 21 e1 65 bb
       0.0021723628 -0.0026216072 -0.0026590924 -0.0035076814
0000a0 86 13 66 bb 8a 57 a5 39 22 fa 1c 3c 44 ad 0f bb
       -0.0035106852 0.00031536474 0.009581121 -0.0021923343
0000b0 69 63 ba bb 0d 3f 39 3a 3e 09 d5 3a 8e 73 07 3c
       -0.00568812 0.0007066585 0.0016253365 0.0082672965
0000c0 69 7f 07 3c 39 ed 76 39 81 e2 a4 3a 9d 7c 71 3b
       0.008270123 0.0002354876 0.001257971 0.0036847957
0000d0 d5 69 f4 b9 63 ad 9e bb 0c 34 ed 3b a0 dd 5f bb
       -0.00046618158 -0.0048424467 0.0072388705 -0.0034159198
0000e0 75 c2 a2 ba 88 21 98 bb c7 13 24 3b 21 10 04 3c
       -0.0012417572 -0.004642669 0.0025036202 0.008060486
0000f0 8c 3e 21 3b 30 25 75 bb dc 2b 69 3b 09 16 49 3a
       0.0024603931 -0.0037406199 0.003557912 0.0007670825
000100 ca 26 ad ba 28 46 69 3a 78 69 cb bb a2 a1 32 bb
       -0.0013210413 0.0008898699 -0.006207641 -0.0027256985
000110 73 c8 aa bb 83 24 c3 ba ac bf 17 3b be a4 56 3c
       -0.0052118837 -0.0014888201 0.0023155017 0.013100801
000120 e8 7c 10 3b 23 9e 29 3b 5a ae 3e 3c bb cd 53 3a
       0.0022047106 0.002588161 0.011638248 0.00080796675
000130 8f fb 53 3c f9 46 36 3b a5 5c 8a 3b b4 06 25 bb
       0.012938394 0.00278133 0.00422247 -0.0025180997
000140 d7 0f 19 3c e7 3e 91 ba 89 e3 d1 3b 0c e6 9b 3b
       0.009342155 -0.0011081368 0.006405298 0.0047576483
000150 30 1a 08 bc 1f ca 2f bc 7c b4 e8 ba 56 79 ec bb
       -0.008307025 -0.010729342 -0.0017753984 -0.007216613
000160 d5 29 da ba da 96 a7 3b 48 fe b9 3b fa 52 d7 ba
       -0.0016644547 0.0051144185 0.0056760646 -0.0016427927
000170 9f b0 c4 3b 8e 7c ae 3b 44 c1 15 bc 9a 9c f6 3a
       0.0060025 0.0053249067 -0.009140316 0.0018814981
000180 ae 89 3a bb 84 6d d1 3a bb bf 37 3b f6 80 cc bb
       -0.002846341 0.0015978073 0.0028037864 -0.0062409593
000190 1c b6 0d bc 01 9e fb bb fc ff 67 bb f6 0f 26 3b
       -0.008649375 -0.0076787476 -0.0035400381 0.0025339103
0001a0 d3 d3 bc 3b ed 7e 47 bb 9e 2e ae bb d8 9c 99 3a
       0.005762556 -0.0030440644 -0.005315616 0.0011719717
0001b0 f3 bd 3c 3b b2 ce fb 3a 8b 05 d7 3a c7 8c d6 3a
       0.0028799742 0.001921138 0.001640485 0.0016368859
0001c0 c3 b5 9f b9 fa ff 47 3b 79 68 c8 bb d6 27 05 ba
       -0.00030462266 0.0030517564 -0.0061159697 -0.00050794834
0001d0 95 aa d2 bb a7 1c a7 3b bf 57 cb 3b 74 1f 52 3a
       -0.0064290264 0.005099851 0.0062055285 0.0008015551
0001e0 21 70 77 ba 1d d2 05 bb 2c 1a 47 3b 9e 70 cb bb
       -0.0009439011 -0.0020419427 0.003038059 -0.0062084934
0001f0 f4 a7 5e 3a ba ee 8f bb 3a a5 39 bb 8c bc 1c 3c
       0.0008493655 -0.004392472 -0.0028327242 0.009566437
000200 82 d6 13 3b 8b 3c 5c ba b7 d2 1d bc 01 a2 1f bb
       0.0022558277 -0.00084013556 -0.009632758 -0.0024358036
000210 dd 37 1a bb 37 54 17 bc f7 59 34 3a 58 ea ef ba
       -0.0023531832 -0.009236387 0.0006879861 -0.0018304093
000220 48 ef 6a 38 48 a8 42 bc 8a ef ca 3b d4 00 cf bb
       5.6012796e-05 -0.011880942 0.006193106 -0.0063172374
000230 ec 8e 2e 3b 57 4f 31 bc 52 4a 58 3b ef 50 81 bb
       0.002663548 -0.010822139 0.0033003283 -0.0039464156
000240 44 55 a8 bb 92 b7 64 bb f4 4a 5f bc bc 0d ac bb
       -0.0051371176 -0.0034899455 -0.01362871 -0.0052506607
000250 98 a2 85 3b ee 9f b8 3b 89 92 2f 3c ca 3e 89 ba
       0.0040782206 0.0056342995 0.010716089 -0.0010470983
000260 55 c9 34 bc e0 96 9d 3b 2c 16 6b 3c 9b 38 ce 3a
       -0.011034329 0.0048092455 0.014348548 0.0015733422
000270 0f 68 65 bb 4d d8 5e bc 62 b0 0f 3c 91 fa f3 bb
       -0.003500465 -0.013601375 0.00877008 -0.0074456413
000280 91 76 cb 3b c6 91 c5 ba 5a 3c bf bb 14 4d 82 3b
       0.0062092026 -0.0015073351 -0.005836052 0.0039764736
000290 ea 79 4b 3c df 54 42 bc b7 16 bc 3b 29 6f 2f 3c
       0.012419203 -0.011861055 0.0057400125 0.010707655
0002a0 18 3c 22 bb c5 f3 3a 3b 33 12 d7 3b 9e eb 15 3c
       -0.0024755057 0.0028526646 0.006563449 0.009150414
0002b0 97 03 dd 3a 5c ef 1a 3b c0 a8 e3 3b d0 cb 79 bb
       0.0016862032 0.0023641204 0.006947607 -0.0038115866
0002c0 6a ca b5 39 e9 88 59 3b c0 9f 96 ba 04 07 e5 ba
       0.0003467382 0.0033193177 -0.0011491701 -0.0017473404
0002d0 86 a6 1b 3c 9d da 24 3a 63 8b 44 bb bd 89 a6 3b
       0.0095001515 0.00062886794 -0.0029990308 0.0050823377
0002e0 6a b4 be bb c6 ff bb 3b 74 0f 29 bb 16 c4 82 bb
       -0.005819847 0.0057372777 -0.0025796564 -0.0039906604
0002f0 3e af 30 bb c3 bf 7b 39 74 21 f3 3b f7 fd c8 3a
       -0.0026959921 0.00024008662 0.0074197594 0.0015334476
000300 8b e1 ed ba 32 7b 2a 3c 3d b6 b9 3b 87 ab 83 bb
       -0.0018148882 0.010405349 0.0056674764 -0.0040182504
000310 a0 26 47 bb 39 2c ec bb be dd c7 bb 2f 8f 34 bb
       -0.0030388013 -0.00720742 -0.006099432 -0.0027551164
000320 6d 85 c3 bb bd 22 c0 bb b2 31 06 3c f3 2c 8c 3a
       -0.0059668333 -0.005863516 0.008190559 0.0010694548
000330 70 55 97 bc 79 91 23 bc bb 04 10 bb 39 9a 80 3b
       -0.018473357 -0.009983414 -0.0021975476 0.003924635
000340 48 c9 f3 bb ce 63 4b ba 29 4c 09 bc 8b 1c 38 bb
       -0.007439766 -0.00077587075 -0.008379974 -0.0028093185
000350 d9 dd 52 3c 67 c8 14 ba ff 6c e7 3b b5 b3 14 ba
       0.012870275 -0.0005675614 0.007062554 -0.00056725304
000360 dd 00 20 bc 79 30 f6 ba 9a 59 0f bc c6 5d 23 3c
       -0.009765831 -0.0018782757 -0.00874939 0.009971088
000370 14 52 49 bc 4e e9 de b8 d3 b1 8c 3b 6e 99 82 ba
       -0.012287635 -0.00010629241 0.0042936592 -0.0009963939
000380 79 2c a0 bb aa af fd 3a 60 70 22 3b 85 07 35 3b
       -0.004888114 0.001935472 0.002478622 0.002762289
000390 89 9b 52 bb dd ea 0c bb 7a ea 82 bb 15 7f b3 ba
       -0.0032136163 -0.0021502294 -0.003995237 -0.001369449
0003a0 d1 04 94 b9 12 3f 6b 3a 57 1b 51 3b c7 6c b8 3a
       -0.00028232348 0.0008973937 0.0031907165 0.0014070504
0003b0 e6 cd 08 3b 62 e8 13 3a b3 3d 31 bb f3 d1 04 bb
       0.0020874678 0.0005642233 -0.0027044832 -0.002026674
0003c0 4e 6d 2f 39 f9 b7 66 3a 8c 12 d7 bb 24 f9 cb b9
       0.0001673002 0.0008801218 -0.0065634903 -0.00038904801
0003d0 60 5d e2 ba 06 8d 54 3b d0 53 8d 3b fa 02 64 3b
       -0.001727026 0.003243269 0.0043129697 0.0034791813
0003e0 10 85 34 3b 7f 3e ac 3a 47 75 82 ba 07 a6 24 3b
       0.0027545132 0.0013141184 -0.0009953164 0.0025123374
0003f0 5f 9f f0 ba 31 3e 63 38 31 7d 13 3a 0a f4 5e ba
       -0.0018358043 5.4178938e-05 0.000562626 -0.00085049926

decoder.0.bias f4 [128]
000000 8c e8 0b 3a 40 7c 13 bb 14 20 6e 3a d5 48 90 bb
       0.00053370814 -0.0022504479 0.00090837595 -0.0044032135
000010 78 82 15 3c b3 f9 f4 bb ee 10 b3 bb cf 0c 08 bc
       0.009125344 -0.0074760555 -0.0054646647 -0.008303835
000020 c2 e1 ac ba b4 02 91 39 72 8e c9 3b 49 e3 df bb
       -0.001318984 0.0002765857 0.006151014 -0.0068325144
000030 5c f7 4a bb 62 69 12 3c bc fa 55 3b 37 ac c0 bb
       -0.0030970192 0.008936258 0.003265067 -0.0058799046
000040 7e 44 30 3b a3 0c 19 3b 29 63 a8 3a 39 a6 c0 3b
       0.0026896293 0.002335348 0.0012846935 0.0058791903
000050 a1 30 ea bb b5 5d 9c 3a 8b 97 9f ba 5b 66 82 bb
       -0.0071469103 0.0011929782 -0.0012175901 -0.003979487
000060 c5 e8 9a 3b 90 e6 c7 bb 28 e7 87 3b 02 16 35 3b
       0.0047274553 -0.0061004832 0.004147429 0.0027631526
000070 6a 2c d9 3a 41 6f 1a bb 9a f3 9b bb 5c 79 1a bc
       0.0016569023 -0.0023564848 -0.004759264 -0.009428348
000080 40 50 f5 3a 6e 1d e3 3b 50 19 06 3c 5f 73 4b 3b
       0.0018715933 0.0069309985 0.008184746 0.0031044108
000090 8f 8c 20 3c ae 13 35 3c 8e c2 c2 bb 64 1d 8d 3b
       0.009799137 0.011052055 -0.005943603 0.004306482
0000a0 a0 32 9f 3b 0d cd a9 3a 7f 86 1a bc 5f fa ba bb
       0.00485833 0.0012954787 -0.00943148 -0.005706116
0000b0 d2 99 2e bb 07 55 1f 3b a3 fd ee bb 17 38 e7 bb
       -0.0026641977 0.0024312155 -0.0072934194 -0.007056247
0000c0 db 7b 17 bc aa c4 34 3b 45 51 d8 3b dd 03 42 3b
       -0.009245838 0.0027583041 0.006601485 0.0029604353
0000d0 90 65 cc 3b 87 32 f0 3b a3 3b 67 3a 13 ec ce 3a
       0.006237693 0.007330242 0.0008820837 0.0015786908
0000e0 1f c1 1c bc 1e cb 20 bb 63 0e 86 ba f3 b1 5f bb
       -0.009567528 -0.002453513 -0.0010227676 -0.0034133166
0000f0 65 93 c0 bb e1 c9 c4 bb 3b de 5c 3b 88 00 38 3b
       -0.005876946 -0.006005511 0.0033701796 0.0028076489
000100 f7 93 6b 39 9a 9d eb ba dc 22 d1 3a cb 50 07 bc
       0.00022466468 -0.0017976046 0.0015955823 -0.008259009
000110 c8 ca 9b bb 93 87 a6 3b 98 ec fc bb a0 b9 f2 3b
       -0.004754398 0.0050820797 -0.007718634 0.007407382
000120 e9 fa ed 3a ca ab cf 3b 88 b0 d7 bb 92 02 7c bb
       0.0018156442 0.0063376175 -0.0065823235 -0.003845368
000130 dc 83 b7 bb 1c c0 a6 3b 36 21 c2 bb ce 66 8b bb
       -0.0056004357 0.005088819 -0.005924369 -0.0042541986
000140 7a 0a 83 bb 27 57 cd bb 6b 8e 85 3b 38 56 4f 3a
       -0.0039990516 -0.006266493 0.0040758154 0.0007909271
000150 09 34 9b 3b fb 69 12 bc 8e e0 0d bc 99 e7 b4 bb
       0.0047364277 -0.0089364005 -0.008659495 -0.0055207727
000160 e9 02 db 3b 97 2d 3d 3b e6 0d e7 3b 5a c7 1e bc
       0.0066836965 0.0028866285 0.0070512174 -0.009691084
000170 da 7f 6e bc 1f 30 c8 bb 8f 64 0d bb 26 91 f5 b8
       -0.014556849 -0.006109252 -0.002157483 -0.000117095464
000180 54 0c 44 bb eb 45 84 3b d8 dc a1 bb a8 9b c9 3a
       -0.0029914575 0.004036655 -0.0049396567 0.0015381472
000190 53 c6 3a bb d1 d0 2c bb 0a 73 1b 3b b4 71 68 bb
       -0.0028499558 -0.0026369581 0.0023719692 -0.0035468163
0001a0 57 b0 9c ba 7e 36 0d bb e8 07 2b ba 68 5d 08 3b
       -0.0011954409 -0.0021547372 -0.00065243104 0.0020807628
0001b0 f7 1f dd 3b a3 3a b5 3b ab 68 ac 3b a4 31 40 bc
       0.0067481953 0.0055306717 0.005261501 -0.011730585
0001c0 55 91 75 3b eb 29 f9 3b b6 63 bd 3b eb 66 10 3c
       0.0037470658 0.007603874 0.0057797087 0.0088136
0001d0 9c 66 e0 b9 6f e5 97 3b 2c 77 8c bb c6 26 1b 3a
       -0.0004280106 0.004635505 -0.0042866673 0.00059185585
0001e0 ca 42 d1 3b 55 2e 03 bb 7e 36 d2 3b 1c af aa bb
       0.0063861357 -0.002001663 0.0064151874 -0.005208863
0001f0 ce 34 07 bc ff b0 79 3b db a1 bc 3b 74 bb c9 3b
       -0.008252336 0.0038099883 0.0057565994 0.0061563794
