Training/checkpoints/wind_pressure_200_5/mlp/model_10.pth (torch, 132355 bytes, 17 tensors)

pos_encoder.0.weight f4 [24, 1]
000000 33 b4 49 3e bd 3b 9d 3b aa 77 65 bf e8 4a 49 bf
       0.19697647 0.004798381 -0.8963572 -0.7862992
000010 ae 8f 55 be 5f 9e 72 bf 47 9c e2 3e 84 ac 07 bf
       -0.2085559 -0.94772905 0.44259855 -0.5299761
000020 2b 38 5a 3e a4 8f 58 bf aa cc bf bd 67 3e 77 be
       0.21310489 -0.8459418 -0.093652084 -0.24144898
000030 48 3a d1 bd 23 64 3f 3d 70 0e 1f bf b5 41 19 3e
       -0.102161944 0.046726357 -0.62131405 0.14966471
000040 4b 0f 8e 3e 62 68 26 3e 4d bc 52 3e 95 52 75 bf
       0.27746043 0.16250756 0.20579644 -0.95829135
000050 bd 5d 13 be 9d 54 44 bf 6a bc 33 bf 79 42 5f bd
       -0.14391227 -0.7669161 -0.7020937 -0.054506753

pos_encoder.0.bias f4 [24]
000000 b8 61 5a 3f cc bc 8e 3e 85 1a 25 3f 5a e2 0f bd
       0.85305357 0.27878416 0.6449359 -0.035127975
000010 f3 7e 12 bf 18 23 51 3f 0f d6 18 3f d2 83 35 3f
       -0.5722496 0.81694174 0.5970163 0.70904267
000020 c9 71 14 3f ba e8 26 3f 7f e2 10 bf 8b 56 8d 3d
       0.5798612 0.6519886 -0.56595606 0.069012724
000030 39 27 2f 3f 95 58 fc 3e c7 68 47 bf 01 30 a7 3e
       0.68419224 0.49286333 -0.7789425 0.32653812
000040 18 9a 6d 3f 0a 66 44 bf 39 a3 32 bf 82 5f 01 3e
       0.92813253 -0.767182 -0.6978031 0.1263409
000050 07 1c ad 3e 23 28 2e bf ac 62 63 bf 62 39 54 3e
       0.33810446 -0.68029994 -0.88822436 0.20725015

pos_encoder.2.weight f4 [48, 24]
000000 9e 6c 82 be f0 cf a0 be 2c 7b 05 be 9e 3b b7 be
       -0.25473493 -0.31408644 -0.13035268 -0.35787672
000010 2c 59 c4 3e 33 89 84 3e 35 3a 1c be 8e 07 32 3c
       0.38349283 0.25885925 -0.15256579 0.010866059
000020 38 b3 73 3e c2 b1 ed 3e 19 cd dd be 42 65 bd 3c
       0.23798835 0.4642468 -0.4332054 0.023119573
000030 0f 1a 19 be 9c c5 fd bd 5b 10 f7 bb c3 f7 e7 bc
       -0.14951347 -0.123912066 -0.0075397915 -0.028316384
000040 e4 e8 ad be 46 17 74 3e 00 74 d4 3d ae 0f 52 be
       -0.33966744 0.23837003 0.10373688 -0.20513794
000050 ed 39 a4 3e c3 a9 80 be 79 8c 13 be 11 69 ae bd
       0.32075444 -0.25129518 -0.14409055 -0.085161336
000060 59 77 db bd 87 1d a8 be 11 08 e0 be 3a e5 5e 3e
       -0.10716123 -0.32835028 -0.43756154 0.2176713
000070 f7 28 e5 bd 40 08 c5 3e 5b 51 b6 3e 6f 41 23 3e
       -0.11189454 0.38482857 0.35608944 0.1594293
000080 bd 5a e9 3d c4 77 c0 b9 14 20 b9 3e 01 68 86 3e
       0.1139426 -0.00036710326 0.36157286 0.26251224
000090 04 f7 c9 3e e0 f4 a3 3d d1 b6 8f be 6f ba b0 be
       0.3944627 0.080056906 -0.28069165 -0.34517238
0000a0 bf be 40 be d0 77 88 3e e0 c2 e0 3e ae 9d 0a 3e
       -0.18822764 0.2665391 0.43898678 0.13536713
0000b0 97 26 a0 bd 59 83 36 be e3 db 1c 3e cd f0 9d be
       -0.078198604 -0.17823543 0.15318255 -0.3084778
0000c0 ab 5d b5 be 5f 73 86 3e f7 34 90 bd 01 37 f0 be
       -0.35423025 0.26259896 -0.07041352 -0.46916965
0000d0 a3 29 e7 3e fc 44 db be ee 32 6a 3e bb 9a 87 3e
       0.45148954 -0.42826068 0.2287099 0.26485237
0000e0 26 17 be 3c 09 ec 53 3e 36 6b 1e be 0d 5f 2c be
       0.023204397 0.20695509 -0.15470585 -0.16833134
0000f0 ce f4 4c be 97 9b 96 be 66 70 f7 3e e2 75 84 be
       -0.2001526 -0.2941558 0.4832794 -0.25871187
000100 dc 57 b6 be 4f 04 d7 3e e1 fb 06 be 6c 56 ab be
       -0.35613906 0.41995475 -0.13182022 -0.33464372
000110 d0 71 84 3e 9d 54 ac be 52 2d e5 3d 2a b1 c6 3e
       0.25868082 -0.33658305 0.11190285 0.3880704
000120 e9 6d 7a 3d 3c 05 2c 3d 97 67 e1 3d 59 21 fb be
       0.061139975 0.04199718 0.11006086 -0.4904888
000130 1b f9 91 3e 43 6f a8 be f2 2d bc 3e 1e ec c9 3a
       0.28510365 -0.32897386 0.36753803 0.0015405451
000140 2a ec a3 be 61 b7 01 bf b7 90 3a be 17 10 07 be
       -0.32016116 -0.5067044 -0.18219267 -0.13189732
000150 c0 83 26 be 9d a9 cb 3d ec b5 bc 3e 6b 41 2d be
       -0.16261196 0.099444605 0.36857545 -0.16919486
000160 3c 4d a9 be 19 4f 9d 3e 5d 0a 36 be 70 50 24 3d
       -0.33066738 0.3072441 -0.17777391 0.040115774
000170 d1 3c c6 3d ed b7 aa bd e7 cf e6 3d ed 4c 97 be
       0.096795686 -0.08335862 0.11270123 -0.29550877
000180 cd 98 e8 bd 67 b8 2f 3e 9f 5f 6a bd 82 3c d5 3e
       -0.113572694 0.17160188 -0.057220098 0.41647726
000190 a8 89 a1 be 32 94 d2 3e 3d a0 ab be 6e e9 70 3d
       -0.31550336 0.4112869 -0.3352069 0.058816366
0001a0 85 22 97 be 1f fe 3c be 73 a1 9e bd ac 6d 19 3e
       -0.29518524 -0.18456315 -0.07745638 0.14983243
0001b0 da b7 82 3e dd f8 99 be aa 9d 07 be df 54 e9 be
       0.25530893 -0.3007268 -0.13243738 -0.45572564
0001c0 98 2f 84 be 4a 4c b2 be 17 e0 5a 3d 26 a2 5d bd
       -0.2581756 -0.3482383 0.053436365 -0.054109715
0001d0 d3 88 f5 3e 19 de 3f be 93 67 7c be 40 e5 ad be
       0.4795595 -0.18737067 -0.24648885 -0.33963966
0001e0 95 83 30 3d 05 f3 a9 be 86 e1 a0 3e f1 21 37 3e
       0.043094236 -0.33193222 0.3142206 0.17884041
0001f0 c2 95 51 3e 29 51 a5 3e e6 29 d0 3e ec 68 ec 3e
       0.20467284 0.32288483 0.40656966 0.461738
000200 05 72 3e be 60 a6 ce be b7 4a 8e be 99 93 cd 3e
       -0.18598182 -0.4036131 -0.27791378 0.4015167
000210 6f b0 bb bd 91 4e 52 3e 77 28 0c be d7 27 6e be
       -0.091645114 0.20537783 -0.13687311 -0.23257385
000220 d4 45 bb be 27 9e c6 3e a0 36 1b 3e cf 8a 0c be
       -0.36576712 0.38792536 0.15157557 -0.13724826
000230 ae 55 25 be 30 40 1d 3e a8 59 a6 3d 54 f0 01 bf
       -0.16145965 0.15356517 0.08122569 -0.50757337
000240 28 28 c6 3e c3 8f ee bd e8 ce 6a 3e 36 3d 3b 3e
       0.38702512 -0.11648514 0.22930491 0.18285069
000250 3d 4d e6 be af f4 5f be 93 1b db 3e 46 14 a0 be
       -0.44980803 -0.21870683 0.42794475 -0.31265467
000260 16 0f ca 3e b6 41 ba be d3 47 87 3e 5e 8f bb be
       0.39464635 -0.36378258 0.26421985 -0.36632818
000270 2e e2 43 3e b8 89 b2 3e 17 46 33 3e fb cf 0a be
       0.1912925 0.34870696 0.17507206 -0.13555901
000280 06 c6 10 be 32 51 f5 be f5 53 59 3d 96 91 6c 3e
       -0.1413804 -0.4791351 0.053058583 0.23102412
000290 58 fe 2d bd 04 7a a5 be 06 f1 0c be 41 51 60 be
       -0.04247889 -0.32319653 -0.13763818 -0.21905996
0002a0 71 64 d8 3d c9 b1 a0 3e 88 8d ea be 31 88 7f be
       0.10566033 0.3138564 -0.45811105 -0.24954297
0002b0 5d 79 9b 3e 4d 96 11 be 69 be 21 be 1a 45 a7 be
       0.3036603 -0.14217491 -0.15795292 -0.32669908
0002c0 4e f1 7a be 98 05 b1 3e 3b 02 a6 3e 52 ee 7f 3e
       -0.24506113 0.3457458 0.32423577 0.24993256
0002d0 04 20 a4 3e 1e 6b 3a 3e 78 e7 64 3e ec 9e da 3e
       0.32055676 0.18204924 0.22353923 0.42699373
0002e0 de 44 f4 3e 21 36 5c 3e cb f9 bc be 47 18 91 be
       0.47708791 0.21505024 -0.36909327 -0.28338835
0002f0 06 01 36 3d dd ff 3a 3e 0a f0 04 be 0f e9 32 be
       0.04443457 0.18261667 -0.12982193 -0.17471717
000300 7f d9 00 3e a3 ab bb 3e 2f 78 d3 be 9f 25 93 3d
       0.12582968 0.36654386 -0.4130263 0.0718491
000310 53 31 6b 3e ca a8 f7 bc df 88 8a 3e 8a 1a 04 be
       0.22968034 -0.030231852 0.2705755 -0.12900749
000320 9f 4a eb be 8f db 29 be 67 dc d2 3e c0 6a 85 3e
       -0.4595537 -0.16587661 0.4118378 0.26058006
000330 30 f3 c5 be 87 35 50 3e 5b 9e e0 be 80 02 e0 be
       -0.386621 0.20332919 -0.43870816 -0.43751907
000340 69 3f ef 3e be 90 7f 3e ca 1d 13 be df 6f 5f 3e
       0.46728066 0.24957559 -0.14366832 0.21820019
000350 7a e9 d1 3e 79 42 3a 3e a2 eb f1 3e 39 79 e2 be
       0.4099844 0.1818942 0.47250086 -0.4423311
000360 91 78 2a 3d 49 50 d1 be 50 38 ef 3e 8d 4c 23 bd
       0.041618887 -0.40881565 0.4672265 -0.039867926
000370 69 82 1d 3e ac 39 62 3d 39 79 fa bd 47 f7 bc 3e
       0.15381779 0.05523078 -0.12230153 0.36907408
000380 ad e8 da be 69 b9 33 3e cc 66 55 3e e5 65 d4 be
       -0.42755643 0.17551197 0.20839995 -0.4148399
000390 4f 12 1b be cb 99 b9 bc fd 1d f2 bd c1 13 33 be
       -0.15143703 -0.022656342 -0.11822126 -0.17488004
0003a0 a4 bc b8 3e 3d 6f 9d be 75 2a 39 bc b3 71 63 3d
       0.3608142 -0.3074893 -0.011301626 0.055528354
0003b0 82 20 e2 bc 6a e3 c8 be be c9 c4 3e 45 5a b4 be
       -0.027603392 -0.39236003 0.38435167 -0.3522512
0003c0 b7 34 8f bd b7 1a f2 be dd e3 81 3e a5 96 e4 3e
       -0.069924764 -0.47286007 0.25369158 0.44646183
0003d0 70 89 f6 be d6 d5 25 3e 64 cc c7 3e 4b d9 40 be
       -0.48151731 0.16194853 0.39023125 -0.1883289
0003e0 98 31 1d 3e db 32 ab be 18 e9 7f bc b0 74 13 3e
       0.1535095 -0.33437237 -0.015619539 0.14399981
0003f0 bb cc 6c 3e e1 ac 8a be cb 84 8c be 59 a9 b6 3e
       0.23124973 -0.2708502 -0.27445063 0.35676077

pos_encoder.2.bias f4 [48]
000000 98 e2 d9 be 83 ed 32 be a6 94 41 bd 4b 9d f0 be
       -0.4255569 -0.17473416 -0.047260903 -0.46995005
000010 57 5f 40 3e a8 b4 63 3e eb a8 98 3e 2d 59 bd be
       0.1878637 0.22236884 0.29816374 -0.36982098
000020 4b 2f 78 3e 9d 6c 22 be f0 35 cb 3d 9b b2 66 3d
       0.24236791 -0.15861745 0.09922397 0.056322675
000030 8a 03 00 bd f8 3f ce 3e 5b 6d c1 be e0 a5 73 be
       -0.031253375 0.4028318 -0.37778744 -0.23793745
000040 68 aa 1a 3e 8b ce e7 3e 70 d4 fa 3e 84 39 c2 be
       0.15104067 0.45274767 0.48990202 -0.37934506
000050 22 4d fe 3e 94 2f 9d be 65 3a 3c be e9 30 36 be
       0.49668223 -0.30700362 -0.18381651 -0.17792095
000060 92 31 4e 3d 91 48 ba be d2 41 00 3e 50 1e 6e 3e
       0.050340243 -0.3638349 0.12525108 0.23253751
000070 24 22 9c 3e 08 ec 46 3e 9d c8 e7 be 32 e2 89 3e
       0.30494797 0.19425976 -0.45270243 0.26930386
000080 0b a4 8f bd f8 2b 8b be 1d 81 7b 3e ca 7a 72 be
       -0.070137106 -0.27181983 0.24560972 -0.23679653
000090 de d6 b0 be 74 60 6a be 9b c5 c9 be 67 14 ec be
       -0.3453893 -0.22888356 -0.39408574 -0.46109316
0000a0 fd fd 9c be 32 3c e1 bd 20 04 cb be 90 64 c5 3e
       -0.30662528 -0.109978095 -0.39651585 0.38553286
0000b0 c8 13 8d 3e 38 f7 ba 3e da 6f dd 3e c0 80 91 bd
       0.27554154 0.36516738 0.43249398 -0.07104635

pos_encoder.4.weight f4 [96, 48]
000000 7a 74 3a 3e 3b 81 c9 bd 2d 4e 0d 3e 60 00 02 3e
       0.18208495 -0.09839102 0.13799353 0.12695456
000010 f9 58 28 3e a0 20 70 3e 7a 3c 2e 3e 26 ee 0e 3d
       0.1644019 0.23449945 0.17015257 0.034895085
000020 7f 5a 13 3d 05 03 4f bc 3d 75 2e be 95 ed aa be
       0.035974976 -0.012634997 -0.1703691 -0.33384386
000030 22 cc d7 3d 5c 56 d6 3c c2 cb 79 be 00 1d 97 3d
       0.10536982 0.026164226 -0.24394134 0.07378578
000040 ac a8 bd 3d 00 84 1e 3e 2d f5 1b 3e ec 42 93 be
       0.09260687 0.15480042 0.15230246 -0.28761995
000050 ae 08 c0 3d 1a 81 27 3e 6d a9 55 3d c1 1f 15 3d
       0.093766555 0.16357842 0.05216353 0.036407236
000060 fb 65 3e be 58 6b a7 3e 2f 81 d4 3d a4 c2 fd 3d
       -0.1859359 0.32699084 0.10376202 0.123906404
000070 90 bb f5 b9 b9 fc 47 bd 46 03 25 be 56 40 5e be
       -0.00046869786 -0.048825 -0.1611453 -0.2170423
000080 80 79 30 be e5 0f 18 be 3a 99 3e 3e 65 76 8b be
       -0.17233849 -0.14849813 0.18613139 -0.27238765
000090 a3 69 a0 3e f8 78 d6 3d 33 e4 57 be ac 97 24 3e
       0.31330594 0.10472292 -0.21083145 0.16073483
0000a0 e2 ba 73 be fa 4b a6 3e 41 c4 8a 3a ee dd 53 3d
       -0.23801759 0.3247984 0.0010587053 0.05172532
0000b0 eb 19 4a be 5b e9 03 be f3 2a 13 bd 84 a0 89 3d
       -0.1973645 -0.12881987 -0.03592963 0.06720069
0000c0 cd 7d d4 3d 81 55 1a bd 67 0d d3 ba f9 34 85 be
       0.10375557 -0.0376792 -0.0016102017 -0.26016977
0000d0 4a 86 54 be a2 e6 00 3e 4c dc 40 3e d4 b1 91 be
       -0.20754352 0.1258798 0.18834037 -0.28455985
0000e0 2e e3 5f 3e 25 a3 0c 3d 9f e7 55 be 7a ee 8c 3d
       0.21864006 0.034335274 -0.20889138 0.06881423
0000f0 c6 2b 1e 3e 2a 79 68 3d 2a d4 5b bd 93 0e 86 3d
       0.15446386 0.056756176 -0.053669132 0.065457486
000100 a8 89 a7 bd d4 03 82 be 52 e0 a8 be 04 8c e9 bd
       -0.08180553 -0.25393546 -0.32983643 -0.11403659
000110 00 70 f5 bd db 1c 2e be 13 0f 88 bd 46 be 1f 3e
       -0.11984253 -0.17003195 -0.066435 0.15599927
000120 61 67 a3 bd 12 16 74 3e 2e 49 8e 3e f0 30 a4 be
       -0.07978702 0.23836544 0.27790207 -0.32068586
000130 ac 6a 35 be 5e 8a ef 3c 69 41 86 bc 0c d9 c1 3b
       -0.17716473 0.029240783 -0.016388612 0.0059157666
000140 a4 12 3e 3d 4d 16 5a be e6 c4 a5 3e 78 ce 45 3e
       0.046404496 -0.2129757 0.32376784 0.19317043
000150 24 e1 d0 3d 07 e3 98 3e 6c eb a1 be 48 68 0d be
       0.10199192 0.29860708 -0.31624925 -0.13809311
000160 71 12 af be 98 14 c0 3d 3a 24 2f 3e d2 05 a7 be
       -0.34193757 0.09378928 0.17103663 -0.32621628
000170 90 dc 13 3e ea c6 52 be 67 aa 98 3e 15 de 9b be
       0.14439607 -0.20583692 0.29817507 -0.30442873
000180 ba 82 8c be 35 2e d4 bc 70 9a 6c be 8c 09 8d 3e
       -0.27443486 -0.02590094 -0.23105788 0.27546346
000190 ed 1e 30 3e e6 81 a1 be a0 f6 ad 3c 13 c9 b7 3b
       0.17199297 -0.31544417 0.021235764 0.0056086867
0001a0 b6 d0 25 3c 3f c7 9a 3e f6 be a5 bd 8e 0d 90 be
       0.010120561 0.30230138 -0.080930635 -0.2813534
0001b0 6a 6e 81 be 1b 10 24 be 9a 5d 8f 3e 9a e8 9b 3e
       -0.25279552 -0.16021769 0.280011 0.30450898
0001c0 32 24 9e 3e b1 c0 c1 bd 9e b5 a6 be a8 a4 95 be
       0.3088699 -0.09460581 -0.32560438 -0.29227185
0001d0 cc 0b 92 3c 15 37 a5 3e 6e 9d 98 be 70 38 7e be
       0.01782789 0.32268587 -0.2980761 -0.24826217
0001e0 8b 55 46 be b0 4a 32 be 46 fe 5f be a1 38 bf 3d
       -0.1936857 -0.17411304 -0.21874341 0.09336973
0001f0 2e 53 01 be 8d f6 65 be fa 8e 08 be 13 9a aa be
       -0.12629387 -0.22457333 -0.13335791 -0.33320674
000200 f1 0e 77 be 20 60 f6 3d 4d e0 0e 3e a2 dd a0 be
       -0.24126793 0.12030053 0.13952751 -0.31419092
000210 ff 37 df 3d 20 ca 81 3e 94 a3 a6 3d 2e 1e 99 3e
       0.10899352 0.25349522 0.08136669 0.29905838
000220 ef 43 ef bd 85 80 03 3d cf fe 0e be 18 22 89 3e
       -0.11682879 0.032104988 -0.1396439 0.26783824
000230 dd 05 a9 3c 74 8f 6c be bb 67 f1 3d 90 3b 5a be
       0.020632679 -0.23101598 0.11787363 -0.21311784
000240 9a 12 a7 3e 78 3f bf bd 7c fe 31 3b 9f 97 1f bd
       0.3263138 -0.093382776 0.002715974 -0.038962957
000250 89 f1 eb 3d 3a 9d 6e be 3a e7 47 3e 7f 97 62 be
       0.115206786 -0.23302165 0.195218 -0.22128104
000260 71 de c8 bd 2b 32 0a be 22 78 73 bd ff 8b 10 3e
       -0.09808052 -0.134957 -0.05944074 0.14115904
000270 72 c5 31 3e 2f 0d 77 3e 3e ca 95 3e 04 dd ac be
       0.17360476 0.24126123 0.2925586 -0.33762372
000280 ab 2c b0 be 08 b7 0a be ff 07 76 be cc fd 98 be
       -0.3440908 -0.13546383 -0.24026488 -0.29881132
000290 ee bf ca bd c4 be a2 3b bf dd f6 bd 23 37 83 3c
       -0.09899889 0.0049665887 -0.120540135 0.016017502
0002a0 e7 0f 4c be ba 64 f0 bd 85 33 f1 b8 77 1c 83 3c
       -0.19927941 -0.11737962 -0.00011501372 0.016004784
0002b0 7b 5e db 3d 3d e6 e7 bd d3 96 54 3d 06 05 5f 3e
       0.1071138 -0.11323211 0.05190165 0.2177926
0002c0 7f e3 a2 3e bb d6 43 bd b7 93 09 be 9b 05 06 3e
       0.3181419 -0.047812205 -0.13435255 0.13088076
0002d0 77 25 25 3e 3b f8 a2 be ee 15 30 be 1f 1b 04 3e
       0.16127573 -0.3183001 -0.17195866 0.12900971
0002e0 8e be 3b 3e 6e c2 10 be 03 5f 85 be fb 14 7b be
       0.1833441 -0.14136669 -0.2604905 -0.24519722
0002f0 56 6b 05 be 7a 45 84 3e 70 3f ad be 36 68 a0 3e
       -0.13029227 0.25834256 -0.3383746 0.31329507
000300 94 d3 54 3e 6a ac 62 3e 1a 9b 7a be c0 1c 4e bc
       0.20783836 0.22136083 -0.24473229 -0.012580097
000310 9d d3 ad be 3b 33 89 3e e8 70 a2 3c 5e 1a 89 3e
       -0.3395051 0.26796898 0.019829229 0.2677793
000320 2c 9d 80 be 9d 95 4d 3d 28 4b 86 be 04 3e 51 3b
       -0.25119913 0.05019151 -0.26229215 0.0031927833
000330 ff 91 44 3e 2e da a2 3e 97 f5 92 3c 0a f1 35 be
       0.19196318 0.31807083 0.017939372 -0.1776773
000340 c9 6a a6 be ff ec 00 3e 99 08 de 3d e8 96 43 3d
       -0.32503346 0.12590407 0.108414836 0.047751337
000350 4a cb 39 3d c4 d9 7b 3d f8 d7 a9 3e 64 e9 40 bb
       0.045359887 0.061486974 0.33172584 -0.0029435987
000360 5f ef 52 be 46 7d 81 bd f6 ad f7 bd 33 a3 9c 3e
       -0.20599125 -0.06322722 -0.12093727 0.3059326
000370 3a fc 25 3e b0 7b a8 be 3a 95 0b 3e 6f 02 88 3e
       0.16209498 -0.32906866 0.13631144 0.26564357
000380 35 1d 6e 3e 4c bd 3a 3e 4d 72 45 be 4a ed d3 bc
       0.23253329 0.18236274 -0.19281884 -0.025869984
000390 94 32 49 3e 52 80 8e 3d ef 20 9c 3e 4a 5a 1f be
       0.196482 0.06958069 0.30493876 -0.15561786
0003a0 e8 3b af be 21 4d 9b 3e f1 89 04 be 4f ac 88 bc
       -0.34225392 0.30332282 -0.12943245 -0.016683726
0003b0 89 68 60 be f3 c2 8b 3e e4 f6 00 be 5b 0f a2 3e
       -0.21914877 0.27297172 -0.12594181 0.3165234
0003c0 f5 17 81 bd ff d2 4b be 22 13 1a 3e ea 5e 42 be
       -0.063033976 -0.19904707 0.15046361 -0.1898152
0003d0 10 0e c1 bd 6c b4 fa 3d c8 ad df bd b1 c2 7c 3e
       -0.0942651 0.12241444 -0.10921818 0.24683644
0003e0 25 c3 3f be ef a4 51 3e 0c 9a 84 bd df 87 39 3e
       -0.18726785 0.20473073 -0.064746946 0.18118237
0003f0 99 4a f6 3c 6a cf b0 be 16 bd a7 3e a1 74 04 3e
       0.030064868 -0.34533244 0.3276145 0.12935115

pos_encoder.4.bias f4 [96]
000000 0a 95 07 be 0a 0d 0b 3e 0c 51 8d be f7 29 3d be
       -0.13240448 0.13579193 -0.27600896 -0.1847304
000010 bc ab 29 3e 6c d9 ad be 8d 6d b0 be 12 9f 6b 3e
       0.16569418 -0.33954942 -0.3445858 0.230099
000020 fc 72 8e bd 85 69 ee 3d 9b 8b b2 be 78 11 07 be
       -0.06955525 0.1164122 -0.34872136 -0.13190258
000030 32 f8 13 3e 68 30 4c 3e ee e3 d2 bd fc b6 ce bd
       0.14450148 0.1994034 -0.102973804 -0.10093495
000040 57 96 e9 3a 3e d1 38 be 0b 94 0c 3d dd 75 48 be
       0.0017821294 -0.1804857 0.034320872 -0.19576211
000050 a5 b4 38 be 83 fc a6 3e 3d e2 9b 3e f8 39 a3 be
       -0.1803766 0.32614526 0.30446044 -0.31880164
000060 0d f5 9d 3e 72 39 33 3e 39 16 1a be 59 6f 9d 3e
       0.3085102 0.17502382 -0.1504754 0.30749014
000070 5d 3e 98 be 71 a9 db bd eb 12 aa 3e cb e9 a7 be
       -0.2973508 -0.10725678 0.33217558 -0.32795557
000080 a0 df c9 bd 2e d0 0c 3e 7d 82 39 3e c2 ce 64 3e
       -0.09857106 0.13751289 0.18116184 0.22344497
000090 71 3e 50 be f5 f0 e1 bb c5 64 60 3e 27 1e 00 3e
       -0.2033632 -0.0068951794 0.2191344 0.12511502
0000a0 58 71 96 be 57 19 79 3e 0f a7 ba bd 80 be 88 3e
       -0.2938335 0.24326073 -0.09113895 0.2670784
0000b0 dd 40 f1 bd c7 11 52 be fe 16 05 3e fd eb 1b bc
       -0.1177995 -0.20514594 0.12997052 -0.009516713
0000c0 8a 27 e8 3d 6c b1 47 bc 59 97 f5 bd 79 d7 91 bd
       0.113356665 -0.012188297 -0.11991758 -0.07121176
0000d0 42 4c 4c be 44 7c a3 bd 63 e7 90 be 0e 96 d0 bd
       -0.19950965 -0.07982686 -0.28301534 -0.10184871
0000e0 8c 66 98 3e 34 f0 d3 bd 89 9c 9e be cf 2d ec bd
       0.29765737 -0.103485495 -0.30978802 -0.11532175
0000f0 3d 67 fd bd 70 10 2f 3d 95 70 c0 3c ec a5 87 3e
       -0.12373207 0.042740285 0.023491183 0.26493776
000100 1b f7 4f 3e ef cc ce 3d 39 5c 03 be e4 2c 9e be
       0.20309107 0.10097682 -0.12828149 -0.30893624
000110 5b 5d 6a bd a3 21 87 be 78 94 6c 3e 51 6b db 3d
       -0.057217937 -0.2639285 0.23103511 0.10713828
000120 70 ee 85 3e 94 e8 5d be 69 8d 80 3e 63 cd c8 3d
       0.26158476 -0.21670753 0.25107887 0.098047994
000130 f7 a7 8b 3e 43 d4 0b bd 6e f4 f2 3d 9c 52 2f 3e
       0.27276585 -0.034137975 0.118630275 0.17121357
000140 8a b0 32 3d f6 dd 10 3e a0 62 3e 3e 45 43 07 3e
       0.043625392 0.14147171 0.1859231 0.13209255
000150 8d cb 27 3e d4 f9 a2 3e d3 67 f7 bd db 20 8a be
       0.16386242 0.3183123 -0.1208035 -0.26978192
000160 3b ed 03 be 18 b3 26 bc d2 35 94 be 6e e9 0c 3e
       -0.12883465 -0.010174535 -0.28947312 0.13760921
000170 c0 b4 82 3e 8b 55 93 bd 0f 69 5f be 95 ed a7 3e
       0.25528526 -0.071940504 -0.2181742 0.32798448

fc_encoder.0.weight f4 [8, 14]
000000 4f 0f a9 bc 1c 02 93 bb f3 0a a6 bc f3 d6 50 bd
       -0.020637183 -0.0044863354 -0.020268893 -0.05098624
000010 60 6b 91 3d d7 79 26 3d 78 59 47 bb d0 32 5f 3d
       0.07100558 0.04064354 -0.0030418318 0.054491818
000020 d5 db c9 3a d1 b7 6d 3d bb 10 03 3d 9e cf 91 bb
       0.0015400598 0.05803663 0.031998377 -0.0044497987
000030 fc cf 4a bc 36 7f 99 bc 89 6d 0d 3d 03 07 38 bc
       -0.012378689 -0.018737417 0.03452829 -0.0112321405
000040 ca 89 55 bd 15 08 76 3c 87 22 87 3c 67 5d 1b 3d
       -0.05213336 0.015016575 0.016495956 0.037930872
000050 a9 f2 0a 3d 7c d7 0c 3d 24 3d 77 3c 05 5f eb bc
       0.033922825 0.03438519 0.015090261 -0.028731832
000060 c4 8f 87 3d a5 10 a2 3b 52 fb 94 3c 78 7b aa bc
       0.06619218 0.004945832 0.018186245 -0.020810828
000070 06 1b 3c 3d 3a ec e6 3c e3 6d 29 bd 46 aa 39 bd
       0.04592421 0.028188813 -0.04136456 -0.0453284
000080 a2 9c 09 3c 4d d5 6a 3c 51 f9 de 3c 98 d6 8b 3c
       0.008399161 0.014333081 0.027218493 0.0170701
000090 6b 14 14 3d 8c 26 b5 bc 48 44 0c 3c d8 25 e6 bc
       0.036152285 -0.022113107 0.008561201 -0.028094217
0000a0 28 86 00 bd eb d3 c3 3c d2 2f 1c bc 6e dc 8f 3c
       -0.03137794 0.023904761 -0.009532886 0.017561164
0000b0 d2 c7 d0 3b 26 8e 39 3c fb f8 6d bc 59 53 93 3c
       0.0063714767 0.011325395 -0.014524694 0.01798408
0000c0 e6 57 9c bd a5 4e c5 bc f5 cc b1 3a 23 62 2b 3c
       -0.07633953 -0.024085352 0.001356511 0.010460409
0000d0 bf b4 39 3c b6 de 4c bc 5e be 8b bc 38 bd 5d bd
       0.011334597 -0.01250427 -0.017058548 -0.05413553
0000e0 75 9b 14 bb 2a e3 16 bb 61 c1 17 bb 92 2f 1c bb
       -0.0022675667 -0.0023023584 -0.0023156034 -0.0023832065
0000f0 46 0f 1e bb fd 61 1f bb 5a 39 09 bb a1 a7 19 bb
       -0.002411799 -0.002431988 -0.0020938725 -0.0023445862
000100 b0 09 21 bb a9 d5 24 bb ba d3 10 bb 2e 02 1c bb
       -0.0024572425 -0.0025151765 -0.0022098855 -0.002380501
000110 b7 9f 1b bb 05 98 1a bb 1d 77 2b bd 5e d5 2b bd
       -0.002374632 -0.0023589146 -0.041861642 -0.04195153
000120 c3 dc 37 3d df 24 09 bc f7 3b 9b bc c2 e6 2b 3d
       0.04488827 -0.008370607 -0.018949492 0.041968115
000130 44 8f 12 ba 38 09 98 3d c0 0e c8 bc e9 08 63 3c
       -0.0005590806 0.07423633 -0.024421096 0.013857105
000140 8c a3 0b 3d 3a 55 6f bd db 53 8d 3c 9f 7a 51 3c
       0.034091517 -0.058430888 0.0172519 0.012785583
000150 84 88 3c bd 41 b9 07 3b 72 28 e9 bc fd 55 00 bd
       -0.04602863 0.0020709785 -0.028461669 -0.031332005
000160 25 1b 28 bd 1c c7 b3 3c 22 83 1d 3d a1 f8 2f bd
       -0.041041512 0.021945529 0.038455136 -0.04296172
000170 33 40 15 3d 0e e7 2e 3d 2c 99 9e bc fb db ea bc
       0.03643818 0.04270082 -0.019360147 -0.028669348
000180 6b 5b bf bc f3 3d 21 bd c4 aa 01 bd 75 0c 6d 3c
       -0.023359021 -0.03936572 -0.031656995 0.014468302
000190 fd c7 62 3d 28 d9 0d bc 4a 8c 43 bc 82 e5 05 bd
       0.055366505 -0.008657731 -0.011935303 -0.03268958
0001a0 75 ab 5f 3d dc 7f 08 bd 60 4f 0c bc e7 4d 02 3d
       0.054606874 -0.03332506 -0.008563846 0.031812575
0001b0 d5 c3 81 bd 3d d4 7c bb fe 02 81 bc 5b 2b ac 3c
       -0.0633618 -0.0038578652 -0.015748497 0.021016767

fc_encoder.0.bias f4 [8]
000000 32 16 90 3d 59 ce 07 3d 35 fd 6a bd 92 a3 15 bd
       0.070354834 0.033155773 -0.057370383 -0.036532946
000010 35 c8 83 bd dc 13 1e 3d a7 ed 2d 3b 11 9a 70 3d
       -0.06434671 0.038593158 0.0026539357 0.05874068

fc_encoder.2.weight f4 [16, 8]
000000 cb b2 09 bd 10 4e 69 3e 21 87 5c 3e 31 db e0 3d
       -0.033617776 0.22783685 0.21535923 0.109793074
000010 d4 31 73 3f eb d4 31 be 7c 3c bb 3d a3 8f d4 3c
       0.94997907 -0.17366378 0.09142396 0.025947398
000020 dd 29 cd bc cf e3 6c 3c 67 5a 73 3e b9 89 10 bd
       -0.025044376 0.014458611 0.23764955 -0.035287593
000030 7a 60 ff 3e 89 8b e0 3e e8 76 84 3e 54 eb 98 3e
       0.49878293 0.43856457 0.25871968 0.2986704
000040 66 20 99 be c5 85 c7 be a1 ef 10 bf b5 83 fe 3d
       -0.2990753 -0.38969246 -0.56615645 0.12427465
000050 09 5e 06 3d a2 d1 06 3f 21 b9 9d 3d 95 d6 c0 3e
       0.032804523 0.52663624 0.07701326 0.37663713
000060 de a3 87 3e c8 c4 17 3d a6 3e 1d 3e c4 08 f0 bd
       0.26492208 0.0370529 0.1535593 -0.11720422
000070 12 2f 9e 3c cf 4b ad 3e e9 53 1d 3f a9 c4 a2 be
       0.019309554 0.338469 0.6145616 -0.31790665
000080 78 97 ce 3d a8 b8 15 be 45 72 6d be be bb 69 be
       0.10087484 -0.14621222 -0.23188122 -0.22825524
000090 1b e7 92 be 2d 6d 8e 3e fc fb 22 bf f9 01 d2 bd
       -0.28691944 0.2781767 -0.6366575 -0.102542825
0000a0 20 8e 8c be 66 6f 85 3e 13 94 f0 bd 05 00 29 3e
       -0.27452183 0.26061553 -0.11746993 0.16503914
0000b0 58 ee 25 3f cf b0 8d be ab 89 df be ec 8e 15 3f
       0.6481681 -0.27673957 -0.4365972 0.58421206
0000c0 b0 12 32 bd 9e 44 0a bf ec ba 2e 3e 7c 09 48 3d
       -0.043474853 -0.5401095 0.17063493 0.04883717
0000d0 c0 4c 21 bf d9 18 f9 3e e5 b1 41 3f 14 53 e6 bd
       -0.63007736 0.4865177 0.7566207 -0.11246315
0000e0 4f 72 b5 be 35 21 ac 3d bb 86 a5 3e ee d4 57 bd
       -0.35438773 0.08404771 0.32329354 -0.0526933
0000f0 61 b9 1e bf f3 17 6f 3e 6a 45 2e 3d 83 23 c9 3e
       -0.62001616 0.2334898 0.042546667 0.39284906
000100 e7 86 ec 3d 64 3d b7 3e 70 2f 03 3c bb 12 7d bd
       0.11549168 0.35789025 0.008006915 -0.06178544
000110 69 e5 04 bf d4 15 1a bc 8b 74 f4 be 30 77 95 3d
       -0.5191255 -0.009404618 -0.47745165 0.07298124
000120 e4 05 a9 bd 39 4c b5 be 96 a9 10 3f a5 5f 60 be
       -0.08253077 -0.35409716 0.5650877 -0.21911485
000130 9f 94 35 3e 48 ea 26 3f 4f df 76 3e 5b 35 d0 3e
       0.17732476 0.65201235 0.24108623 0.40665707
000140 ab ff 9d bd c0 6b 85 be 11 75 8d be ee 28 a5 3e
       -0.077147804 -0.2605877 -0.27628377 0.3225779
000150 c7 a7 ee 3d 20 00 58 3e 35 5f 81 3e 86 47 d2 be
       0.11653095 0.21093798 0.2526795 -0.41070193
000160 a5 f5 8c bc ce de f8 3e 10 f1 69 be 49 2c cf 3e
       -0.017206976 0.48607486 -0.22845864 0.40463474
000170 5a 5a fb be d5 23 0f be b4 92 7c 3e 68 f7 9a 3d
       -0.4909237 -0.13978513 0.24665338 0.0756672
000180 aa f6 a2 3e 03 24 04 bd 71 ab fa 3e ec 19 8c bd
       0.31828815 -0.032260906 0.48958924 -0.06840882
000190 8a b0 25 bf 1b e4 af 3e 4c 0a 61 3e 4e 2d 78 3e
       -0.647225 0.34353718 0.21976584 0.24236032
0001a0 ff 11 0b 3f e0 4c fc be 12 26 e0 3e 72 da 11 be
       0.54324335 -0.492774 0.43779045 -0.14243487
0001b0 1f 0e 44 3e 20 34 7a 3d 2a 64 6f 3d be 43 2f bf
       0.19146012 0.061084867 0.058445133 -0.6846274
0001c0 bc 34 5e 3e 65 41 db be 2b fc b0 3e 33 ff 90 3e
       0.21699804 -0.4282333 0.3456739 0.28319702
0001d0 48 e0 1b bf 87 f0 77 bc c9 c8 06 3f 45 65 d4 be
       -0.608891 -0.01513303 0.52650124 -0.41483513
0001e0 8b 69 85 be f0 1b a6 3e 7c 00 28 be ab fc a5 3d
       -0.26057085 0.3244319 -0.16406435 0.08104833
0001f0 3d 12 29 bf 59 c1 b6 be 16 75 e1 be ba 86 c6 3e
       -0.66043454 -0.35694388 -0.44034642 0.38774663

fc_encoder.2.bias f4 [16]
000000 f6 d4 3b be e4 51 8f be 93 d2 fb be fd cc 4a 3f
       -0.18342957 -0.27992165 -0.49184093 0.7921904
000010 c6 3a 14 3f a5 43 c0 3e 0d 0f 4a bf 5a 89 52 3e
       0.5790218 0.3755161 -0.78929216 0.20560208
000020 ac 22 3f 3f 9f 39 2f bf aa 75 f1 bd 94 28 c8 3e
       0.7466228 -0.684473 -0.11790021 0.3909346
000030 f8 b6 6e bd 4b ef 09 bf 8e 6b e3 3e 6d a9 ff be
       -0.05827996 -0.5388076 0.44417995 -0.4993395

fc_encoder.4.weight f4 [32, 16]
000000 8a 79 89 3e 7e a4 cf 3e 5f d5 53 3e 98 f2 20 3e
       0.2685054 0.40555185 0.20686863 0.15717542
000010 4e b0 ff bd 94 43 ff bd 58 bc ab 3e 6e 8b 60 be
       -0.12484799 -0.124640614 0.33542132 -0.21928188
000020 77 20 ed 3e 2b 34 ae be 18 51 95 3e 1b cd b5 3e
       0.4631383 -0.34024176 0.29163432 0.35508046
000030 75 27 8f be 66 60 12 3f 0b ff 8f 3d 55 e7 4c 3e
       -0.2795979 0.5717834 0.070310675 0.20010121
000040 65 e0 51 3d f9 a9 b2 bc b1 26 ad be 68 41 2a 3e
       0.05123939 -0.021809565 -0.33818582 0.16626513
000050 29 f7 1f 3e 54 08 7d be 22 45 82 be 42 a3 af 3e
       0.15621628 -0.24710208 -0.2544337 0.34304243
000060 2f 2a 0c 3f d1 da e9 3d 99 e2 d4 3e bb 5a 28 be
       0.5475187 0.11418689 0.4157913 -0.16440861
000070 5c 1b 0c bf 49 8a 86 3e a0 a8 07 bf 05 ba 9a be
       -0.5472925 0.26277378 -0.52991676 -0.30220047
000080 9e 2f 9a 3e 66 a2 30 3e cc d8 bb 3e 6b b0 be 3e
       0.30114454 0.1724945 0.3668884 0.3724397
000090 ba c0 5d 3e 9d d1 9d 3e c4 00 92 be 35 56 c8 be
       0.2165555 0.30823985 -0.2851621 -0.3912827
0000a0 c5 5e c8 bd 22 b9 07 3e 24 48 d1 be 3f 3b e7 be
       -0.09783701 0.13254216 -0.4087535 -0.4516239
0000b0 1c e7 d2 be 45 8a f9 be cd 1d e0 3e 1e 0b 80 3c
       -0.41191947 -0.48738304 0.43772736 0.015630301
0000c0 3a ed 81 3e 18 28 84 3e 89 e8 52 3e 44 00 4b 3c
       0.25376302 0.2581184 0.20596518 0.0123902
0000d0 e1 8b 76 be 95 7a 91 be a5 bd a7 be be c2 01 bf
       -0.24076797 -0.28413835 -0.32761875 -0.5068778
0000e0 1d 76 b6 be 76 8d 0d bf 5c be a9 3d 89 2a b0 bd
       -0.35636988 -0.5529398 0.08288261 -0.08601863
0000f0 5d 1b 86 3e 57 b8 10 bf 47 a7 13 be bc 48 c1 be
       0.26192752 -0.5653128 -0.1441928 -0.37750804
000100 90 05 d8 3e d9 19 74 be aa 06 d6 3e 3a 58 b1 bd
       0.42191744 -0.23837985 0.4180196 -0.08659406
000110 94 65 c5 be ad 64 c9 bd f5 16 df 3e 80 1c 1d bd
       -0.3855406 -0.098336555 0.43572202 -0.038357258
000120 5c c7 ea 3e d5 ad c4 3d 52 30 14 be a0 c3 61 be
       0.45855224 0.09603468 -0.14471558 -0.22047281
000130 22 a9 bb bd e0 d5 b6 be 29 a6 42 be 8f d8 fa bc
       -0.09163119 -0.3571005 -0.19008698 -0.030620841
000140 6b cf 9e be 24 e9 9b be 02 0b 5d bd e1 2e 2b 3e
       -0.31017622 -0.3045131 -0.053965576 0.16717102
000150 6b 3e f5 3e a5 1b de 3e e3 39 9e bd 17 aa 33 3c
       0.47899184 0.43380466 -0.07725885 0.010965846
000160 ec 83 f2 be 62 b2 68 bd 6e 83 d1 3e a6 a1 26 3e
       -0.47366273 -0.056810744 0.40920585 0.16272601
000170 b7 cb 12 3f 1d 35 fe 3e 5a 17 df 3d c8 3e 52 3e
       0.57342094 0.49649897 0.10893126 0.20531762
000180 37 e0 15 be 88 63 17 bf 22 3a ed 3e be 61 78 bd
       -0.14636312 -0.5913625 0.46333414 -0.06064009
000190 06 48 bf 3e 45 39 75 3e 08 4b b4 be 39 ba bb 3e
       0.37359637 0.23947628 -0.35213494 0.36665514
0001a0 e1 d4 0b bf c7 5c 04 3f d3 2b c6 be ce 8f c1 3d
       -0.546217 0.51704067 -0.3870531 0.09451257
0001b0 03 c4 d7 bd cb 91 28 3e 3a 05 b9 3e de ca 8e 3e
       -0.10535433 0.16461866 0.361368 0.2788915
0001c0 8f 4a 9f 3e 88 3d 81 3e 1b 44 44 3e 0c 2c b7 3e
       0.3111157 0.25242257 0.19166605 0.35775793
0001d0 ee 9f 95 be c8 19 f8 be f1 43 aa 3e b2 ea 8b 3e
       -0.2922358 -0.4845717 0.3325496 0.27327496
0001e0 e8 ac 11 bf 59 02 63 3e c9 7e c2 3d 70 81 c6 3e
       -0.5690446 0.22168864 0.094968386 0.38770628
0001f0 1b 86 f9 3e 06 a0 ea bc 55 d4 dd be 6b 95 89 3e
       0.48735127 -0.028640758 -0.4332606 0.2687181
000200 95 e4 e5 be 97 33 7c 3e 7f 12 aa 3d 03 4c 42 be
       -0.44900957 0.24629055 0.08304309 -0.18974309
000210 3a 56 97 be f9 58 9f 3e 34 ee 0a 3f 84 b7 b0 be
       -0.29557973 0.31122568 0.5426972 -0.3451501
000220 dd c6 00 3f 6f df 0f bf 62 3c c5 be 03 18 c8 be
       0.5030344 -0.5620031 -0.3852263 -0.3908082
000230 70 d1 fe 3e 30 c6 81 be bf b6 24 be a0 d3 82 3e
       0.49769163 -0.25346518 -0.16085337 0.25552082
000240 f7 0a e4 3e fc b0 89 be a8 bd 10 be 3f 01 a7 be
       0.44539616 -0.2689284 -0.14134848 -0.32618138
000250 ad a5 06 3e 12 39 cc 3e 6e 72 19 3f bd dc 07 be
       0.13149138 0.3988729 0.5994023 -0.13267799
000260 f1 3a 69 3e 64 48 ca bd c1 b6 1a be 7e af ae 3d
       0.2277639 -0.09877089 -0.15108778 0.08529566
000270 65 4d 23 be 61 e3 5d be 16 5f 86 be 77 ff fd 3a
       -0.15947492 -0.2166877 -0.2624442 0.0019378503
000280 4c cf 9a 3d 09 ca be be 0e 9a ed 3d 17 b1 e3 be
       0.0755907 -0.37263516 0.11601649 -0.44471046
000290 e8 39 0c 3f ad 7f ca be a7 08 5a 3e b1 da 0a bc
       0.5477586 -0.39550534 0.21292363 -0.008474992
0002a0 fb 1c 86 be 5d 02 0b bf 48 fb 4a be 46 cf f3 be
       -0.26193985 -0.5430048 -0.19822419 -0.47619075
0002b0 d0 6e 00 be 27 6b 17 be 10 e0 0f 3f 40 83 de be
       -0.12542272 -0.14786969 0.5620127 -0.4345951
0002c0 96 96 72 be d4 f9 f3 3d a9 05 cb 3e 3d 93 db 3d
       -0.23690256 0.11912885 0.39652756 0.10721443
0002d0 8c d7 de be 41 79 0b 3f 02 96 b2 be c5 79 cc 3e
       -0.43523824 0.54481894 -0.34880072 0.39936653
0002e0 16 71 df be 2f be 24 be e6 cc 6a 3e f4 d2 f1 be
       -0.43640965 -0.16088174 0.22929725 -0.47231257
0002f0 6f e7 da bd 8e 3d da 3e 72 5e f4 3d e8 a2 fd bd
       -0.10688674 0.42625087 0.119320765 -0.123845875
000300 7b 22 16 3f 16 77 ef be 7d 65 7d 3e 04 43 d6 3d
       0.58646363 -0.46770543 0.24745746 0.10462001
000310 1e d3 c2 be 26 8a 7d 3e a1 2c c7 bd cf 5d e8 3e
       -0.38051695 0.2475973 -0.09725309 0.4538407
000320 b9 f8 0e bf 3a 67 f7 be 5b 0a 3c bc 9c 44 73 bd
       -0.5584827 -0.48320943 -0.011477078 -0.059391603
000330 c8 88 b3 3e db 8c 42 3e 4a 12 ce 3e a1 63 ce 3e
       0.35065293 0.18999045 0.40248328 0.40310386
000340 3a da 08 3e d0 65 07 bf 9b 92 b5 be ce a9 bb bd
       0.13364497 -0.5288973 -0.35463414 -0.09163247
000350 a5 42 47 3e 1b 20 b2 3d a9 c6 db 3d 79 f7 04 bf
       0.19459017 0.0869753 0.10731251 -0.51940113
000360 33 b2 c0 3e 78 c1 8f 3e b6 16 d0 be a0 89 6e 3e
       0.37635955 0.28077292 -0.40642327 0.23294687
000370 01 a3 cc be f7 56 ed be 2a f2 b6 3e 9a 2d b7 3e
       -0.39968112 -0.4635541 0.35731632 0.3577698
000380 e5 cc 58 3d 0d 7b 81 3e 55 2a b3 be e4 0a 8c 3d
       0.052929778 0.25289193 -0.34993234 0.06838015
000390 2e 26 99 bd 27 8d f7 3e f4 5b 8e bd 6b e9 c3 be
       -0.07477985 0.48349878 -0.069511324 -0.3826402
0003a0 dd ed 63 be 39 29 55 3e 04 88 bb be 24 65 95 be
       -0.22258706 0.20816506 -0.3662721 -0.29178727
0003b0 25 b2 3f be ff 22 69 3d f6 0e 97 3e 3d 98 8d be
       -0.187203 0.05691814 0.29503602 -0.2765521
0003c0 16 7f a1 be e9 3b 80 bd 90 5a b2 be af 83 85 bd
       -0.3154227 -0.06261427 -0.3483472 -0.06519257
0003d0 11 c6 92 be ba 08 87 be 3f a3 8d be 45 82 31 3e
       -0.28666738 -0.26373845 -0.2766361 0.1733485
0003e0 c3 d5 dd be 7c c6 a9 3c ed 2a f1 3e df 60 f7 3e
       -0.4332715 0.020724528 0.47103062 0.48316094
0003f0 b1 54 c0 3e 3c 36 8e be 83 49 69 bd 66 33 a8 3d
       0.37564614 -0.27775753 -0.056954872 0.082129285

fc_encoder.4.bias f4 [32]
000000 4e 66 dc 3e 59 79 c5 be 9a ee b1 3e 6b ad 8f 3e
       0.43046802 -0.38569143 0.3475235 0.28061995
000010 55 c4 83 3e 14 c1 b7 3e 4c a7 bb be 26 2b b4 3e
       0.25735727 0.35889494 -0.36651075 0.3518917
000020 6a c7 fa be a6 84 8e be 72 7b ca 3e d4 ff cd 3e
       -0.48980266 -0.27835578 0.39547306 0.40234244
000030 3a 18 bf 3e 1f 63 47 be ff 45 d9 3d 46 50 9e 3e
       0.3732317 -0.19471405 0.10609054 0.3092062
000040 dc 16 ee be 39 4f cd be f5 31 a6 3e 38 f9 de 3e
       -0.46501815 -0.40099505 0.3245999 0.43549514
000050 fd 65 d6 be 47 d9 a0 bd 7f 6e 3e 3e 6d f9 9e be
       -0.41874686 -0.07853942 0.18596838 -0.31049672
000060 ca 80 a7 be 23 7f ed 3e d4 e1 8d 3e 12 e6 3a be
       -0.32715446 0.4638606 0.27711356 -0.18251827
000070 5f f5 f7 3c 42 e7 95 be 6b e1 f1 3e 2d ae 06 bf
       0.03026837 -0.29277998 0.47242293 -0.5260952

decoder.0.weight f4 [128, 128]
000000 37 83 bd 3b 5b aa f2 3b 4a 4e 9c 3b 05 12 8b 3b
       0.0057834643 0.007405562 0.004770075 0.0042440915
000010 5e 02 c7 3b ed 80 8f 3b 86 d3 47 bb d3 34 26 3b
       0.0060732802 0.004379383 -0.0030491068 0.0025361076
000020 b2 e3 aa bb 15 d6 57 3b a7 07 a4 bb 99 98 b3 bb
       -0.0052151317 0.0032934 -0.005005795 -0.0054808375
000030 ad c9 c9 3a 56 86 9c bb 6e 2e ba ba f0 45 22 3c
       0.0015395187 -0.0047767563 -0.0014204511 0.00990437
000040 5c 9c c9 bb 42 3e 32 3b 47 51 92 ba 58 cc 8a bb
       -0.0061526727 0.0027197753 -0.0011163139 -0.0042357855
000050 15 75 45 3b 22 ef 84 bb ce 67 18 3b 64 76 1e b9
       0.00301296 -0.004056827 0.0023255232 -0.00015112158
000060 50 4f d1 3b c0 b7 95 3b 37 65 52 bb c4 19 83 3b
       0.0063876286 0.004569024 -0.0032103786 0.0040008742
000070 13 eb d9 3b 1d 70 b8 3a fa 91 bf 3b d2 0e 1a 3c
       0.0066503375 0.0014071498 0.005846259 0.0094029475
000080 85 a9 50 3a 9f fb 36 3c a1 50 83 bb 53 7f e2 b9
       0.00079598307 0.01116839 -0.0040074144 -0.00043200943
000090 72 c1 fa 3a 21 c9 b4 b9 72 c6 fa ba 9b 59 83 bb
       0.0019131138 -0.00034482128 -0.0019132628 -0.0040084845
0000a0 28 c9 29 bb f9 ec a9 3a ae 44 3a 3c 3c ff 60 ba
       -0.0025907252 0.00129643 0.011368914 -0.0008582955
0000b0 34 55 ad bb 22 27 98 3a d0 60 30 39 a3 cb f3 3b
       -0.005289698 0.0011608342 0.00016820733 0.007440047
0000c0 b2 f9 ec 3b 08 56 09 3a a2 94 68 ba c3 45 8e 3b
       0.0072319144 0.0005238955 -0.00088722457 0.0043418123
0000d0 ff 1e 09 bb 79 bb 8c bb 4c ba c1 3b 01 26 a0 bb
       -0.0020923016 -0.0042948094 0.005912101 -0.004887343
0000e0 13 88 48 bb e2 13 a8 bb 92 52 5a 3b b2 ea be 3b
       -0.0030598685 -0.0051293233 0.0033313376 0.0058263177
0000f0 0f b6 cc 3a 55 16 f2 ba 1a eb 2e 3b ac d0 bf 3a
       0.0015618223 -0.001846979 0.0026690424 0.0014634333
000100 11 f0 0a bb 38 c9 0b 3b 73 de fa bb 3b 88 17 bb
       -0.002120022 0.0021329653 -0.0076559125 -0.0023121971
000110 c8 25 91 bb f7 2b e0 ba bd b5 84 38 51 3e 35 3c
       -0.0044295527 -0.0017102946 6.328102e-05 0.011062221
000120 f0 af 55 3b fa db 49 3b 91 9b 17 3c 35 97 2f ba
       0.0032606088 0.0030801282 0.0092533985 -0.0006698252
000130 a5 8d 52 3c a1 26 57 3b 84 59 7b 3b b9 c3 c8 ba
       0.0128511535 0.003282942 0.0038352916 -0.0015317119
000140 85 45 b3 3b 99 b4 e1 ba 8b 26 8c 3b 6b 4f f0 3a
       0.005470934 -0.001721996 0.0042770556 0.0018334215
000150 e8 e7 0d bc 44 60 14 bc 2a 9c 04 b9 de 07 e5 bb
       -0.008661248 -0.009056155 -0.00012646677 -0.006989463
000160 3b e9 81 ba 68 33 9d 3b 42 2b e0 3b e1 94 a3 ba
       -0.0009911427 0.004797388 0.0068410942 -0.0012480282
000170 16 e0 7c 3b cb 7c a3 3b 1e f5 17 bc d1 5c 32 3b
       0.0038585714 0.0049892417 -0.009274749 0.0027215967
000180 49 31 bc ba 07 d1 21 3b 9a 95 80 3b 6e f5 1d bb
       -0.001435795 0.002469124 0.003924084 -0.0024102586
000190 85 4c 26 bc 60 a0 cf bb c2 a1 21 bb 49 2a 89 3b
       -0.01015008 -0.006336257 -0.0024663066 0.004185949
0001a0 9b 8e 95 3b 36 8e a4 3a b1 4d db bb e6 ca cf 3a
       0.004564119 0.0012554589 -0.006692611 0.0015853315
0001b0 b5 22 40 3a c7 a3 0e bb aa f6 9d 39 03 27 2d bb
       0.00073293905 -0.00217651 0.00030129153 -0.0026420958
0001c0 de 57 bc b8 29 66 f3 38 94 6c 1f bb b3 31 a8 ba
       -8.980905e-05 0.00011606172 -0.0024326192 -0.0012832194
0001d0 7c 6a 6d bb 25 49 06 3b a2 0c bd 3b 7e 0f e4 ba
       -0.00362268 0.0020490375 0.005769328 -0.0017399637
0001e0 00 5a da ba 27 dc 26 bb d8 87 0a 3b d6 0a a2 bb
       -0.0016658902 -0.002546081 0.0021138098 -0.0049451394
0001f0 bb 01 80 b9 6e 20 b9 bb 4a f3 36 bb 3f 07 3a 3c
       -0.00024415352 -0.005649618 -0.0027916008 0.011354267
000200 ed 8a 7a 3b 42 1f a3 39 ee 88 00 bc 86 a5 89 bb
       0.003822978 0.00031113072 -0.007845147 -0.00420064
000210 85 be 3d bb f3 2f e2 bb b1 56 0c 3b 44 46 9d ba
       -0.002895267 -0.0069026886 0.0021413977 -0.001199909
000220 9e e7 71 3a ed 71 27 bc 60 5b a7 3b 0d 43 df bb
       0.0009227934 -0.010220033 0.0051073283 -0.006813413
000230 7d 0d d9 3a 8b cd 49 bc f6 78 a3 3b 41 81 81 bb
       0.0016559806 -0.012317072 0.004988785 -0.003952176
000240 30 e4 92 bb e0 f9 81 bb 1f f3 60 bc 88 71 c5 bb
       -0.0044827685 -0.003966555 -0.01372984 -0.006025497
000250 40 e8 66 3b bb ae b3 3b 9c e5 13 3c c9 c3 5f ba
       0.0035233647 0.005483476 0.009026911 -0.0008535949
000260 e5 64 21 bc 37 80 5b 3b dd a1 61 3c 78 b9 2d 3a
       -0.009850715 0.003349317 0.013771501 0.0006627063
000270 b4 b4 84 bb 68 03 38 bc c9 21 31 3c 62 b1 ee bb
       -0.004049862 -0.011231281 0.010811278 -0.0072843293
000280 63 fd a0 3b 8e d7 89 ba 3a 8f d1 bb 79 7c 55 3b
       0.0049130186 -0.0010516511 -0.0063952478 0.0032575412
000290 02 8b 5d 3c 3c da 37 bc d1 55 76 3b e1 f8 08 3c
       0.013521912 -0.011221465 0.0037587772 0.008360119
0002a0 b3 15 14 bb 34 6d 83 3b 96 71 cd 3b a4 ae 29 3c
       -0.0022595942 0.0040108208 0.006269644 0.010356579
0002b0 f7 91 66 b9 7d 30 70 3b fd c9 87 3b 24 52 98 ba
       -0.00021988885 0.0036649995 0.004143952 -0.001162116
0002c0 8d cf 24 bb 12 62 84 3b c8 7e 2b bb e7 8c 75 bb
       -0.0025148124 0.004040011 -0.0026168097 -0.0037468018
0002d0 ee 98 e7 3b 7f 16 68 3a 71 03 62 bb 9a ff 81 3a
       0.007067791 0.000885345 -0.0034486915 0.0009918094
0002e0 d0 4f db bb 21 f8 c5 3b ea 59 23 bb 80 e5 ef ba
       -0.006692864 0.006041542 -0.002492542 -0.0018302649
0002f0 d9 ce 1d bb 80 55 b6 39 9f f3 16 3c 52 72 f6 3a
       -0.002407959 0.00034777448 0.009213357 0.0018802381
000300 46 c4 5d bb ce 1b 1c 3c 21 14 54 3b 80 e6 52 bb
       -0.0033838912 0.0095281135 0.003236063 -0.0032180846
000310 90 41 85 bb bf 11 bb bb 4e e3 87 bb e1 97 70 ba
       -0.0040666535 -0.0057089026 -0.00414697 -0.0009177905
000320 2f d5 8f bb ca 10 d7 bb 51 09 db 3b c3 24 c3 3a
       -0.004389427 -0.0065632807 0.00668446 0.0014888275
000330 4f fb 63 bc 50 12 1b bc 65 89 4d bb 63 a6 84 3b
       -0.013914897 -0.009464815 -0.003136241 0.004048155
000340 a2 24 02 bc a3 b3 35 3a 12 45 f3 bb 87 a1 6a bb
       -0.007943304 0.000693137 -0.0074240053 -0.0035801844
000350 d1 6b 55 3c 9f ee da 39 7b ec eb 3b ba 61 d8 3a
       0.013026194 0.00041757987 0.0071998215 0.0016508617
000360 65 65 34 bc 1d f4 0d bb 98 c6 e3 bb b6 d8 1e 3c
       -0.011010502 -0.0021660395 -0.0069511645 0.009695223
000370 c1 8b 2c bc 24 af 92 ba 59 73 81 3b 8f 4b a0 ba
       -0.010531367 -0.0011191112 0.003950518 -0.001222955
000380 b1 ac 28 bb 96 70 e3 3a 43 ae e7 3a a7 85 f9 3a
       -0.0025737698 0.0017352279 0.0017675835 0.0019037024
000390 b3 4e 44 bb 5d f3 35 bb 5c 75 f3 bb 9a 92 83 ba
       -0.0029954135 -0.0027763464 -0.007429762 -0.0010038198
0003a0 e5 cd 07 3a ef 58 e5 3a 7c 9f 94 3a 62 ab 73 3b
       0.0005180522 0.0017497818 0.0011339034 0.003718101
0003b0 16 af 5d 3b c8 82 22 3b 88 5a 4c bb 23 3c 8d bb
       0.0033826283 0.002479719 -0.003118189 -0.0043101474
0003c0 df 9c 00 ba 98 17 2d 3b 81 87 cc bb 83 34 93 3a
       -0.0004906188 0.0026411768 -0.0062417393 0.001123086
0003d0 4e a8 1b ba 07 ca 95 39 82 66 95 3b a2 98 a6 3b
       -0.000593786 0.00028570017 0.004559339 0.005084113
0003e0 03 33 5a 3b 8c ba b4 3a b3 c7 e5 b8 5c 47 59 3a
       0.0033294566 0.0013788505 -0.00010956768 0.00082885264
0003f0 c8 24 29 bb b2 84 4e ba 8a c2 1d bb 50 98 7b bb
       -0.0025809277 -0.00078780495 -0.0024072253 -0.0038390346

decoder.0.bias f4 [128]
000000 5d 96 d9 3a 89 20 1e bb c5 3e d0 3a fd f2 91 bb
       0.0016600598 -0.002412828 0.0015887847 -0.0044540153
000010 6f 50 17 3c b2 b4 ed bb 27 b9 9a bb dc 33 b7 bb
       0.009235485 -0.0072542066 -0.004721779 -0.005590899
000020 db 97 20 ba f5 4b 16 ba 00 59 c2 3b 84 8d e5 bb
       -0.0006126144 -0.00057333644 0.00593102 -0.0070053954
000030 89 8c 55 bb 53 27 01 3c 0c 2c 4e 3b a4 30 ad bb
       -0.0032584986 0.007882911 0.003145936 -0.0052853394
000040 4d dd 65 3b 9b 01 2b 3b a9 71 ee 3a d0 00 92 3b
       0.0035074532 0.0026093486 0.0018191832 0.0044556633
000050 62 16 f0 bb 08 40 0a 3a fb 91 47 ba ae 96 53 bb
       -0.007326887 0.00052738236 -0.00076130003 -0.0032285857
000060 45 aa 74 3b 8c 22 bb bb 4e bd 83 3b d3 6d 02 3b
       0.0037332934 -0.0057109054 0.0040203696 0.0019901886
000070 45 02 6e 3a 68 13 2b bb b7 d7 9f bb 78 70 1f bc
       0.00090793177 -0.0026104096 -0.00487801 -0.0097314045
000080 07 57 30 3b 5e 02 ea 3b e7 33 09 3c 38 5c 57 3b
       0.002690734 0.0071413955 0.008374191 0.0032861363
000090 11 d9 1e 3c 05 f8 39 3c 61 46 9b bb e4 c9 5f 3b
       0.009695307 0.011350636 -0.0047386144 0.0034147436
0000a0 0d 6b a5 3b 4b 82 7d 3a 79 4e 1d bc a5 22 c0 bb
       0.005048162 0.0009670599 -0.009601229 -0.005863505
0000b0 43 d0 4f bb 89 a7 4c 3b 17 33 fa bb 15 8c e0 bb
       -0.0031709827 0.0031227788 -0.007635485 -0.0068526366
0000c0 ee 39 14 bc ef 1a 4d 3b 45 3f b9 3b bd 83 8d 3b
       -0.009047015 0.0031296571 0.0056532943 0.004318683
0000d0 a0 96 bb 3b f8 a5 d5 3b a3 e0 d0 39 22 39 1e 3b
       0.005724743 0.006520029 0.0003984022 0.002414294
0000e0 57 8a 14 bc f3 c3 3f bb 2b 8b 07 b9 85 cc 81 bb
       -0.009066186 -0.0029261082 -0.00012926447 -0.003961148
0000f0 c1 75 b4 bb 1e dd a8 bb 36 ef 61 3b 61 a8 5a 3b
       -0.0055072014 -0.0051533123 0.0034474856 0.0033364522
000100 0c a9 06 3a 77 a8 04 bb 27 32 0e 3b c4 70 e2 bb
       0.0005136884 -0.0020242014 0.0021697374 -0.0069104154
000110 8b cd 6d bb 92 be 82 3b 29 b1 d2 bb 02 1c d4 3b
       -0.0036285843 0.003990003 -0.0064298105 0.0064730654
000120 a5 72 d3 ba e1 4a e6 3b 01 5b e6 bb ae e7 72 bb
       -0.0016132189 0.007027969 -0.0070298915 -0.0037064361
000130 07 72 9f bb 05 d5 8b 3b 96 af ce bb a3 8f 7f bb
       -0.004865888 0.0042673373 -0.0063075526 -0.0038995526
000140 04 32 8c bb 2c fd b7 bb 8f fd 97 3b 9b bc 99 3a
       -0.0042784233 -0.0056148972 0.004638381 0.0011729182
000150 13 2a 93 3b a6 60 17 bc 9b d0 0a bc c9 bb cc bb
       0.0044910996 -0.009239351 -0.008472587 -0.0062479717
000160 95 13 f6 3b 26 ef 48 3b 5e 13 d2 3b 76 93 0e bc
       0.0075096586 0.0030660122 0.006411 -0.00870215
000170 ec e7 4b bc d0 fb e3 bb 7a ae c6 ba ee 1c 7d ba
       -0.012445431 -0.0069575086 -0.0015158199 -0.0009655495
000180 e9 55 2d bb 72 6d 54 3b 07 c6 aa bb c5 b7 37 3b
       -0.0026448912 0.0032413867 -0.005211595 0.002803312
000190 82 ce 34 bb 85 77 2a bb e3 7c 60 3b 90 38 64 bb
       -0.0027588909 -0.002601118 0.0034254126 -0.0034823753
0001a0 d2 4d ed b7 38 9a 24 bb d2 09 7c 39 2d 5a be 3a
       -2.828884e-05 -0.0025116336 0.00024036251 0.0014522724
0001b0 52 ee f0 3b 6f 89 ac 3b 9a d7 b6 3b 9b 8e 2c bc
       0.0073526287 0.005265407 0.005579901 -0.010532047
0001c0 44 6d 70 3b 64 80 ea 3b 18 4d ad 3b d9 11 0e 3c
       0.003668622 0.0071564186 0.0052887313 0.008671247
0001d0 73 07 37 3a e3 df 64 3b d6 46 8f bb f0 cf c1 39
       0.0006982006 0.0034923486 -0.004372458 0.00036966754
0001e0 e8 be be 3b 85 61 63 bb d4 a3 e0 3b a0 ce bd bb
       0.0058210976 -0.0034695577 0.0068554673 -0.005792454
0001f0 62 32 0a bc 33 2d 79 3b 5e dc b4 3b f7 24 be 3b
       -0.008434864 0.0038021326 0.005519434 0.0058027464
