Training/checkpoints/wind_pressure_200_5/mlp/model_40.pth (torch, 132355 bytes, 17 tensors)

pos_encoder.0.weight f4 [24, 1]
00000000: b463 493e eb43 933b a463 65bf 853e 49bf
00000010: 7749 54be b285 72bf 26b6 e23e 82b0 07bf
00000020: 4e06 5b3e 8ba6 58bf f5db bfbd 7e2f 77be
00000030: cb83 d0bd 745b 443d 25fe 1ebf d24d 193e
00000040: 5016 8e3e 551b 273e 4778 523e d828 75bf
00000050: 8662 13be a430 44bf 9bbb 33bf 6614 5fbd
0.1966694 0.0044941804 -0.89605165 -0.7861102 -0.2073115 -0.9473525 0.44279593 -0.53003705
0.21389124 -0.84629124 -0.09368125 -0.2413921 -0.101813875 0.04793878 -0.62106544 0.14971092
0.27751398 0.1631902 0.20553695 -0.9576545 -0.14393052 -0.7663672 -0.7020814 -0.054462813

pos_encoder.0.bias f4 [24]
00000000: c181 5a3f 86dd 8e3e ca11 253f 6ecf 0fbd
00000010: 145e 12bf 421c 513f d4de 183f 1091 353f
00000020: cd6e 143f cee3 263f 22eb 10bf f741 8d3d
00000030: fe2c 2f3f 157a fc3e b364 47bf b71c a73e
00000040: 148c 6d3f a563 44bf aa89 32bf c84d 013e
00000050: 5750 ad3e 051c 2ebf e06b 63bf 0c0b 543e
0.8535424 0.27903384 0.6448027 -0.03510993 -0.571748 0.81683743 0.5971501 0.7092447
0.5798157 0.6519135 -0.56608784 0.068973474 0.6842803 0.4931189 -0.7788803 0.32639095
0.9279187 -0.76714545 -0.6974131 0.12627327 0.33850357 -0.68011504 -0.8883648 0.20707339

pos_encoder.2.weight f4 [48, 24]
00000000: 6269 83be 50ac a1be 4d08 07be e305 b4be
00000010: c9e8 c33e 249e 843e d149 1dbe 4d66 443c
00000020: 96f3 733e 5c41 ed3e 38ed debe 97b1 a53c
00000030: ede6 1abe 6c6d ffbd 33a1 d1bb 6ef9 efbc
00000040: 11b9 adbe 2cfb 753e 9c79 d83d b6f0 50be
00000050: 742c a53e 850d 80be 5673 16be 883c b2bd
00000060: 7e93 dcbd cb60 a8be 27a8 dfbe 719a 5d3e
00000070: a069 e8bd 2844 c43e 3fe2 b53e 6833 223e
00000080: f661 ec3d c6c5 b63a 6966 b93e 4bb8 863e
00000090: 3c00 ca3e dd49 a33d c6df 8fbe aa22 b0be
000000a0: f793 40be a064 883e 0972 e13e c2ee 0b3e
000000b0: 2735 9cbd cca1 33be 5fe6 1b3e b2e3 9ebe
000000c0: a585 b5be 6dc8 863e a246 92bd cdf8 eebe
000000d0: c21b e73e caf4 dabe 4996 683e cde1 853e
000000e0: ea16 c33c eabd 513e 7da2 1ebe 2c7c 2ebe
000000f0: 6a9b 4dbe bfca 95be ffce f53e 6131 85be
00000100: 27b4 b6be 90bd d73e 690e 07be 1a3f abbe
00000110: 68c8 843e f846 abbe 9419 ec3d d24a c73e
00000120: a8f4 7d3d 3469 363d f3d3 e23d de0b fbbe
00000130: c24d 913e d789 a8be 897e bc3e 7004 9039
00000140: ab2c a3be dc2c 02bf d594 39be d168 09be
00000150: 739e 24be c099 c43d facb bb3e 7288 2fbe
00000160: be60 a8be 0c98 9d3e 3035 35be 12c9 233d
00000170: 6362 c43d 4dd5 abbd 27fe e83d 7625 98be
00000180: 7917 eabd fc77 303e db5e 62bd 16e5 d53e
00000190: cc4a a0be 44fb d23e b7bc aabe d172 723d
000001a0: ec1b 98be 4771 3cbe 97e9 9bbd c0d6 1b3e
000001b0: 41f5 823e 5379 98be e21b 07be c8d6 e9be
000001c0: fb45 85be 036b b2be 5edb 513d 7f9d 60bd
000001d0: 4a30 f53e 3cbf 3dbe b000 7dbe b8d3 acbe
000001e0: ad89 3b3d 5581 a9be 47c9 a03e a9f0 353e
000001f0: 70fc 513e 0eea a23e 4d57 d03e 9090 eb3e
00000200: 644e 3ebe ad4a cfbe bbb3 8ebe f842 ce3e
00000210: f438 bdbd 9f0a 523e 997b 0dbe 2738 6dbe
00000220: bada babe b3ff c63e 6858 193e 51f7 08be
00000230: dd36 25be 361e 1b3e 98c1 aa3d 4acc 01bf
00000240: e0e6 c53e 6657 eabd 7a93 6b3e 3626 3d3e
00000250: 661a e6be 76ed 5ebe 7c10 db3e edfd a0be
00000260: 53cd c93e f62c b9be ee94 873e bd7b bcbe
00000270: ba06 453e 174e b23e ad40 313e c2e3 0cbe
00000280: 9ea0 11be ee1d f5be ecd4 593d 30c7 6b3e
00000290: 1469 34bd 9a1d a4be c17b 0cbe b16e 60be
000002a0: 27ad d43d bad3 a03e 32ed e8be ec39 7cbe
000002b0: 8478 9b3e 0971 12be 9659 20be ea7b a6be
000002c0: 9594 7bbe 8ae8 b03e d490 a63e c433 7e3e
000002d0: 15b4 a43e 8519 3d3e 1bb3 633e 0201 da3e
000002e0: 753c f43e e71b 5b3e d946 bcbe 5d0b 91be
000002f0: aff0 2e3d 14ef 3d3e 8bc3 04be 1969 31be
00000300: 90ab 013e 4a45 bb3e 4b03 d2be 5e13 983d
00000310: b235 6b3e 2fa5 0bbd 8209 8b3e 12c1 01be
00000320: b518 ebbe ef24 28be e022 d23e 67dc 853e
00000330: c877 c6be 23d9 4f3e 694b debe e6b4 dfbe
00000340: bb67 ef3e 0550 7f3e a1bf 13be ca8d 613e
00000350: 66aa d13e e83a 3d3e c326 f43e 00d1 e2be
00000360: 68b2 263d 6d19 d1be 47d9 ed3e 10e8 2abd
00000370: 507d 1d3e 57b0 613d e81f f9bd d09f bd3e
00000380: 2e49 dbbe dfa0 313e c7be 543e 8fd0 d3be
00000390: c458 1bbe 5960 c7bc 5057 f4bd b3db 31be
000003a0: 3974 b83e 67c6 9dbe 3282 2dbc a4a0 613d
000003b0: f6fe dfbc 60e2 c9be 7e48 c43e 164d b5be
000003c0: a4f8 8cbd c703 f2be a2bb 813e a7aa e23e
000003d0: ce62 f5be f8fc 283e 924e c73e 28ce 43be
000003e0: 54d9 1a3e 604d aabe 00e1 84bc 6fa7 123e
000003f0: af5e 6c3e 7a0f 8cbe f91b 8dbe 9b1b b63e
-0.25666338 -0.31576777 -0.1318676 -0.3516074 0.38263538 0.25901902 -0.1536019 0.011987281
0.2382339 0.46338928 -0.4354036 0.020226283 -0.15127154 -0.124720424 -0.0063973903 -0.029293742
-0.33930257 0.24021596 0.1057007 -0.20404324 0.32260478 -0.25010315 -0.14692435 -0.08702952
-0.107703194 -0.32886347 -0.43682978 0.21640946 -0.11348271 0.3833325 0.35524175 0.15839922
0.11542122 0.0013944439 0.36210945 0.2631248 0.39453304 0.07973073 -0.28100413 -0.34401447
-0.18806444 0.2663927 0.44032314 0.13665298 -0.076273255 -0.1754219 0.15224598 -0.31033093
-0.35453525 0.26324788 -0.071423784 -0.46674195 0.45138365 -0.42764884 0.22713579 0.26148835
0.023814637 0.20482603 -0.15491672 -0.17039555 -0.20078817 -0.29256245 0.48009488 -0.26014236
-0.3568432 0.42136812 -0.13189091 -0.3344658 0.25934148 -0.33452582 0.11528316 0.3892427
0.0620009 0.044533923 0.11075582 -0.4903249 0.28379637 -0.32917663 0.3681529 0.00027469127
-0.31870016 -0.508497 -0.18123181 -0.1341889 -0.16076069 0.09599638 0.3667906 -0.17141894
-0.32886308 0.30780065 -0.1769607 0.039986677 0.09589078 -0.08390293 0.11376601 -0.2971608
-0.11430258 0.1723327 -0.055266242 0.4177634 -0.31307065 0.41207325 -0.33347103 0.05919153
-0.29708803 -0.18402587 -0.07612913 0.1521864 0.2557774 -0.29780063 -0.1319423 -0.45671678
-0.26029953 -0.34847268 0.051234595 -0.0548377 0.47888404 -0.18529981 -0.24707294 -0.3375528
0.045785595 -0.33106485 0.31403562 0.17767586 0.20506454 0.31819195 0.40691605 0.4600873
-0.18584591 -0.4048666 -0.27871498 0.40285468 -0.092393786 0.20511864 -0.1381668 -0.23165952
-0.36495 0.38866958 0.1497513 -0.13375594 -0.1613421 0.15148243 0.08337706 -0.50702345
0.38652706 -0.11442451 0.23005477 0.18471608 -0.44942015 -0.21770272 0.42786014 -0.3144373
0.39414462 -0.36167115 0.26480812 -0.36813155 0.19240847 0.34825203 0.17309828 -0.13758758
-0.14221427 -0.47874397 0.053181574 0.23025203 -0.044045523 -0.32053834 -0.13719083 -0.21917225
0.10384589 0.31411535 -0.45493466 -0.2463147 0.30365384 -0.14300932 -0.15659174 -0.32516414
-0.24568398 0.34552413 0.3253237 0.24824435 0.32168642 0.18466766 0.22236292 0.42578894
0.47702375 0.21397363 -0.36772802 -0.28328982 0.042710003 0.18548232 -0.12965219 -0.17325248
0.12663102 0.365763 -0.41018137 0.07425569 0.22969702 -0.03409308 0.2715569 -0.12671307
-0.45917287 -0.16420339 0.41042233 0.26144716 -0.3876326 0.20297675 -0.43416908 -0.43692702
0.46758828 0.24932869 -0.1442857 0.22026744 0.40950316 0.18479502 0.47685823 -0.4430008
0.040697485 -0.4083971 0.46454832 -0.04172522 0.15379834 0.05509981 -0.12164289 0.3703599
-0.4282927 0.17346524 0.20775901 -0.41370055 -0.1517058 -0.024337934 -0.11930716 -0.17368965
0.3602617 -0.3081543 -0.010590123 0.05508484 -0.027343255 -0.39430523 0.38336557 -0.35410374
-0.06883362 -0.47268507 0.25338465 0.44270822 -0.47926944 0.1650275 0.38927132 -0.19121611
0.15121967 -0.33262157 -0.01622057 0.14321683 0.23082994 -0.27355558 -0.27560404 0.35567936

pos_encoder.2.bias f4 [48]
00000000: fcc4 dabe 4d82 33be 7b10 3fbd a63c efbe
00000010: 2810 413e 2aa1 643e ecb9 993e d63f bdbe
00000020: 1c64 773e a0fa 21be 68d8 cb3d 4519 663d
00000030: c0d9 03bd 8dff cd3e 56db c0be 9756 73be
00000040: a7c9 1a3e 5751 e73e f221 fa3e c21a c1be
00000050: 6c55 fe3e c60e 9dbe 4c5f 3cbe 5c06 35be
00000060: b478 423d 0c41 babe 6853 013e 5baf 6e3e
00000070: 176f 9c3e f0fe 453e 284c e8be d100 8a3e
00000080: 6f74 8ebd 73f3 8cbe cc92 7a3e f516 73be
00000090: 5d04 b1be a2bb 69be 20ed c9be f51e ebbe
000000a0: 2e3c 9cbe f468 e2bd b31d cabe 5e83 c53e
000000b0: 8160 8d3e 8046 ba3e b995 dc3e 4ab6 93bd
-0.42728412 -0.17530175 -0.046646576 -0.4672596 0.1885382 0.22327104 0.3002466 -0.36962765
0.24159282 -0.15818262 0.099533856 0.056176443 -0.032190084 0.40234032 -0.3766734 -0.237635
0.15115987 0.45179245 0.48854023 -0.37715727 0.49674547 -0.30675334 -0.18395728 -0.17678207
0.047478393 -0.36377752 0.12629473 0.2330908 0.30553505 0.19335532 -0.45370603 0.26953748
-0.06955802 -0.27529487 0.24470061 -0.23739226 -0.3457364 -0.22825482 -0.39438725 -0.45922056
-0.30514663 -0.110551745 -0.39475784 0.38576788 0.2761269 0.36381912 0.4308298 -0.07212503

pos_encoder.4.weight f4 [96, 48]
00000000: b11f 383e 7ae7 cbbd 8778 0a3e ccd7 fd3d
00000010: ce56 293e 5dba 703e dd81 2f3e 353b 0a3d
00000020: 019d 163d b5c5 55bc b1c5 2cbe 4ec8 aabe
00000030: f497 d53d b7fb e43c cd21 79be 1f4d 943d
00000040: 3573 bc3d 0f5d 1e3e e86e 1c3e 1382 93be
00000050: a950 be3d 9394 263e 9281 533d 78f7 163d
00000060: 382b 3ebe 0f3a a73e e8a2 d03d 8853 fd3d
00000070: 9a44 ebb9 b3f7 40bd fa61 25be e9e5 5cbe
00000080: 958b 2fbe 378c 18be 2d4d 413e d56b 8cbe
00000090: dd4c a03e 0b68 d33d a18a 58be 4fc2 243e
000000a0: ce39 74be d4a6 a63e 3d92 423b 1a13 5c3d
000000b0: 59d9 4abe 23a8 03be df55 0ebd 4714 8b3d
000000c0: b8b3 d63d 3451 20bd c593 1ebb 9a15 85be
000000d0: d632 54be 8978 fe3d 8b24 413e dd52 91be
000000e0: 6ce1 5d3e 5883 153d 734b 55be e1f5 8d3d
000000f0: cbb2 1f3e c6b7 643d 80f4 5abd 547e 853d
00000100: d6cf a8bd 0dc4 81be 7d02 aabe 6b22 ebbd
00000110: be88 f4bd 8b1f 2dbe 5efc 84bd dfd2 1f3e
00000120: e5b5 9dbd a30e 753e b7e2 8d3e e725 a3be
00000130: d05f 37be d274 f63c e303 81bc c453 9c3b
00000140: 1eac 463d 08a3 59be 91a6 a53e b393 453e
00000150: bb76 cf3d 234f 993e 3429 a0be d870 0cbe
00000160: f28d aebe 7fee c33d bcf6 2c3e 57cb a7be
00000170: dce2 143e 2898 53be 6d0a 973e a461 9cbe
00000180: d704 8cbe 174b c5bc f89c 6dbe c249 8c3e
00000190: 501c 333e 561e a1be 75c6 a53c fd4f a63b
000001a0: 298a 283c 2c18 9a3e 209d a0bd 83ec 8fbe
000001b0: 86e4 81be 54c7 24be d854 8d3e 7ae5 9b3e
000001c0: 06f7 9c3e 3d86 c2bd 1d9e a6be 667f 94be
000001d0: 1614 913c 3d13 a63e 7297 98be bf19 7ebe
000001e0: bd67 46be ecbd 35be 987f 61be d2c2 c03d
000001f0: 9cc5 fdbd ade5 64be 172d 08be 57ea a9be
00000200: 8c2c 78be 2637 f63d 9688 0f3e 1e86 a2be
00000210: dfd5 df3d 596b 823e 75d0 a23d be60 993e
00000220: 23db edbd 26a7 f43c dcc9 0cbe 57dd 893e
00000230: b999 a73c 72fc 6cbe 097b f53d 3b5c 5bbe
00000240: 2fb9 a73e 07a8 bdbd 7b80 4a3b 4e5c 21bd
00000250: f57a ee3d d860 6ebe 6257 473e f1fa 61be
00000260: 544e cdbd 3732 0abe 0804 74bd 5fd8 0c3e
00000270: 9352 333e 0ca6 773e 3431 953e 3fde acbe
00000280: 9f0c b0be 3f69 0abe 5a64 77be e799 98be
00000290: 913b cdbd d16e e13b e71a f8bd 9471 803c
000002a0: e438 4bbe c8af f5bd 1b30 3bb7 6bc0 7b3c
000002b0: 0529 d73d 9df3 e7bd 836a 503d a602 5e3e
000002c0: 9560 a23e 8af7 41bd 84f0 09be 4283 043e
000002d0: a2db 213e e56f a2be 5052 2ebe 6894 013e
000002e0: 5933 3c3e 6520 10be 2f8f 85be 9023 79be
000002f0: 40ff 02be a616 843e 5f3f adbe ba6e a03e
00000300: d33e 533e c285 633e 51d3 7bbe 0665 55bc
00000310: 1c47 adbe 5ebe 893e 7712 b23c 9d30 893e
00000320: f443 81be 4927 513d 8836 86be 1033 763b
00000330: 9c32 443e d4c1 a23e 6738 863c 210b 36be
00000340: b069 a6be dff2 fe3d 7612 de3d edbe 463d
00000350: 31bd 383d 3ffe 7f3d dd84 a93e ba35 4bbb
00000360: 05ca 54be c498 7fbd 08a6 f4bd 0dfb 9b3e
00000370: 5f77 243e e315 a8be 26d0 0b3e 8e3f 873e
00000380: 6d66 6e3e 352a 3b3e b6ff 42be 9d55 e0bc
00000390: 77d7 493e 333e 8e3d 997e 9c3e b18c 1ebe
000003a0: 7305 afbe e78c 9b3e e7de 02be 02d1 8dbc
000003b0: edb6 5fbe e6f3 8b3e 7634 fdbd 3a34 a23e
000003c0: f63d 82bd 1083 4dbe 59aa 193e 41e4 43be
000003d0: 923c c0bd 0dc8 fb3d bd34 e3bd cba0 7c3e
000003e0: 5d76 3fbe a97d 523e cf7f 87bd dafa 393e
000003f0: 6521 e03c 0b67 b0be b80f a83e 3eca 023e
0.1798084 -0.0995626 0.1352254 0.123946756 0.1653702 0.23508592 0.17139383 0.03374787
0.036770824 -0.013047625 -0.16872288 -0.33355945 0.104293734 0.027952058 -0.243293 0.07241272
0.092016615 0.15465187 0.15276682 -0.28810176 0.092927285 0.16267614 0.05163724 0.0368571
-0.18571174 0.32661483 0.10187322 0.12369448 -0.00044873805 -0.047111224 -0.16150656 -0.21572079
-0.1714309 -0.14897238 0.18877096 -0.2742602 0.31308642 0.10322579 -0.21146633 0.16089748
-0.23850176 0.32549155 0.0029689216 0.053729154 -0.19809474 -0.12857108 -0.03474986 0.06790977
0.104834974 -0.03913994 -0.0024196964 -0.25993043 -0.20722517 0.12425334 0.18861596 -0.28383532
0.21668023 0.036502212 -0.20829563 0.06931663 0.15595548 0.055839323 -0.05345583 0.06518236
-0.082427666 -0.25344887 -0.33205023 -0.11481174 -0.11940144 -0.16906564 -0.06493448 0.15607785
-0.07700709 0.23931365 0.27712032 -0.31864855 -0.17907643 0.030085001 -0.015748924 0.004770728
0.048503987 -0.21253598 0.32353643 0.19294624 0.10130068 0.2994319 -0.31281435 -0.13714921
-0.3409267 0.09566974 0.16890997 -0.32772323 0.14539665 -0.20663512 0.29500142 -0.30543244
-0.27347443 -0.024083657 -0.2320441 0.27400023 0.17491269 -0.31468457 0.020236233 0.0050754533
0.010286846 0.30096567 -0.07842469 -0.28110132 -0.25369662 -0.16091663 0.27603793 0.30448514
0.30657214 -0.0949826 -0.32542506 -0.29003447 0.017709773 0.32436553 -0.29803044 -0.24814509
-0.1937551 -0.1774823 -0.2202133 0.09412159 -0.123912066 -0.2235324 -0.1329845 -0.331866
-0.24235743 0.120222375 0.14016947 -0.31742948 0.109294645 0.25472525 0.07949916 0.2995662
-0.11614063 0.029864859 -0.13748878 0.2692668 0.020459043 -0.23143175 0.11986358 -0.21421902
0.3275847 -0.09260564 0.0030899334 -0.03939467 0.11644546 -0.2327913 0.19466928 -0.22068383
-0.100247055 -0.13495718 -0.059574157 0.13754414 0.17511968 0.24184436 0.29139102 -0.3376331
-0.3438463 -0.1351671 -0.24159375 -0.29804918 -0.10021127 0.0068796654 -0.12114506 0.015679158
-0.19845921 -0.11996418 -1.1157269e-05 0.0153657 0.10505871 -0.113257624 0.050882827 0.21680698
0.3171431 -0.047355212 -0.13470656 0.12940696 0.1580644 -0.31725994 -0.17023587 0.12654269
0.18378963 -0.14074858 -0.26085803 -0.24329972 -0.12792683 0.2579853 -0.3383741 0.31334478
0.20629434 0.22218993 -0.2459233 -0.013024574 -0.33843315 0.2690305 0.02173732 0.26794901
-0.25247157 0.051062856 -0.2621348 0.0037567057 0.19159931 0.31788504 0.016384317 -0.17777683
-0.32502508 0.12448668 0.10843365 0.048521925 0.045102302 0.062498327 0.3310918 -0.0031007365
-0.2078019 -0.062401548 -0.119457304 0.30464974 0.16061161 -0.32829198 0.13653621 0.26415676
0.2328126 0.1827782 -0.19042858 -0.027384574 0.197111 0.06945457 0.30565336 -0.15483357
-0.34183845 0.30380937 -0.12780343 -0.017311577 -0.21847124 0.27334517 -0.12363522 0.3168047
-0.06359474 -0.20069528 0.15006389 -0.1913004 -0.09386553 0.12294016 -0.110940434 0.24670713
-0.18697496 0.20555748 -0.066161744 0.18162099 0.027359674 -0.34453616 0.32824492 0.12772462

pos_encoder.4.bias f4 [96]
00000000: 08b6 06be 014a 093e 9619 8dbe bf48 3dbe
00000010: a190 283e 41cb adbe a38c b0be 7752 6d3e
00000020: 10b7 8dbd b476 ee3d 532e b2be 3cc2 06be
00000030: f6e8 153e 7ffc 4a3e d142 d3bd 4c14 cfbd
00000040: 6651 1a3b 4cbf 38be 1039 ff3c 9ef5 48be
00000050: 3d4f 39be f678 a63e b5cb 9b3e 448a a2be
00000060: 9082 9d3e cbfd 333e 7b0a 1abe 24be 9d3e
00000070: da79 98be ed65 d9bd 8f34 aa3e 9df1 a7be
00000080: ba0e ccbd ef78 0a3e 814c 393e 7e94 653e
00000090: 035d 50be da63 94bb 45dc 5f3e 3a6f fe3d
000000a0: 49ed 96be ad63 773e b3f5 babd 121c 893e
000000b0: 31d1 f2bd 9ea6 52be 02d5 053e 7342 20bc
000000c0: 978f e63d 865b 40bc c3f5 f7bd dbdc 92bd
000000d0: 2f30 4bbe bcb9 a3bd daf9 8fbe b2a2 cfbd
000000e0: 9974 983e e7df d4bd d9c3 9ebe 80f4 ebbd
000000f0: a6b8 fdbd 203c 2d3d 3daa b43c 4a4e 873e
00000100: 8f92 4f3e 2e61 cd3d 20ff 03be 97ff 9dbe
00000110: c21f 6bbd 8a66 86be ca4c 6d3e 53e3 d93d
00000120: c960 863e 3d96 5cbe 6c68 813e 9ebd ca3d
00000130: c245 8c3e f308 09bd 57fa f23d 5ed9 2e3e
00000140: ba8e 323d 9eaa 103e 47ac 3e3e 9560 063e
00000150: f9f0 283e 524f a13e 645b f5bd dc35 8abe
00000160: b4b1 02be f517 16bc f3a0 94be 4c35 0c3e
00000170: 409a 823e 19a8 97bd 2117 5fbe 3ab1 a73e
-0.13155377 0.13407136 -0.27558583 -0.18484782 0.16461422 -0.33944133 -0.34482297 0.23175989
-0.06919682 0.116437346 -0.34800968 -0.13160032 0.14639649 0.19822882 -0.103154786 -0.10111293
0.0023547052 -0.18041724 0.03115514 -0.19624946 -0.18096633 0.3251416 0.30428854 -0.31746113
0.30763674 0.17577283 -0.1504306 0.30809128 -0.29780465 -0.10615144 0.33243224 -0.32801524
-0.09963746 0.13522695 0.1809559 0.22419927 -0.20347981 -0.004528505 0.2186137 0.124235585
-0.2947791 0.24159117 -0.09128895 0.26779228 -0.11856306 -0.20571372 0.13069537 -0.009781468
0.11257856 -0.011740571 -0.12107422 -0.07171031 -0.198426 -0.079944104 -0.2812031 -0.101384535
0.29776457 -0.103942685 -0.31008795 -0.11521244 -0.123887345 0.042293668 0.022053832 0.26426917
0.20270751 0.10028301 -0.12890291 -0.30859062 -0.057403333 -0.26250106 0.23173824 0.10639062
0.26245716 -0.21541686 0.2527498 0.09899448 0.2739697 -0.0334558 0.11864155 0.17075107
0.043593146 0.14127585 0.18620406 0.1312278 0.16498174 0.3150583 -0.11980322 -0.26994216
-0.12763101 -0.009160985 -0.29029045 0.13692206 0.25508308 -0.07405109 -0.21786167 0.327524

fc_encoder.0.weight f4 [8, 14]
00000000: 6882 a4bc a18b 83bb 66d2 a6bc 6b3f 46bd
00000010: 8d09 8d3d dea3 1d3d 8405 c3ba 467b 5a3d
00000020: 3a6d 1f3b c3c6 643d de64 1b3d bc20 a8bb
00000030: ea19 64bc 5f0a a0bc 70a0 0a3d d9d7 00bc
00000040: ea20 54bd 7c59 893c 67e6 443c 4cac 153d
00000050: 34c7 193d 21fe 043d 68d0 9c3c 7f63 dcbc
00000060: 0cae 8d3d 78be 493b e43a 8b3c ff89 8abc
00000070: 2339 183d d05b d73c 1451 2bbd 345d 32bd
00000080: 4db5 0d3c ea27 903c 566c ea3c 9be0 9a3c
00000090: 3ae4 083d f074 aebc 3d82 9e3a 9107 d9bc
000000a0: f383 e9bc 457e db3c 189d ecbb 24ca 183c
000000b0: ced1 c43a f542 103c ce17 ebbb b5bb 3f3c
000000c0: a54f 9dbd 8e64 82bc 195b 02bb 6b52 d33b
000000d0: 6434 793b 857a 35bc 8f5e 1ebc 965f 81bd
000000e0: f7f6 1abb 02cc 1abb 1968 17bb 8830 1ebb
000000f0: a920 23bb 953d 20bb 18f8 0ebb 5671 1cbb
00000100: f966 1ebb 95f0 24bb dfb4 16bb 7b88 1dbb
00000110: 85fa 16bb 924f 1ebb 2827 3bbd 1539 22bd
00000120: 4d9b 3a3d 560f 01bc d38f 8bbc f6ac 283d
00000130: 1d6d 1db8 659f 9f3d ed7d dfbc b56e 2c3c
00000140: 82e7 0d3d f5e4 70bd 37db a33c cae1 2d3c
00000150: 28d8 43bd 1de7 5c3b 4159 e8bc e027 03bd
00000160: db8e 1fbd bb6f a73c 42f7 2c3d 6631 35bd
00000170: a485 163d 7b8b 2b3d 0cfc 9ebc c990 f4bc
00000180: e6f0 bbbc 44e3 18bd 8a7a fdbc 6774 473c
00000190: 4f24 653d 416f 2ebc c35c 06bc 43f7 03bd
000001a0: 8ac5 5a3d 210b fcbc d5c2 35bc 8f7e f73c
000001b0: c4ee 87bd 40e5 5fba 6365 54bc 494c 9d3c
-0.020081714 -0.004014448 -0.020363998 -0.048400324 0.06886587 0.038486354 -0.0014878963 0.05334022
0.0024326579 0.055853616 0.03793799 -0.0051308554 -0.013922194 -0.019536195 0.03384441 -0.007863962
-0.0517892 0.016766302 0.012017823 0.03654127 0.03754349 0.03246892 0.019142345 -0.026902912
0.069179624 0.0030783694 0.016995855 -0.016911505 0.037163865 0.026288897 -0.04182537 -0.043545917
0.0086491825 0.017597158 0.028616112 0.018905928 0.03342078 -0.021295995 0.0012093257 -0.026492866
-0.028505301 0.026793608 -0.0072208755 0.009325538 0.001501614 0.008805026 -0.0071744686 0.011702468
-0.076812066 -0.015917089 -0.0019890724 0.006449034 0.0038025612 -0.011076574 -0.009666099 -0.0631706
-0.0023645738 -0.0023620133 -0.0023102819 -0.0024137814 -0.0024891293 -0.0024450768 -0.0021815356 -0.0023871264
-0.0024170263 -0.0025167812 -0.0022995991 -0.0024037648 -0.0023037505 -0.0024156314 -0.04569164 -0.03960522
0.045558263 -0.0078771915 -0.017036354 0.041180573 -3.7533337e-05 0.07794074 -0.027281726 0.0105244415
0.03464461 -0.0588121 0.02000199 0.010612914 -0.047813565 0.003370709 -0.028362872 -0.03202045
-0.038954597 0.02043902 0.04222799 -0.044236563 0.036748543 0.041881066 -0.019407295 -0.029854195
-0.022942018 -0.037326112 -0.03094222 0.012173749 0.05594283 -0.010646642 -0.008200827 -0.03221823
0.053411044 -0.030767025 -0.011093815 0.030211715 -0.06637338 -0.0008540936 -0.012963626 0.019201415

fc_encoder.0.bias f4 [8]
00000000: cb24 913d 97d4 053d 2ca1 78bd 7d18 1dbd
00000010: e446 84bd 17d4 213d e736 213b 3409 703d
0.07087096 0.032673445 -0.06070058 -0.038353432 -0.06458834 0.039508905 0.0024599375 0.058602527

fc_encoder.2.weight f4 [16, 8]
00000000: ef43 16bd dcac 5b3e 5272 513e 8b4a d03d
00000010: 6578 743f 0446 28be cc18 a93d 5fc1 d93c
00000020: 531b adbc 3f11 3a3c 230d 6d3e 6f83 1fbd
00000030: 4261 013f 3799 db3e 636f 803e 809a 973e
00000040: 3614 92be 2517 bfbe 6a61 09bf 2c40 f63d
00000050: 1e2c e43c 6ece fb3e 15ce a83d c618 c03e
00000060: 7e4b 833e ec88 0e3d 6f59 263e 9453 dbbd
00000070: b51a a43c b533 a83e 1fdb 193f 4ec6 9ebe
00000080: 839b a93d 992f 25be b22e 5fbe 9b54 54be
00000090: d207 97be a422 873e 5848 23bf 5d37 c8bd
000000a0: a6ce 84be c0ed 863e d438 fabd 8535 193e
000000b0: a3b4 273f 68f4 88be 3a80 d3be c128 143f
000000c0: a0b1 3dbd ac0a 0abf 9432 313e 6977 543d
000000d0: cbfa 1fbf 35cc f33e 6f44 3a3f 203e 00be
000000e0: 808b adbe 28dd a53d a3ca a13e dfec 3ebd
000000f0: 24b4 20bf 4014 643e 61b6 393d afff c43e
00000100: c04b f03d b602 b73e 2e64 d13a ec57 82bd
00000110: be4c 07bf 9a93 79bc 30c5 eebe 74e0 923d
00000120: 5b60 a1bd 1d29 b1be 58ef 063f 9546 55be
00000130: 86f7 2d3e b36c 1d3f d633 813e 6410 cb3e
00000140: 61b2 9dbd 30fe 8abe d67f 89be e737 a03e
00000150: 176c 0c3e 7db0 3f3e 6f38 763e 2caa d2be
00000160: d682 47bc 5883 f33e 9aaa 60be 5069 bd3e
00000170: e7d7 ffbe f487 0bbe 87fa 7c3e a15d 973d
00000180: f09c 9f3e af52 cebc 3b21 f33e 9c37 8dbd
00000190: 2689 24bf 1b75 a93e 2522 5b3e fb8f 733e
000001a0: 83e3 003f 2ad4 02bf 11f1 d23e e2bd 0ebe
000001b0: 7cde 543e 2c2f a53d 7d2d 9f3d d110 2ebf
000001c0: 3842 473e 1f0b d6be b700 ac3e 8e6e 8f3e
000001d0: 3740 1ebf b52f 7fbb e93b 003f f2d1 cdbe
000001e0: 0d1f 7dbe f4fa a13e a158 25be 0db9 a43d
000001f0: 00e7 28bf 7c85 b1be 631f dfbe 8d62 c53e
-0.03668588 0.2145266 0.20453766 0.10170468 0.9549621 -0.16432959 0.08256683 0.026581464
-0.021131193 0.011356651 0.23149543 -0.038943704 0.5053903 0.4289033 0.2508498 0.29610062
-0.28531045 -0.37322345 -0.5366427 0.120239586 0.027853068 0.4918093 0.08242432 0.375189
0.25643533 0.034798548 0.16245054 -0.10709301 0.020032266 0.3285195 0.6009998 -0.3101067
0.08281615 -0.16131438 -0.21795157 -0.207354 -0.29498154 0.26393616 -0.6378226 -0.09776185
-0.2593891 0.26353264 -0.1221787 0.14961822 0.65510005 -0.26748967 -0.41308767 0.57874686
-0.046311975 -0.53922534 0.1730445 0.05187169 -0.62492055 0.47616735 0.7276067 -0.12523699
-0.33895493 0.08098823 0.31599912 -0.046612617 -0.6277487 0.2227335 0.045339946 0.3847632
0.11733198 0.35744256 0.001597529 -0.06364426 -0.52851474 -0.015232945 -0.46634817 0.07171717
-0.078797065 -0.3460168 0.5270896 -0.20827706 0.16988954 0.61493987 0.2523486 0.39660943
-0.07700039 -0.27147055 -0.26855344 0.3129265 0.13713108 0.18719669 0.24044965 -0.41145456
-0.01217719 0.47561145 -0.2194008 0.3699441 -0.49969408 -0.13626081 0.24704944 0.07390905
0.3117442 -0.025185911 0.4748629 -0.06895372 -0.6427177 0.33097157 0.21399744 0.23785393
0.50347155 -0.51104987 0.41199544 -0.13939622 0.20787996 0.08065638 0.07772348 -0.6799441
0.19458854 -0.4180536 0.33594295 0.28014034 -0.61816734 -0.0038938348 0.50091416 -0.40199238
-0.24718876 0.31636775 -0.1614709 0.08043108 -0.6597748 -0.34672153 -0.43578634 0.3855175

fc_encoder.2.bias f4 [16]
00000000: 792c 3bbe 5c2d 8fbe 0f1a 05bf 7cc9 493f
00000010: 2ece 123f b4ba ba3e d06a 4abf f356 503e
00000020: 2e96 3e3f 9521 2fbf fcf2 fbbd a441 c53e
00000030: 7e7b 58bd cd9c 0ebf 9894 e03e a465 febe
-0.18278684 -0.27964294 -0.5199289 0.78823066 0.57345855 0.36470568 -0.7906923 0.20345668
0.74447906 -0.6841062 -0.12302205 0.38526642 -0.052852146 -0.5570801 0.43863368 -0.4968692

fc_encoder.4.weight f4 [32, 16]
00000000: 284f 873e e1ec cf3e 8dbf 513e 7b56 1c3e
00000010: 62ff f0bd fc32 f9bd 4b8e a93e 790b 60be
00000020: b436 ef3e ae7c aebe 3794 913e 4569 b33e
00000030: cb88 8fbe e3cb 123f 9914 823d 85d2 4f3e
00000040: e221 533d 983e 8ebc ad99 abbe 9901 2a3e
00000050: 924e 203e 581f 80be 2938 81be 3fe3 ac3e
00000060: 404b 0b3f c2c6 e83d b523 d73e fabe 2abe
00000070: 36f3 0cbf ab5e 883e a0cb 07bf 3d36 9abe
00000080: 4579 9c3e 4424 343e acf5 b73e 42d0 bd3e
00000090: 1f84 5f3e d5bb 9e3e 127d 91be f12b c8be
000000a0: 74e3 c4bd 0b5b 0a3e 02b5 d0be be77 e9be
000000b0: 6979 d2be d98c f8be 3c86 de3e 1941 823c
000000c0: 34f7 823e 41ac 853e 1afc 4d3e 9bfd 403c
000000d0: 5c1a 77be a120 91be f86c a8be 73cd 01bf
000000e0: 202a b5be fae7 0cbf bec9 9b3d 1c44 b4bd
000000f0: 969b 883e 76b5 10bf aaec 15be 817c bfbe
00000100: f79a da3e 9457 77be 30bf d23e afe8 b4bd
00000110: 7594 c7be 20ee c6bd 6445 dd3e 0e44 1fbd
00000120: e385 eb3e 49f4 bf3d f88a 16be 7a31 61be
00000130: 8ca0 b8bd a640 b5be 0ce0 3dbe a1cb fcbc
00000140: dbf8 9ebe 8335 9abe d9cb 5dbd 524d 293e
00000150: 4e25 f63e 77ba df3e a563 a5bd 8bb7 803c
00000160: 36db efbe 12bd 63bd d01e cf3e a0c4 253e
00000170: a829 133f 3e56 fd3e 8c1d d63d bd33 523e
00000180: 04cd 17be f018 18bf 1f78 f03e 7aeb 81bd
00000190: 795c ba3e 9910 753e 61b0 b1be 57bf bb3e
000001a0: cd3a 0dbf 6d00 043f 951c c9be 8766 c63d
000001b0: cacc d3bd 53c9 263e 3c06 b93e 0a2c 903e
000001c0: f363 a13e d1b0 813e 712b 533e 3722 b33e
000001d0: 554f 93be e639 f5be f5f8 a63e 05a6 8a3e
000001e0: d34e 11bf 73a6 633e 80b8 c63d e05f c53e
000001f0: 9908 f43e f16d f3bc 9d63 e4be 1c0b 8c3e
00000200: 8bdd e3be 0e3b 7f3e 4bf3 9a3d e264 37be
00000210: ceb2 97be 49fe 9d3e 185d 0a3f 6811 afbe
00000220: 9268 023f f979 10bf 8b8c c9be ca6e c1be
00000230: 893d 023f e14e 83be 1543 26be f9be 813e
00000240: 5661 e43e 239f 87be 9644 10be 44d2 a6be
00000250: 0f01 043e 2677 ca3e 62ac 193f 5382 08be
00000260: 8cfc 663e c970 c4bd b154 1abe 4080 ab3d
00000270: 265c 1ebe 921d 5dbe f59c 85be 801c 063b
00000280: 1d13 9b3d bc37 c1be 32c2 fc3d a8cf e2be
00000290: f733 0c3f 6a62 c4be d50c 593e 5d55 b03b
000002a0: c3c4 84be 1b9c 09bf b6d7 31be 0b85 f0be
000002b0: 8e62 0dbe 64b1 21be 4bbc 133f 5e86 e1be
000002c0: 5dff 6dbe 8710 003e 4d5f ca3e 43e9 d73d
000002d0: 037f dfbe bd3e 0c3f b77f b1be de7d cc3e
000002e0: 4722 e1be 5d15 22be bddf 6c3e 09fa f1be
000002f0: c75e ddbd b79e d93e 967f f13d 7987 f6bd
00000300: 7ca2 163f e281 eebe 764d 7c3e 19f7 d03d
00000310: 50d0 c2be 345f 7d3e 9e1a c6bd 99c1 e73e
00000320: ff4f 0fbf 02fb f5be 86b0 28bc 0076 81bd
00000330: a8ac b23e d6bc 433e 9750 cd3e 34a1 d03e
00000340: 25b9 033e ee51 07bf f89f b3be 1bb5 b4bd
00000350: fc48 463e f17d a93d 64c3 e13d e9af 05bf
00000360: c5b6 be3e bd79 8f3e f4e9 cbbe f1b5 6e3e
00000370: 204b cabe f952 ecbe 6bed b83e a860 b63e
00000380: 617d 3b3d 478a 803e d387 b0be 7234 873d
00000390: be20 87bd a801 f73e 12bb 8dbd 5b61 c0be
000003a0: e49f 5fbe c97a 513e fbe1 b9be 68d3 94be
000003b0: 86d4 40be cd1c 4a3d 5940 953e 602e 8abe
000003c0: 1614 a4be 2188 82bd 0b9c b1be 83cd 88bd
000003d0: 6f43 91be 5913 89be 193d 8dbe a048 323e
000003e0: ad26 debe 1f3b b13c bd3d f03e 2963 f33e
000003f0: 7602 c03e 9071 8bbe c865 78bd 5d77 a63d
0.2642758 0.40610412 0.20483227 0.15267365 -0.117674604 -0.121679276 0.33116373 -0.21879376
0.46721423 -0.34079498 0.2843339 0.35041252 -0.28034052 0.57342356 0.06351585 0.2029515
0.051545985 -0.017363831 -0.33515683 0.16602172 0.15654972 -0.25023913 -0.2523816 0.33767125
0.544117 0.11366035 0.4201943 -0.16674414 -0.5505861 0.26634726 -0.5304508 -0.30119506
0.3056127 0.17591959 0.3592962 0.3707295 0.21827744 0.3100268 -0.28415734 -0.39096025
-0.09613696 0.13511293 -0.40763098 -0.4559917 -0.41108254 -0.48544958 0.43461788 0.015900182
0.25579226 0.26107982 0.201157 0.011779214 -0.24131149 -0.28345206 -0.32895637 -0.50704116
-0.353837 -0.5504147 0.07606839 -0.08802053 0.26681203 -0.5652689 -0.14641061 -0.37399676
0.42696354 -0.24154502 0.4116149 -0.088334434 -0.3898045 -0.097133875 0.43217003 -0.03888326
0.46000585 0.093727656 -0.1470145 -0.2199153 -0.09014997 -0.35400885 -0.18542498 -0.030858817
-0.31049237 -0.3011895 -0.054149482 0.16533402 0.48075336 0.4369695 -0.08075646 0.01571252
-0.46846932 -0.055600233 0.40453196 0.16188288 0.5748544 0.4947986 0.10454854 0.20527549
-0.14824301 -0.5941305 0.46966645 -0.06343742 0.36398676 0.23932113 -0.3470488 0.36669418
-0.5516785 0.5156315 -0.3927962 0.09687524 -0.10341795 0.16287737 0.3613757 0.281586
0.31521568 0.25330213 0.2062204 0.3498704 -0.28771463 -0.47895736 0.32611814 0.27079788
-0.567609 0.22231464 0.09703159 0.3854971 0.4766281 -0.02971551 -0.4460725 0.27352226
-0.4450496 0.24924871 0.07565936 -0.17909577 -0.29628605 0.30858067 0.540483 -0.34192967
0.5094081 -0.56436116 -0.39365038 -0.37779838 0.50875145 -0.25646117 -0.16236527 0.25341013
0.4460551 -0.264886 -0.14088663 -0.32582295 0.12891029 0.39544028 0.6002866 -0.13330965
0.22557276 -0.095918246 -0.1507137 0.08374071 -0.1546484 -0.21593311 -0.2609631 0.0020463765
0.07572005 -0.37737834 0.12341727 -0.44299054 0.5476679 -0.38356334 0.21196301 0.00538127
-0.25931367 -0.53753823 -0.17367443 -0.46976504 -0.13807127 -0.15790325 0.5770919 -0.44047827
-0.23241945 0.12506305 0.39525834 0.10542538 -0.4365159 0.5478323 -0.3466775 0.3993978
-0.43971464 -0.15828462 0.23132224 -0.47261074 -0.10809093 0.42503902 0.11791913 -0.12037558
0.5884168 -0.46583468 0.24638924 0.1020338 -0.38049555 0.24743348 -0.096730456 0.4526489
-0.5598144 -0.48043066 -0.010295993 -0.06321335 0.3489735 0.19115004 0.40100548 0.40747988
0.12863596 -0.5285939 -0.35082984 -0.088236056 0.19363779 0.082759745 0.11023596 -0.5222154
0.37248817 0.28022566 -0.3982693 0.23311593 -0.3951044 -0.46157053 0.36118636 0.35620618
0.045773868 0.25105497 -0.34478626 0.066018 -0.06598042 0.4824345 -0.069204465 -0.37574276
-0.21838337 0.20456995 -0.36305222 -0.2906754 -0.18831071 0.049343873 0.29150656 -0.26988506
-0.32046574 -0.06373621 -0.34689364 -0.06679823 -0.2837176 -0.26772574 -0.27585676 0.17410517
-0.43388882 0.021634636 0.46922103 0.4753659 0.37501878 -0.2723508 -0.06064394 0.081282355

fc_encoder.4.bias f4 [32]
00000000: e0ab db3e 2193 c5be 2f9d b13e 929c 8f3e
00000010: 48ee 833e 35ef b73e 1687 bdbe 361a b33e
00000020: fe46 fabe f6b5 8fbe 7120 cf3e 77c7 cd3e
00000030: c729 be3e e380 4abe 1b2b da3d f448 9d3e
00000040: 2aa5 ebbe ba8f cfbe 25b4 a53e cb50 de3e
00000050: 4f50 d6be dc80 9fbd 3b80 3e3e 76aa 9fbe
00000060: 25c3 a6be 64bd ed3e 3dfb 923e e190 3bbe
00000070: 8250 f33c d319 96be f6c6 f23e a5de 06bf
0.42904568 -0.38588813 0.34690234 0.2804914 0.25767732 0.35924688 -0.37017125 0.34980935
-0.48882288 -0.28068513 0.40454438 0.40191242 0.3714125 -0.19775729 0.10652753 0.3071972
-0.46024448 -0.40539342 0.32364002 0.43421015 -0.41858146 -0.0778825 0.18603604 -0.3118474
-0.32570758 0.46433556 0.28707305 -0.18316986 0.029701475 -0.29316577 0.4741742 -0.5268348

decoder.0.weight f4 [128, 128]
00000000: e21e cc3b 35a1 073c 8418 913b 976c ac3b
00000010: 67f9 d03b 0d7d 963b 13af 9ebb ab28 c33a
00000020: 632d 85bb 1cfd 953b a092 b5bb e9e3 cebb
00000030: 206c d53a b584 bbbb e403 c5ba ab1a 1a3c
00000040: 4a7e c0bb cf66 053b 29c3 2dba 8096 a6bb
00000050: a60f 3a3b ad4b 88bb 6864 b63a 8713 71ba
00000060: f0d8 c53b 4aa8 b03b a8c1 56bb 8dc1 713b
00000070: 7a74 f93b da03 c43a 7edb c93b 4b95 263c
00000080: 89cd 863a f72d 3f3c 9660 89bb 00df 51b8
00000090: f2fd 9a3a f493 85b9 b2d6 06bb bcec 83bb
000000a0: 9c06 37bb 1778 243a b82f 393c 33a3 93ba
000000b0: 006e 9dbb ccc0 38b9 2bff 833a e0ac f03b
000000c0: b2c7 fc3b e190 4b3a 0d5f d139 2372 8d3b
000000d0: ea87 99ba fe9d 83bb afe6 e33b 06bc 88bb
000000e0: 3172 0bbb 7181 9ebb 4b88 323b 7811 ed3b
000000f0: e4ef e43a e9ac fdba 4f20 833b d033 0b3b
00000100: 8180 e3ba 0aff f53a 95de f0bb b148 4ebb
00000110: 8bc6 90bb 9b07 f7ba e052 563a 53f8 443c
00000120: 8649 1d3b 4131 813b cf30 203c fdc0 24ba
00000130: ba4e 513c 469c 4a3b 7fc0 8d3b d345 11bb
00000140: 9dea e43b 8f94 ecba f3ac af3b 51e6 363b
00000150: 2c60 0cbc d7f0 23bc b520 53ba 5636 e4bb
00000160: b88c a5ba 6506 a83b 9784 d13b 09e2 cdba
00000170: e458 863b 8eaf b33b fd95 16bc 07f5 ee3a
00000180: 3d09 2abb c851 303b 9583 633b a3a5 83bb
00000190: a82e 20bc 5a8e e5bb 31db 64bb 6030 6a3b
000001a0: adcf b23b de33 fdb9 4375 afbb ef38 d13a
000001b0: c349 1e3b 79bf c9b9 7f48 c53a 2a23 7aba
000001c0: 594e 213a 0ca6 b33a 6954 79bb 586b a7ba
000001d0: 7aec 99bb 6748 753b dc64 ba3b c10c 30b9
000001e0: 635e 0abb e633 c6ba b5f5 3b3b 0652 c5bb
000001f0: f7b5 9039 2f21 bebb af36 63bb 1ee8 3e3c
00000200: 18b5 183b 9ac8 e4b9 e2f3 15bc 489d 85bb
00000210: 0c13 48bb fe7c febb e680 c13a 0ca4 02bb
00000220: 65ae 4739 f6a5 34bc cdfd b33b 37a1 e2bb
00000230: 9981 063b 8b1a 48bc 7a21 843b 9fc0 8ebb
00000240: e9e3 92bb 703c 76bb 5e03 6bbc bbef b3bb
00000250: ce5c 803b d6ce af3b 2689 243c 84ec 68ba
00000260: 0b99 2ebc 910c 7b3b e4c3 623c 9299 b13a
00000270: 6c34 65bb 6ccc 45bc d199 2b3c 6be5 fdbb
00000280: ee22 b13b a2ae aaba 5752 e4bb 1282 763b
00000290: 9320 593c 3f0f 46bc 44ba 9c3b 09d7 1e3c
000002a0: 1c8d 15bb 2b29 8b3b 96cb c73b 6028 1b3c
000002b0: d3f7 a43a ee79 4b3b b889 a93b 5945 21bb
000002c0: ef8d b3ba f7c8 7e3b f6ef faba d6ef 24bb
000002d0: 867c 063c 3295 5439 6de3 52bb d921 3d3b
000002e0: 74c2 eabb 872e d53b 148f 35bb a193 2abb
000002f0: 7644 13bb 9f4e 1d3a b144 0f3c b27d 243b
00000300: 0dc4 1fbb c84a 1f3c 816b 913b fbe6 60bb
00000310: e3f3 59bb 9397 c4bb c6a8 b8bb 92e4 dfba
00000320: e19b afbb 4b0b c5bb 107e 023c 8dcf b53a
00000330: 62b5 84bc ebab 1dbc 8a12 1abb 7fd6 823b
00000340: 00b7 fbbb 26e8 4539 e35d 0abc 4bc0 49bb
00000350: 3483 5b3c cb71 0639 1d12 d23b 6843 a33a
00000360: 337a 22bc b60d 3bbb 45d6 07bc 0149 253c
00000370: b338 39bc 5652 3bba bacc 953b 7658 cfba
00000380: 4fcf 61bb 718f 1b3b 05c5 f63a 82f6 423b
00000390: 18ce 4bbb 618d 21bb dd08 cdbb 62bb a4ba
000003a0: 2018 9fb9 91fa e33a b94e c03a c794 103b
000003b0: 0107 423b 7942 fc3a c1e4 6ebb 87ea 80bb
000003c0: e046 5239 4d41 113b ce5a d5bb dcfd 383a
000003d0: 00c7 2fba 72e9 9e3a 61db b23b e6b1 9d3b
000003e0: f65f 463b aa1d 223a 06f8 92ba 89a7 e83a
000003f0: a789 13bb 3c5e 82b9 5ede 01bb 9664 c5ba
0.0062292675 0.008278181 0.0044279713 0.0052619684 0.0063773873 0.004592544 -0.004842648 0.0014889439
-0.0040642484 0.004577292 -0.0055411607 -0.00631379 0.0016282834 -0.005722607 -0.0015031067 0.009405772
-0.00587443 0.0020355468 -0.00066285074 -0.005083859 0.0028390675 -0.004159412 0.0013915421 -0.000919633
0.006037824 0.0053911554 -0.0032769237 0.0036889047 0.007612762 0.0014954761 0.0061601987 0.01016743
0.0010284643 0.011668674 -0.004192422 -5.0037168e-05 0.0011824949 -0.0002547797 -0.0020574746 -0.0040260237
-0.0027927523 0.00062739983 0.011302881 -0.0011263847 -0.004804373 -0.0001761943 0.0010070553 0.007344827
0.007714235 0.0007765424 0.00039934405 0.0043165847 -0.0011713479 -0.004016637 0.00695499 -0.0041728048
-0.002127778 -0.004837208 0.0027241881 0.0072347485 0.0017466513 -0.0019353899 0.004001654 0.00212406
-0.0017357023 0.0018768024 -0.0073507526 -0.0031476433 -0.0044181994 -0.0018846871 0.00081758015 0.012022096
0.0024000122 0.003942639 0.009777262 -0.0006284861 0.0127751175 0.00309159 0.004325926 -0.0022166863
0.006985976 -0.0018049645 0.0053611933 0.0027908275 -0.008567851 -0.010006151 -0.0008053885 -0.006964485
-0.0012630438 0.0051277154 0.00639398 -0.0015707623 0.004099952 0.0054835742 -0.009191033 0.0018230983
-0.0025945448 0.0026904214 0.003471588 -0.004017548 -0.009776749 -0.007005495 -0.0034920687 0.00357344
0.005456886 -0.00048294564 -0.005354555 0.0015962402 0.0024152852 -0.00038480366 0.0015051513 -0.0009541983
0.00061533373 0.0013706102 -0.0038044697 -0.001277308 -0.0046973797 0.0037427188 0.005688293 -0.00016789419
-0.0021113388 -0.0015121668 0.0028680388 -0.006021741 0.00027601395 -0.0058022956 -0.0034670045 0.011652021
0.00233013 -0.0004363701 -0.0091523845 -0.0040775873 -0.003052893 -0.007766365 0.0014763146 -0.0019934205
0.00019043086 -0.011025896 0.005492902 -0.006916191 0.0020524024 -0.01221336 0.004032311 -0.0043564583
-0.0044827354 -0.0037572645 -0.0143440645 -0.0054912246 0.003917313 0.005365233 0.010042464 -0.0008885341
-0.0106566055 0.003830705 0.013840649 0.0013549796 -0.0034973873 -0.012072664 0.010473684 -0.007748296
0.0054057753 -0.0013022015 -0.0069678235 0.003761415 0.013252395 -0.012088596 0.004782947 0.009694823
-0.0022819703 0.004246851 0.0060972674 0.009470075 0.0012586064 0.0031048018 0.005173888 -0.0024607985
-0.0013698916 0.0038877109 -0.0019145 -0.0025167367 0.0082084 0.00020273475 -0.0032179013 0.0028859286
-0.007164294 0.0065057906 -0.002770369 -0.0026027935 -0.0022471226 0.000600079 0.008744405 0.0025099334
-0.002437833 0.009722419 0.0044378643 -0.0034317363 -0.003325694 -0.0059995144 -0.0056353537 -0.0017081669
-0.0053591584 -0.006013309 0.007964626 0.0013871059 -0.016199771 -0.009623508 -0.0023509585 0.003992855
-0.0076817274 0.00018873866 -0.008445236 -0.0030784782 0.0133979805 0.00012821627 0.0064108507 0.0012456002
-0.00991683 -0.0028542108 -0.008290832 0.010088206 -0.011305022 -0.0007145753 0.0045715244 -0.001581921
-0.003445584 0.002373662 0.0018827027 0.002974898 -0.0031098183 -0.0024650919 -0.00625716 -0.0012568051
-0.00030344818 0.00173934 0.0014671899 0.0022061334 0.0029606225 0.0019245885 -0.0036452266 -0.003934208
0.00020053564 0.0022164166 -0.006511069 0.0007056871 -0.00067053735 0.0012124015 0.005458281 0.004812467
0.00302696 0.000618423 -0.0011212833 0.0017750125 -0.0022512467 -0.00024865742 -0.001981638 -0.0015059884

decoder.0.bias f4 [128]
00000000: b86f aa3a 7955 28bb 6183 b83a 94b5 97bb
00000010: 0b21 163c 74b1 f0bb 515f a5bb c58c dabb
00000020: 3743 50ba 2a32 4ab9 84f4 ca3b b37e dcbb
00000030: 1c22 5ebb 49e1 073c 9615 4d3b ad9e b3bb
00000040: ebdb 583b a743 173b 965a ad3a 259e a23b
00000050: 3ad2 ecbb 9a57 813a 70a0 62ba 07b9 5ebb
00000060: 0886 863b a223 bcbb 7cbc 863b c065 133b
00000070: a730 8b3a 0f13 1abb 9c39 a2bb 02a4 1bbc
00000080: 14c0 193b 77e1 ec3b b356 0b3c 58cc 483b
00000090: 9cec 203c aaf4 353c 9720 afbb 2c41 643b
000000a0: 0a6d a63b 56ce 7e3a f3fb 1fbc 4a02 c1bb
000000b0: 88d2 39bb f211 483b dc0f eebb ede8 dfbb
000000c0: 387a 17bc 26d0 3f3b f08b c43b 7cb1 743b
000000d0: f16a c93b 0438 db3b 02dc f439 0138 003b
000000e0: d33f 18bc 3a45 25bb 392b 15ba 1fb2 81bb
000000f0: 4fbe b7bb c51d b5bb 07d5 5c3b 1654 5d3b
00000100: be5c 3f3a f23b ffba 7771 063b fa66 efbb
00000110: 33a2 8abb 8214 8d3b 0019 e1bb 1603 e03b
00000120: 6309 0cb8 f7ec dd3b 740d ddbb fcc6 70bb
00000130: 3a06 a8bb 8bdb 973b bdf4 cebb 72f8 89bb
00000140: d816 84bb c24a c4bb fce1 903b c0ef af3a
00000150: 6b48 8f3b 0a64 16bc 2711 0fbc 15e5 c0bb
00000160: cbdb f13b 4047 4e3b 5b2d d63b 47fa 13bc
00000170: de17 56bc 10d2 dcbb c0a4 e4ba b22e 39ba
00000180: e557 36bb 911c 643b b95e afbb 33ce 1d3b
00000190: ab7f 31bb f2c2 36bb 7dfb 4d3b 0fab 6bbb
000001a0: f258 2cba 21ea 1bbb 0192 4f38 cb27 d53a
000001b0: 7e4f e53b 7038 b53b ec4e ac3b 50ca 33bc
000001c0: 5fe2 773b dcc1 e83b a90b af3b 7587 113c
000001d0: 3dd2 ad39 871d 7f3b b2d6 8ebb dca9 c539
000001e0: 1c41 c03b 871e 2dbb 29cf db3b d1a3 b7bb
000001f0: dd27 05bc 0377 753b cacd b93b 68ef c13b
0.0013003265 -0.0025685711 0.001407724 -0.0046298 0.0091631515 -0.007345373 -0.005046763 -0.006669613
-0.0007944586 -0.00019282909 0.0061936993 -0.006728971 -0.0033894842 0.008293458 0.0031293384 -0.005481562
0.0033090066 0.0023081095 0.0013225849 0.0049627 -0.0072272094 0.0009868026 -0.0008645123 -0.0033984797
0.0041053332 -0.0057415524 0.0041118246 0.0022491068 0.0010619358 -0.0023509895 -0.004950715 -0.009499552
0.0023460435 0.007229026 0.008504557 0.0030639376 0.009822037 0.011105696 -0.005344461 0.0034828885
0.0050789164 0.00097200775 -0.009764659 -0.0058901655 -0.0028354246 0.0030528274 -0.007265074 -0.006833187
-0.009245448 0.0029268353 0.005998127 0.0037337234 0.0061467816 0.006690027 0.00046703225 0.001956463
-0.009292561 -0.0025218264 -0.00056903396 -0.0039580013 -0.0056074033 -0.0055272304 0.003369631 0.0033772043
0.00072998914 -0.0019472821 0.0020514408 -0.007305977 -0.0042307614 0.0043054232 -0.0068694353 0.0068363054
-3.3387343e-05 0.006772633 -0.0067459885 -0.0036739698 -0.0051276954 0.004634326 -0.006315796 -0.004210525
-0.0040310435 -0.005990357 0.0044214707 0.0013422891 0.0043726466 -0.009179125 -0.008732117 -0.0058866837
0.0073809377 0.0031475574 0.0065361685 -0.009031839 -0.013067214 -0.0067389086 -0.0017444119 -0.0007064148
-0.0027823385 0.0034807066 -0.005351868 0.0024079203 -0.0027084153 -0.0027887193 0.0031430416 -0.0035960113
-0.0006574533 -0.0023790675 4.9488623e-05 0.001626247 0.0069980016 0.0055304095 0.0052584317 -0.010973528
0.0037824137 0.007103188 0.005341966 0.008882393 0.0003315377 0.0038927512 -0.00435909 0.00037701323
0.0058671366 -0.00264159 0.006708045 -0.0056042452 -0.00812718 0.003745497 0.005670284 0.005918432

decoder.2.weight f4 [64, 128]
00000000: b2ad 9cbd 34ad efbd 8e63 c3bd a579 3cbe
00000010: 2f26 cb3d 755f a5bd ac4e fdbd 8a68 a53d
00000020: cae8 32be f931 71bc b809 593e 27f3 093e
00000030: 29eb 093e ee57 a5bd 3a20 01be 0292 393e
00000040: 14bd 83bc 5b6b cabd e80b 25be 32f9 38be
00000050: 1971 f73c 6c2c db3b bad8 bbbc 5d89 ea3d
00000060: 921f eb3d 6d46 ba3d 3af9 363e 382e 72bd
00000070: c89b 08be 6331 8ebd 1e1a 033e a919 c1bc
00000080: f467 df3d 2f9f 24be b2ef e63d 298b 153c
00000090: 0f51 e53d 792d ffbd 7ec5 923d 36c6 b5bd
000000a0: 6777 5cbc baa5 323e 107a 88bb cdc5 e0bd
000000b0: 15da b7bd 63e5 783d 1928 d2bc 3800 503d
000000c0: b6e9 30be 75bf a73d fa7b 41be 33be 81bd
000000d0: 9b86 963d 44b4 203e 9a61 f43d 3f1a 053e
000000e0: dcb8 42be 9ce7 8dbb 316b 19bd 69e3 3e3e
000000f0: 4467 18be e9d8 943c 9640 1fbe 1290 af3d
00000100: bf6c 1b3c 9000 d7bd 0aaa 193d 2f55 3b3e
00000110: 6b83 4f3e 3cc0 bf39 d7c4 093d 3d9f 61be
00000120: e6c3 803e 8407 bdbc 1615 8d3c 18f0 3d3d
00000130: 4795 32be dd61 20be 2026 833c 5f7a 173e
00000140: 3c3b 2c3e 2d83 55be ee32 67be 2aaa 59bd
00000150: 75b9 b63c a35e 373e 4ca6 833d aa07 15be
00000160: 6373 8d3d 4db0 7b3d 197f 75bd 2c63 0d3d
00000170: 7260 143d b4c5 23be 9577 46bd 32d9 5b3d
00000180: f789 f2bd 3103 35be 9fb4 0ebe 8133 b0bc
00000190: 7491 2abe 08ff 1b3e a589 25be c206 9fbd
000001a0: c618 b0bd 95b6 0e3e 8bed 02bd e60a 3fbe
000001b0: 13fd 373e 4ead 133e f464 92bd 4b16 0fbc
000001c0: bfb4 3fbe 9b66 a2bc 36be 00bb 3997 2c3e
000001d0: 5573 c4bd 2f0e 58bd 7740 a3bd c663 3abc
000001e0: 7da5 8b3d c094 193c 3be2 16be 3502 6f3b
000001f0: 2b6a adbb 832f 3cbe cdf0 20be f6bd 4bbd
00000200: f6e1 4fbd ea23 363d 6f58 4e3e 388f 6cbd
00000210: a27a 9abd 49b7 523e f24b d5bd d66d 57bd
00000220: 94d4 b33d 03b6 cb3d 3ef4 373e af57 c3bd
00000230: 8ef6 1bbe a4a3 903d 5bdb 0c3c b406 9b3d
00000240: 58f2 8d3c c206 c0bc ef0b 0ebd bdd8 e43d
00000250: 19c3 f8bc 379f 67bd 0823 a13d 3eb8 0dbe
00000260: 9b80 2abe 6778 2f3e 9db5 713d a63c 283e
00000270: 590a c3bd 032b f1bd 4d18 26be ce59 1fbe
00000280: d83f 1d3e 3040 09be 3d4f e93c 5e49 2dbd
00000290: 2e82 463e 3637 233e 9f51 dbbd 0f95 2c3e
000002a0: e13f 07be e5ed 3abe cb78 1c3e 7273 f3bd
000002b0: 7cde 083e 1548 24bd 378a 273e 4336 90bd
000002c0: fcae 393e b5a6 a5bd b561 143e 638d 313e
000002d0: 28c7 5bbd ce9f a63c 4405 3d3e 5cba 303d
000002e0: fc7d 5cbb b545 bd3d 64ea 2a3e 9048 4abd
000002f0: fcf3 b83c 4c97 a13d 8933 47be d25a eebd
00000300: abd5 babd b21a d23d a933 24be 4fb3 523e
00000310: 5727 13be 9a59 3a3e 9809 b2bd ab39 29be
00000320: 4b09 a9bb 29ca 46be c82d 1c3d 18ec fcbd
00000330: d8bf 2fbd a8fb 4a3e e489 54bd 1bde 29be
00000340: 0fa5 f63d 8e85 07be 46b7 043e 35e9 19be
00000350: 6115 5abd 1157 8d3d 1640 b4bd 2975 6dbd
00000360: 53aa f23d 8be8 1fbe 320f 2bbc b7f9 323e
00000370: 6a07 643d 583e 25be 6c2d 0b3d 479c 11bc
00000380: c01d e73d 7170 7bbd b9a3 633e 9b5d 28be
00000390: 2ba8 7c3d 00dd 61bd 7e6a 8f3c 695a aa3c
000003a0: 79e4 0cbe 7d6c 59be de63 2e3c f3ec 553d
000003b0: e1cd 253e 9c63 853d 786d 2abe 6769 c6bc
000003c0: 8732 323e 1b32 ed3d 7555 333e fe7f 7fbc
000003d0: 3547 013e 7eda 943d bd3a 3a3b 94e5 8b3d
000003e0: 8309 d8bd c8c9 4a3e c76e 263e 1ec3 dcbd
000003f0: 6419 a03d e0e4 cbbd 8436 553d dbd7 4c3d
-0.07650317 -0.11702958 -0.09540473 -0.18405779 0.09919392 -0.080748476 -0.12368521 0.0807658
-0.17471614 -0.014721387 0.21195114 0.13471662 0.13468613 -0.08073412 -0.1260995 0.18122104
-0.01608137 -0.09883758 -0.16117823 -0.1806381 0.030205296 0.006688645 -0.022930492 0.11451981
0.11480631 0.09095464 0.1786851 -0.05912611 -0.13340676 -0.069430135 0.12802932 -0.023571806
0.10908499 -0.16076349 0.11276187 0.009127417 0.11197101 -0.12459845 0.07166575 -0.08875696
-0.013456202 0.17446032 -0.0041649416 -0.109752275 -0.08977143 0.060765635 -0.025653886 0.05078146
-0.17276654 0.081908144 -0.1889495 -0.06335106 0.07349893 0.15693766 0.119326785 0.12998293
-0.19015831 -0.0043305885 -0.03745574 0.18641438 -0.14883143 0.018169837 -0.15551981 0.08572401
0.009486376 -0.10498154 0.037515678 0.18294214 0.20264976 0.00036573585 0.033634987 -0.22033401
0.2514946 -0.023074873 0.017221969 0.04637155 -0.17439757 -0.15662332 0.01600939 0.14792775
0.16819471 -0.20850821 -0.22578022 -0.053140797 0.02230523 0.17907195 0.06428203 -0.14553705
0.06906774 0.06144743 -0.059935663 0.034518406 0.03622479 -0.15993387 -0.048453886 0.05367393
-0.11842721 -0.17676999 -0.13936089 -0.021508934 -0.16657048 0.15234005 -0.16165788 -0.07764961
-0.08598475 0.13936837 -0.03196482 -0.18656501 0.17967634 0.14421579 -0.071481615 -0.008733342
-0.18721293 -0.019824317 -0.0019644625 0.16854562 -0.0959231 -0.0527479 -0.0797128 -0.011376327
0.06818674 0.009373844 -0.14734738 0.0036469821 -0.005292197 -0.183775 -0.15716858 -0.049741708
-0.050752603 0.044467844 0.20150922 -0.05775377 -0.075429216 0.2057773 -0.10414876 -0.052594982
0.087807804 0.09946825 0.17964265 -0.09538209 -0.15230772 0.07062462 0.00859722 0.07569638
0.017327473 -0.023440722 -0.03467935 0.11174152 -0.030366467 -0.056548323 0.0786801 -0.13839814
-0.16650622 0.17135774 0.05901109 0.16429386 -0.09523458 -0.11775782 -0.16220208 -0.15561602
0.15356386 -0.13403392 0.028480167 -0.042306297 0.19385597 0.1593903 -0.10708927 0.16853736
-0.13207962 -0.18254812 0.15280454 -0.11887254 0.13366121 -0.040107805 0.16361319 -0.070415996
0.18133157 -0.080884375 0.14490397 0.17339091 -0.053656727 0.020339873 0.1845904 0.043146476
-0.0033644428 0.09241811 0.16690975 -0.049385607 0.022577278 0.07890186 -0.19453253 -0.11638416
-0.09122785 0.10258998 -0.16035332 0.20576213 -0.14370476 0.18198243 -0.08693236 -0.16525905
-0.0051585785 -0.19413055 0.038129598 -0.12349719 -0.042907566 0.19822562 -0.051889315 -0.16588633
0.12043201 -0.13234541 0.12960538 -0.15030368 -0.053243045 0.06901372 -0.08801286 -0.05797306
0.11848893 -0.15616052 -0.010440635 0.17478071 0.055671133 -0.16137064 0.033978865 -0.008887357
0.11284971 -0.06138653 0.22230424 -0.16441958 0.061683815 -0.055142403 0.017506834 0.020795064
-0.1375903 -0.21232791 0.010643927 0.052227926 0.16191818 0.065131396 -0.16643322 -0.024220182
0.17402087 0.115818225 0.17513068 -0.015594481 0.1262482 0.072682366 0.0028416358 0.06830898
-0.10548689 0.19803536 0.16253196 -0.10779403 0.07817343 -0.09955764 0.052053943 0.050010543

decoder.2.bias f4 [64]
00000000: 4413 203e 93b8 403e 7492 03be b85a 40be
00000010: 19c6 1b3e 317c 853d 8ab5 323e 137e 2bbe
00000020: 0d2b a9bd 25da 38be 8804 0abe cf88 e23c
00000030: bc1c 413e 611b 603c 842d fc3d cf84 313e
00000040: a4ec 15bd a80c a03d ac86 23bd b283 213e
00000050: 669e ab3d 9c47 293e f215 e03d eb33 473e
00000060: 61ba 07be c503 38be 989b d7bd afdb a93d
00000070: 38ef 95bc bdce dbbd e63f 3d3e 992f afbd
00000080: c97a 9f3c e219 b33d 8b9f 943d 3df2 873d
00000090: e29f 003e bcb3 b2bd 5e5c b13a 7716 38be
000000a0: 9587 093e bcf7 bd3d f64b 493d 0233 1e3d
000000b0: 80e3 07be c00e 443e ef35 ba3d 1faa 123e
000000c0: b18c 30be 02a8 75bc 0f99 4e3e 34a5 7abb
000000d0: 349b 403e 226b d0bd 07b0 2fbe df74 603d
000000e0: 630f 45be d379 063e 0b10 473e 0f15 b7bd
000000f0: 3c82 923d 0574 663d b523 2abe 815b 473e
0.15632349 0.1882041 -0.12848836 -0.18784606 0.15212287 0.06517828 0.17452064 -0.16747312
-0.082601644 -0.18051966 -0.13478291 0.027653126 0.18858618 0.013678403 0.12313369 0.17335819
-0.03660263 0.07814914 -0.039923355 0.15772894 0.083798215 0.16531223 0.10941686 0.19453399
-0.13254692 -0.17970188 -0.10527724 0.082938544 -0.018302545 -0.107327916 0.18481407 -0.085540004
0.019467728 0.08745171 0.07256993 0.06638 0.1256099 -0.08725688 0.0013531556 -0.1797732
0.13430627 0.09275767 0.049144708 0.038622864 -0.13270378 0.19146252 0.09092318 0.14322709
-0.1724117 -0.014993669 0.20175575 -0.0038245441 0.18809205 -0.10176684 -0.17156993 0.054798957
-0.19244151 0.1313241 0.19439714 -0.089395635 0.071537465 0.05626299 -0.16615184 0.194685

decoder.4.weight f4 [1, 64]
00000000: 67cf a7bc 77e4 e33c 337a 7a3d b10f b7bd
00000010: 628c 043e fe87 2b3e 89e8 7ebe dd5d df38
00000020: 61d9 053e a135 e83d 1419 31be 113f ca3d
00000030: da73 6fbe 1e66 793d f0f2 26be 4e05 9c3c
00000040: db1f 123d b2c0 50be 6179 273c 20c4 563d
00000050: 56e2 983c c640 28be bf9e 3b3e e171 313e
00000060: 86da b3bc 8b4c c23d cfce 583d 9a89 11be
00000070: 7b18 4c3e bf2a 8ebd f246 243e ace7 a73d
00000080: 493d f03d e9b1 66be da9b 1f3d 3b50 9abc
00000090: eb01 733d e26d 19be 240e b8bc 55e7 ebbd
000000a0: ebc5 783c 14f7 c73d 4bb1 853c 0a6b 73be
000000b0: 18e5 823e 3968 a13d c928 90bd a45d 52bd
000000c0: 37dd 92bd d723 4cbe 85cd 6dbe f139 84be
000000d0: cda3 ffbc 1520 92bd 598d 9e3d cb09 293e
000000e0: 2b46 48bc dc54 6c3e 24a8 fcbd fdf1 10be
000000f0: 4fd6 cf3d d46c 803e 12b9 de3a 5a3f 543e
-0.02048464 0.027818901 0.061151695 -0.0893854 0.12944177 0.16751096 -0.24893393 0.00010650952
0.13071205 0.11338354 -0.17294723 0.0987531 -0.23384038 0.060888402 -0.16303611 0.019045498
0.03567491 -0.20386007 0.01022181 0.052433133 0.018662613 -0.16430959 0.18322276 0.17328598
-0.021954786 0.09487256 0.052931603 -0.14212647 0.19931214 -0.06941747 0.16042688 0.08198485
0.11730439 -0.22528805 0.03896699 -0.018837085 0.059328 -0.14983323 -0.02246768 -0.115187325
0.015183906 0.09763923 0.016319891 -0.23771301 0.2556541 0.07881207 -0.07039029 -0.051358834
-0.071711 -0.19935547 -0.2322293 -0.25825456 -0.031206036 -0.071350254 0.07741804 0.16507642
-0.012223761 0.23079246 -0.12336758 -0.14154811 0.10148298 0.2508303 0.0016992411 0.20727292
