Training/checkpoints/wind_pressure_200_5/mlp/model_20.pth (torch, 132355 bytes, 17 tensors)

pos_encoder.0.weight f4 [24, 1]
00000000: ec8f 493e d7db 973b 8470 65bf 0e40 49bf
00000010: b6e8 54be 799d 72bf 83aa e23e 78b4 07bf
00000020: c96e 5a3e f09e 58bf 0624 c0bd be35 77be
00000030: f778 d1bd b93c 413d 7209 1fbf 293c 193e
00000040: a506 8e3e 46a4 263e 9685 523e 0748 75bf
00000050: 626b 13be 6f47 44bf 98ba 33bf 8df2 5ebd
0.19683808 0.0046343612 -0.8962481 -0.78613365 -0.20791897 -0.94771534 0.44270715 -0.5300975
0.21331324 -0.8461752 -0.09381871 -0.24141595 -0.1022815 0.04717705 -0.6212379 0.14964356
0.27739444 0.16273603 0.20558771 -0.9581303 -0.14396432 -0.766715 -0.70206594 -0.054430533

pos_encoder.0.bias f4 [24]
00000000: 3765 5a3f ddc1 8e3e 9416 253f 2319 10bd
00000010: 0975 12bf 091a 513f bbd7 183f a786 353f
00000020: d576 143f 24e2 263f 0ae6 10bf cd4f 8d3d
00000030: 7f26 2f3f b663 fc3e 286a 47bf 2f14 a73e
00000040: 0791 6d3f d65d 44bf fc96 32bf dd6c 013e
00000050: ce2e ad3e 8825 2ebf a563 63bf 7d26 543e
0.8531069 0.2788228 0.64487576 -0.035180222 -0.5720983 0.8168035 0.5970418 0.7090859
0.57993823 0.65188813 -0.5660101 0.068999864 0.68418115 0.49294823 -0.77896357 0.32632586
0.9279942 -0.7670568 -0.69761634 0.12639184 0.33824772 -0.6802602 -0.8882392 0.20717807

pos_encoder.2.weight f4 [48, 24]
00000000: 93ad 82be 8333 a1be 5edd 05be 3c13 b6be
00000010: dc35 c43e 4b60 843e cbcb 1cbe 14b8 3a3c
00000020: 66b6 733e 3e99 ed3e d82e debe 9679 b33c
00000030: a5db 19be 417d fdbd 512d f7bb 3236 e8bc
00000040: 73b7 adbe e90c 753e 2ebb d53d 364f 51be
00000050: b0c2 a43e 8a5f 80be 30cb 14be 26da aebd
00000060: d50d dcbd a638 a8be effe dfbe 0370 5e3e
00000070: c3e2 e5bd 7ce3 c43e 4b14 b63e 0af5 223e
00000080: af02 ea3d 254b 3b39 7933 b93e 0065 863e
00000090: 5ef2 c93e d811 a43d 98d0 8fbe b088 b0be
000000a0: 5578 40be 257d 883e cff4 e03e add4 0a3e
000000b0: 8dbc 9ebd 78ce 35be c2e0 1c3e 5241 9ebe
000000c0: c077 b5be 8984 863e 68d0 90bd d9b0 efbe
000000d0: f432 e73e 8f14 dbbe ca98 693e c112 873e
000000e0: 9136 bf3c de05 533e 2622 1ebe 32f5 2cbe
000000f0: 9dcc 4cbe 3836 96be dac7 f63e 2ff3 84be
00000100: 438a b6be 264d d73e 6e1e 07be e177 abbe
00000110: be7c 843e 94e9 abbe 3288 e73d e407 c73e
00000120: fd79 7b3d 2958 303d ef14 e23d c411 fbbe
00000130: caba 913e 716c a8be da32 bc3e fa5f ae3a
00000140: 8aa9 a3be c2d2 01bf 5546 3abe aafa 07be
00000150: fffa 25be 0e7f c93d fa5a bc3e 58fd 2dbe
00000160: beee a8be d467 9d3e 02b4 35be 1f85 233d
00000170: 93af c53d 8a07 abbd 2659 e73d 998d 97be
00000180: 4b32 e9bd ecdd 2f3e 41a1 68bd d291 d53e
00000190: 2b09 a1be 99ee d23e 646c abbe fa0a 723d
000001a0: dc8b 97be 85e4 3cbe 656f 9dbd 0259 1a3e
000001b0: 6ae9 823e 3384 99be 647d 07be 87a9 e9be
000001c0: 6391 84be 9b5a b2be ce50 573d 1336 60bd
000001d0: 6752 f53e cd1e 3fbe d7ad 7cbe f88a adbe
000001e0: 6e36 343d d894 a9be d1c1 a03e 7b76 363e
000001f0: 9794 513e e53d a43e 0129 d03e d125 ec3e
00000200: 6a4e 3ebe 80f9 cebe 437f 8ebe d2bf cd3e
00000210: 69bc bcbd c065 523e e4c9 0cbe e198 6dbe
00000220: a6f8 babe 2aa3 c63e f2b1 1a3e 0edb 0abe
00000230: c767 25be 8f0e 1c3e 7be1 a83d 76d6 01bf
00000240: 3b1b c63e abd8 ecbd 6398 6a3e dff9 3b3e
00000250: bf26 e6be 02e9 5fbe 4324 db3e 3b4e a0be
00000260: b8eb c93e 7fd3 b9be e964 873e 37c7 bbbe
00000270: 6022 443e 95ad b23e e411 333e cb82 0bbe
00000280: 1b44 11be 9f30 f5be 32aa 583d 968a 6c3e
00000290: c1b5 2fbd 7b0c a5be 25d1 0cbe d4f0 5fbe
000002a0: 8ded d63d aea8 a03e 610e eabe 87c9 7ebe
000002b0: 2179 9b3e f316 12be ae50 21be ee21 a7be
000002c0: e53b 7bbe 67da b03e 541c a63e fc00 7f3e
000002d0: 5b48 a43e ab32 3b3e 4588 643e ff5b da3e
000002e0: 6c6a f43e 8ddd 5b3e 10ae bcbe 6bf3 90be
000002f0: a543 333d 95ab 3b3e 1f06 05be 997b 32be
00000300: 02e0 003e 008d bb3e 65f9 d2be 4760 943d
00000310: c952 6b3e 72a0 02bd 6ac7 8a3e 238b 03be
00000320: 7349 ebbe 2671 29be df83 d23e df79 853e
00000330: 5838 c6be fddb 4f3e 43f3 dfbe e514 e0be
00000340: 314a ef3e 2e74 7f3e 5d53 13be 4951 603e
00000350: 48bf d13e a500 3b3e 245f f23e c9a1 e2be
00000360: 2553 283d 964a d1be 07bb ee3e cb79 25bd
00000370: 654c 1d3e 827a 623d eb49 fabd aa55 bd3e
00000380: abfb dabe f049 333e 693a 553e 4751 d4be
00000390: a006 1bbe faab bebc 1f1b f3bd 1986 32be
000003a0: 91bd b83e 5c9c 9dbe 3130 30bc 1a38 623d
000003b0: d26d e1bc af3a c9be 2186 c43e a6cc b4be
000003c0: bb01 8ebd cc01 f2be bdc6 813e d71f e43e
000003d0: 1004 f6be 5321 273e 2671 c73e f76f 42be
000003e0: 5834 1c3e 7092 aabe 7e6e 81bc 9064 133e
000003f0: 1bb3 6c3e 4530 8bbe 879d 8cbe c283 b63e
-0.25523052 -0.31484613 -0.13072726 -0.3556155 0.3832234 0.25854716 -0.15312116 0.011396427
0.23800048 0.46405977 -0.43395114 0.021908563 -0.15025194 -0.12377406 -0.007543244 -0.028346155
-0.33929023 0.23930706 0.10436092 -0.20440373 0.32179785 -0.2507289 -0.14530635 -0.08537702
-0.10744826 -0.3285572 -0.43749186 0.21722417 -0.11224892 0.38454807 0.35562357 0.15913787
0.11426293 0.00017861703 0.36172083 0.26248932 0.39442724 0.08011216 -0.28088832 -0.34479284
-0.18795903 0.26657978 0.43936774 0.13557692 -0.07750807 -0.17754543 0.15320113 -0.3090921
-0.35442924 0.2627299 -0.07071 -0.46814612 0.45156062 -0.42789122 0.2281219 0.26381496
0.023341449 0.20607707 -0.15442714 -0.1689041 -0.19999929 -0.2933824 0.4819935 -0.25966784
-0.3565236 0.42051047 -0.13195202 -0.33489898 0.2587642 -0.33576643 0.11305274 0.38873208
0.061395634 0.043052826 0.11039149 -0.49036992 0.2846282 -0.32895234 0.36757547 0.001330375
-0.31965286 -0.50712216 -0.18190892 -0.13279215 -0.16209029 0.09838687 0.3678816 -0.16991174
-0.32994646 0.30743277 -0.17744449 0.039921876 0.09652629 -0.08351047 0.112963006 -0.29600218
-0.11386546 0.171745 -0.05679441 0.41712815 -0.31452307 0.4119766 -0.33481133 0.0590925
-0.29598892 -0.18446548 -0.076872624 0.15073016 0.25568706 -0.29983672 -0.13231426 -0.45637152
-0.2589217 -0.3483475 0.052567296 -0.05473907 0.4791443 -0.18664093 -0.2467569 -0.33895087
0.04399722 -0.3312137 0.3139787 0.17818634 0.20466839 0.32078472 0.40656283 0.46122602
-0.185846 -0.40424728 -0.27831468 0.4018541 -0.09215624 0.20546627 -0.1374889 -0.2320285
-0.3651783 0.3879636 0.15106943 -0.13560125 -0.16152869 0.15239929 0.08246132 -0.50717866
0.3869265 -0.11564764 0.22909693 0.18357037 -0.44951436 -0.21866229 0.42801103 -0.31309685
0.39437652 -0.3629417 0.26444176 -0.36675426 0.19153738 0.34898058 0.17487293 -0.13624112
-0.14186136 -0.47888657 0.052896686 0.23099741 -0.042897943 -0.32236084 -0.13751657 -0.21869212
0.10494528 0.31378692 -0.45714095 -0.24881564 0.30365852 -0.14266567 -0.15753433 -0.32643074
-0.24534567 0.34541628 0.32443488 0.2490272 0.32086453 0.18281047 0.22317608 0.42648312
0.47737443 0.21471234 -0.3685155 -0.28310713 0.043765683 0.18327172 -0.12990616 -0.17429961
0.12585452 0.36631012 -0.41205898 0.07244926 0.22980799 -0.031891294 0.27105266 -0.12846045
-0.45954475 -0.16547069 0.41116235 0.26069543 -0.38714862 0.20298763 -0.4374028 -0.4376594
0.4673629 0.24946663 -0.1438727 0.21906008 0.4096625 0.18261965 0.47338212 -0.44264057
0.041094918 -0.40877217 0.46627066 -0.040399354 0.15361173 0.055292614 -0.1222113 0.3697942
-0.42770132 0.17508674 0.20823063 -0.4146826 -0.15139246 -0.023275364 -0.11870407 -0.17433967
0.36082128 -0.30783355 -0.010753677 0.055229284 -0.027518187 -0.39302585 0.38383582 -0.35312384
-0.06933924 -0.47266996 0.25346938 0.44555542 -0.48049974 0.16321306 0.38953513 -0.18988024
0.15254343 -0.33314848 -0.015799757 0.1439383 0.23115198 -0.27185264 -0.27463934 0.35647398

pos_encoder.2.bias f4 [48]
00000000: 1b49 dabe 832a 33be 9c1a 41bd 900c f0be
00000010: f580 403e ef72 643e a716 993e cb64 bdbe
00000020: 76f4 773e 3461 22be 02b3 cb3d 06af 663d
00000030: de6f 02bd 1318 ce3e 1256 c1be 7a85 73be
00000040: 2090 1a3e 0598 e73e 4fa6 fa3e 46e9 c1be
00000050: 5f42 fe3e b137 9dbe 9037 3cbe 08cc 35be
00000060: 5435 4a3d b424 babe e3a2 003e 9596 6e3e
00000070: 6023 9c3e 32b6 463e e2dc e7be e60b 8a3e
00000080: 23ea 8ebd 5af4 8bbe 02fe 7a3e 36cb 72be
00000090: 7edb b0be 9414 6abe a5dc c9be 95b0 ebbe
000000a0: 68b0 9cbe a68f e1bd d0ed cabe ab85 c53e
000000b0: a330 8d3e 3dbe ba3e 5340 dd3e 1b80 92bd
-0.426339 -0.17496686 -0.047144517 -0.46884584 0.18799193 0.22309469 0.29900095 -0.3699096
0.24214348 -0.15857393 0.099462524 0.05631926 -0.031844966 0.40252742 -0.3776098 -0.23781386
0.15094042 0.4523317 0.48955008 -0.37873286 0.49660012 -0.30706552 -0.1838057 -0.17753613
0.049367264 -0.36356127 0.12562136 0.2329963 0.3049574 0.1940544 -0.45285708 0.26962203
-0.06978252 -0.27334863 0.24510959 -0.23710331 -0.3454246 -0.22859412 -0.3942615 -0.4603316
-0.30603337 -0.11013727 -0.39634562 0.38578543 0.2757617 0.36473265 0.43213138 -0.071533404

pos_encoder.4.weight f4 [96, 48]
00000000: 5ea1 393e 7234 cabd e94c 0c3e e0de 003e
00000010: 198e 283e 7846 703e f1de 2e3e 2cb5 0c3d
00000020: b023 153d 7246 50bc c9f5 2dbe 36f1 aabe
00000030: 6d28 d73d 2c10 dc3c 9c8d 79be 650f 963d
00000040: f4f6 bd3d d772 1e3e f2e8 1b3e 233f 93be
00000050: 6b49 bf3d 2f40 273e b047 553d 2b98 153d
00000060: fb49 3ebe 875e a73e 652c d33d e668 fd3d
00000070: 79e4 bfb9 baee 46bd a326 25be fa01 5ebe
00000080: da10 30be 0423 18be 0168 3f3e 99ca 8bbe
00000090: fd43 a03e 291c d53d 4e0e 58be 4481 243e
000000a0: 85f4 73be be69 a63e 9846 d23a 4971 553d
000000b0: 9331 4abe 1fc5 03be 3837 11bd 7f3e 8a3d
000000c0: 181a d53d c54f 1dbd 193a e4ba ac0b 85be
000000d0: f188 54be 81c0 003e 4bf9 403e 98aa 91be
000000e0: 29e8 5e3e 00f0 103d 0d65 55be 0aab 8d3d
000000f0: 0965 1e3e d19f 673d aac2 5abd 34fb 853d
00000100: 46d6 a7bd 77ec 81be 6b45 a9be d549 eabd
00000110: dc84 f4bd 93ca 2dbe 8bdc 86bd 94de 1f3e
00000120: aba4 a1bd f9c4 743e 5a41 8e3e 85e4 a3be
00000130: c91d 36be 2ebc f13c 5d4c 84bc fd89 ae3b
00000140: ec4d 413d cdc2 59be 68c8 a53e 40b3 453e
00000150: 73b5 d03d bc09 993e 7944 a1be ccd4 0cbe
00000160: e8e7 aebe 904f c13d a179 2e3e 2c3d a7be
00000170: b60d 143e 2110 53be 32fe 973e a4f2 9bbe
00000180: 8671 8cbe 129a cfbc cb43 6dbe 70b9 8c3e
00000190: e64b 313e 2f6b a1be 76ba ad3c cd68 a93b
000001a0: e208 233c dd47 9a3e 7f8a a2bd 2308 90be
000001b0: 6c8d 81be 646c 24be 8eba 8e3e 6296 9b3e
000001c0: 3c7d 9d3e aa99 c1bd 5e84 a6be f244 95be
000001d0: c492 913c 3e99 a53e 6496 98be 5df0 7dbe
000001e0: 06d8 45be 96c6 33be 38ed 5fbe 5357 c03d
000001f0: 1a5d 00be b623 65be 829d 08be 8b62 aabe
00000200: 79fc 76be 5cf5 f53d b25a 0f3e 514a a1be
00000210: 48bc de3d 46c9 813e 6e7f a53d da47 993e
00000220: c234 efbd ca1e 013d 6f36 0ebe a75c 893e
00000230: c3fd ab3c b7d8 6cbe 8b36 f23d 920a 5abe
00000240: 3553 a73e d38a bebd a4e4 333b 19ab 1fbd
00000250: 6246 ed3d a795 6ebe e08b 473e 3fc3 61be
00000260: 39f3 c9bd ca44 0abe aa8f 73bd a66f 0f3e
00000270: 7da2 323e 36ea 763e 0365 953e b305 adbe
00000280: 1024 b0be e594 0abe be8b 76be 91d6 98be
00000290: 667d cbbd a1dc be3b fc76 f7bd d26d 823c
000002a0: ab94 4bbe 0ebc f2bd b851 86b9 5289 843c
000002b0: 7661 d93d 5bbd e7bd f398 543d 2cf2 5e3e
000002c0: 1bb4 a23e b295 43bd 6792 09be 6e96 053e
000002d0: 2ae6 233e 2db9 a2be a278 2fbe e605 033e
000002e0: 59e6 3b3e 0281 10be 6f79 85be 6541 7abe
000002f0: 1b38 04be 8929 843e 954c adbe c268 a03e
00000300: da19 543e eaf3 623e 7649 7bbe 136e 50bc
00000310: 58aa adbe 8e5f 893e d534 a73c 292f 893e
00000320: 30d3 80be 48af 4e3d d041 86be ab62 563b
00000330: 8162 443e e6d7 a23e d25d 8e3c 7d39 36be
00000340: 9852 a6be db62 003e c10e de3d 5520 453d
00000350: 45b7 393d 019b 7d3d 4ece a93e 9c3e 34bb
00000360: fc57 53be a6b1 80bd 459d f6bd 5d72 9c3e
00000370: a1b3 253e 3964 a8be d5b2 0b3e 32bd 873e
00000380: db4e 6e3e 33e6 3a3e 4193 44be 9c81 d9bc
00000390: 2f84 493e c4f5 8d3d 9959 9c3e 95e9 1ebe
000003a0: d23a afbe d05f 9b3e 5b00 04be e5b7 8bbc
000003b0: 5e12 60be 45d3 8b3e c543 00be 8d27 a23e
000003c0: 7a94 81bd d549 4cbe b6a8 193e c402 43be
000003d0: 7edb c0bd 3d7e fa3d b7ab e0bd b3ab 7c3e
000003e0: ddad 3fbe b4fa 513e 5f7a 85bd 6ab6 393e
000003f0: cfdd ee3c a287 b0be dacd a73e c0ea 033e
0.18127963 -0.098732844 0.13701214 0.1258502 0.16460456 0.23464382 0.17077233 0.034352466
0.036410987 -0.012712108 -0.16988291 -0.33387154 0.105057575 0.02686318 -0.24370426 0.07327155
0.09275618 0.15473495 0.1522558 -0.28759107 0.09340175 0.16333078 0.05207032 0.03652207
-0.18582909 0.32689306 0.10311202 0.123735234 -0.00036600584 -0.04856751 -0.1612802 -0.21680441
-0.17193928 -0.14857107 0.18692018 -0.27303007 0.3130187 0.10405762 -0.21099207 0.16064936
-0.23823746 0.3250255 0.0016042767 0.05210999 -0.19745474 -0.12868164 -0.03545305 0.067502014
0.104053676 -0.038406152 -0.0017412334 -0.25985467 -0.20755364 0.12573434 0.18845098 -0.28450465
0.2176825 0.03538513 -0.20839329 0.06917389 0.1546823 0.056548897 -0.053408302 0.06542054
-0.08195166 -0.2537572 -0.33060774 -0.114398636 -0.119394034 -0.16971807 -0.06585034 0.1561225
-0.07892736 0.23903264 0.27784234 -0.32010284 -0.177848 0.029508676 -0.016149694 0.005326508
0.047193453 -0.21265717 0.3237946 0.1930666 0.10190859 0.2989024 -0.31497553 -0.1375305
-0.34161305 0.094390035 0.17038585 -0.32663858 0.14458355 -0.20611621 0.29686123 -0.30458558
-0.27430362 -0.025342021 -0.23170392 0.27485228 0.17314109 -0.31527087 0.021207076 0.005169964
0.009950848 0.30132952 -0.07936572 -0.28131208 -0.2530321 -0.16056973 0.27876705 0.3038817
0.3075961 -0.09453137 -0.32522863 -0.29154164 0.017770179 0.32343477 -0.2980224 -0.24798723
-0.19320688 -0.17556223 -0.21867836 0.09391656 -0.12535515 -0.22376904 -0.13341334 -0.33278307
-0.24119748 0.12009689 0.13999441 -0.3150201 0.108757555 0.25348872 0.08080946 0.2993763
-0.11679985 0.031523503 -0.13887952 0.268285 0.020995026 -0.23129545 0.118268095 -0.21293095
0.3268067 -0.09303822 0.0027449513 -0.03898153 0.1158569 -0.23299275 0.19486952 -0.22047137
-0.09860844 -0.13502803 -0.05946318 0.14007434 0.17444797 0.24112782 0.29178628 -0.3379341
-0.34402514 -0.13533361 -0.24076745 -0.298512 -0.09936027 0.005824641 -0.12083241 0.015921507
-0.19880931 -0.11852275 -0.00025619357 0.01617876 0.10614292 -0.113154136 0.051903676 0.21772069
0.31778035 -0.047750182 -0.13434754 0.13045666 0.1600577 -0.31781903 -0.17135862 0.12795219
0.1834959 -0.14111713 -0.2606921 -0.24439009 -0.12912028 0.2581294 -0.3384749 0.31329924
0.20712987 0.22163358 -0.24539742 -0.012721556 -0.33919024 0.26830715 0.020410934 0.26793793
-0.25161123 0.05046013 -0.26222086 0.003271262 0.19178201 0.31805342 0.017378721 -0.17795368
-0.3248489 0.1253771 0.10842658 0.048126537 0.045340795 0.0619154 0.3316521 -0.0027503138
-0.20639032 -0.06283884 -0.120417155 0.30556002 0.16181804 -0.32888964 0.13642438 0.26511532
0.23272268 0.18251877 -0.19196798 -0.02655106 0.1967933 0.06931642 0.30537108 -0.15518792
-0.34224564 0.30346537 -0.1289076 -0.017055461 -0.21882007 0.27309623 -0.12525852 0.316708
-0.06327148 -0.1995004 0.15005764 -0.19044024 -0.09416865 0.12231109 -0.10970252 0.24674873
-0.18718667 0.20505792 -0.06517481 0.18135992 0.029158501 -0.3447848 0.3277424 0.12882519

pos_encoder.4.bias f4 [96]
00000000: 3243 07be a65f 0a3e fa37 8dbe fc27 3dbe
00000010: 3644 293e 75d2 adbe 8e6e b0be d665 6c3e
00000020: 6649 8ebd 0523 ef3d 904e b2be 443f 07be
00000030: d37b 143e 5ea5 4b3e 96c3 d2bd be3f cfbd
00000040: da22 003b ceb0 38be 0795 073d 0ebd 48be
00000050: 1c0a 39be e9d1 a63e 0be0 9b3e 2b14 a3be
00000060: f0da 9d3e 1c51 333e b8f0 19be 1f88 9d3e
00000070: 3540 98be e5c4 dabd 021d aa3e b5f1 a7be
00000080: 76aa cabd 9f27 0c3e 5960 393e c8fb 643e
00000090: 4a59 50be d355 c3bb 2643 603e f67b ff3d
000000a0: c695 96be f68d 783e fa8b babd e8f4 883e
000000b0: 77bb f1bd fc43 52be 0f6a 053e becd 21bc
000000c0: 9d7a e73d 5782 44bc d454 f6bd 5cc4 92bd
000000d0: d7e7 4bbe 1550 a3bd 9e95 90be cbb1 cfbd
000000e0: 5672 983e e05c d4bd 1aaf 9ebe 58e9 ebbd
000000f0: 9b80 fdbd 232c 2e3d 3b3d bc3c 5089 873e
00000100: a6ab 4f3e 626a ce3d 00b8 03be 9f33 9ebe
00000110: 689e 6abd fceb 86be a8a8 6c3e dddc da3d
00000120: 8310 863e d965 5dbe 8df0 803e 07b6 c93d
00000130: 2cde 8b3e d4a5 0bbd a32d f33d 6b09 2f3e
00000140: b1e5 323d 82e1 103e 3547 3e3e 09ab 063e
00000150: 4727 283e a25f a23e 3c7b f6bd 6725 8abe
00000160: a4a0 03be ab76 1ebc 185b 94be e098 0c3e
00000170: a79c 823e 0906 95bd 1801 5fbe e5fd a73e
-0.13209227 0.1351305 -0.2758177 -0.18472284 0.16529927 -0.33949628 -0.34459347 0.23085722
-0.069475934 0.11676601 -0.34825563 -0.13207728 0.1450036 0.19887301 -0.10291211 -0.1011958
0.0019552023 -0.18036196 0.033101108 -0.19603369 -0.18070263 0.32582024 0.3044437 -0.31851324
0.308311 0.1751141 -0.15033233 0.30767915 -0.29736486 -0.10682086 0.33225256 -0.32801595
-0.09895794 0.13686989 0.1810316 0.22361672 -0.20346561 -0.005961159 0.21900615 0.124748155
-0.29411143 0.24272904 -0.0910873 0.2674935 -0.11803334 -0.20533746 0.1302874 -0.009875713
0.113026835 -0.011993966 -0.120278984 -0.07166359 -0.19912659 -0.07974259 -0.2823915 -0.10141333
0.2977473 -0.10369277 -0.30992967 -0.11519116 -0.12378045 0.04252256 0.022978416 0.2647195
0.20280322 0.10078885 -0.12863159 -0.3089876 -0.057279974 -0.26351917 0.23111212 0.106866576
0.26184472 -0.21620883 0.25183526 0.09849172 0.2731794 -0.034093693 0.11873939 0.17093436
0.043676082 0.14148524 0.18581851 0.13151182 0.16421233 0.31713587 -0.12035224 -0.2698166
-0.12854248 -0.009671847 -0.2897575 0.13730192 0.2551014 -0.07276542 -0.21777761 0.32810894

fc_encoder.0.weight f4 [8, 14]
00000000: d84e aabc a3a9 93bb 443e a2bc a8ab 4fbd
00000010: f37c 903d 9693 243d 58bd 18bb 3b56 5b3d
00000020: 8c1e bd3a ebb0 6c3d d058 0e3d 3ee1 a9bb
00000030: 5703 54bc 3c49 9cbc 8f6b 0b3d 0c86 1dbc
00000040: 1bb1 55bd 743f 793c 4e89 703c 9ff3 183d
00000050: 386e 143d 1db0 083d af4a 893c edd4 e0bc
00000060: 3902 8a3d 6a2a 923b 420c 8e3c 1ad1 9bbc
00000070: f1bf 303d 81f8 e13c b559 2cbd fc09 37bd
00000080: fc45 0a3c 2056 7f3c cd05 e33c f61c 933c
00000090: 3700 103d c546 b6bc 4802 e53b 8a47 e0bc
000000a0: 282a fcbc b993 c93c b5a3 10bc 81d9 5f3c
000000b0: a5a0 a13b c541 343c 3c9b 41bc 433e 813c
000000c0: acd4 9bbd ad3e a8bc d203 8f38 f8e2 1c3c
000000d0: 187d 073c 5fd9 44bc b0da 5fbc 7232 73bd
000000e0: ce18 24bb 71fa 1bbb 0193 16bb 1b59 22bb
000000f0: f697 18bb 5593 1bbb aa72 0dbb 60de 1ebb
00000100: 0e0b 21bb bcf4 1cbb d5f0 0fbb c8a5 1bbb
00000110: 746f 18bb d574 1fbb 308c 32bd 7d6c 27bd
00000120: 65ab 373d 4f8c 02bc c710 91bc 06dd 283d
00000130: 2a96 3dba 546d 9c3d 45f6 d0bc bbcb 443c
00000140: 47ea 0d3d b897 70bd c28e 933c 2b4d 473c
00000150: 0ffa 40bd d8b8 1d3b 0da8 e1bc 0d12 01bd
00000160: fd54 24bd 4f82 b43c 8db3 1f3d aea2 30bd
00000170: 1e51 143d 619f 2c3d 5f52 9abc 728c e9bc
00000180: 6214 bebc 6338 1dbd 8c72 febc da2d 623c
00000190: 568b 643d 4c61 14bc 0b37 35bc 2fed 03bd
000001a0: 6ad7 5c3d b394 03bd 7ae6 1bbc 5763 003d
000001b0: 3095 84bd ef5c 2fbb 268f 6bbc b3f8 a83c
-0.020789549 -0.0045063063 -0.019805081 -0.050700814 0.07055082 0.04017981 -0.0023306217 0.053549033
0.0014428659 0.05778591 0.034752667 -0.0051843217 -0.012940249 -0.01907789 0.034038123 -0.009614479
-0.052170854 0.015212882 0.0146811735 0.03734171 0.036237925 0.03337108 0.016759245 -0.02744528
0.06738705 0.0044606226 0.01733983 -0.019020606 0.0431518 0.027584316 -0.04207774 -0.044687256
0.008439537 0.015584499 0.027712727 0.017958146 0.035156455 -0.022250542 0.0069887973 -0.027377862
-0.03078182 0.024606572 -0.008828093 0.013662697 0.0049324804 0.011002009 -0.011816796 0.015776759
-0.07608923 -0.020537699 6.819483e-05 0.009575598 0.008269571 -0.012014716 -0.013662979 -0.05937428
-0.0025039199 -0.0023800398 -0.0022975805 -0.002477235 -0.0023283935 -0.002373894 -0.0021583238 -0.0024241433
-0.002457324 -0.0023949584 -0.0021963615 -0.0023749936 -0.002325979 -0.0024331112 -0.043590724 -0.040874947
0.04484119 -0.0079680225 -0.017708195 0.04122641 -0.0007232154 0.0763804 -0.025508055 0.012011464
0.034647252 -0.05873844 0.018012408 0.012164394 -0.047113474 0.0024066474 -0.027545953 -0.031511355
-0.040120114 0.022034792 0.038989592 -0.043123893 0.036210172 0.042144183 -0.018838106 -0.028509352
-0.023203079 -0.038383853 -0.03106048 0.013804877 0.055796944 -0.0090564005 -0.011060487 -0.032208618
0.053916372 -0.032124233 -0.009515399 0.031344738 -0.06473768 -0.0026758274 -0.014377391 0.020626402

fc_encoder.0.bias f4 [8]
00000000: 0207 903d 1d3a 083d 5b09 70bd 0c66 16bd
00000010: 5710 84bd 4bbc 1f3d 5f36 243b b460 713d
0.07032587 0.033258546 -0.058602672 -0.036718413 -0.06448429 0.03899793 0.0025056822 0.058930114

fc_encoder.2.weight f4 [16, 8]
00000000: a397 0ebd a746 643e 2e93 583e a6b0 da3d
00000010: e7a2 733f 42f5 2ebe 0012 b53d 2eb2 da3c
00000020: df78 c2bc 3c60 5e3c 4a2d 713e 925f 15bd
00000030: 463d 003f eade de3e a008 833e 7a68 983e
00000040: bcdd 96be 18e4 c4be 180c 0ebf 9564 fa3d
00000050: 408c 013d 80a9 033f f278 a13d bc09 c13e
00000060: e521 863e 8548 153d fad6 1f3e 7d7a e7bd
00000070: 9be3 9d3c 7697 ab3e 351f 1c3f 493d a1be
00000080: 3855 c23d 877f 1bbe 2ae6 68be 33fe 62be
00000090: f855 94be ecad 8b3e 1f0a 23bf 79b5 d0bd
000000a0: 5006 8abe 2f7d 853e 9503 f4bd 18a8 223e
000000b0: 56c3 263f 3114 8cbe e130 dbbe f838 153f
000000c0: d6c0 33bd caef 09bf 5422 2f3e 686f 4a3d
000000d0: a1a0 20bf d816 f73e e413 3f3f 2132 f0bd
000000e0: 37be b2be 876d aa3d c81b a43e 582e 4ebd
000000f0: 1f6e 1fbf 9018 6b3e 9763 333d 06c8 c73e
00000100: 4881 ee3d 2f34 b73e 80fb c03b 731d 7ebd
00000110: 84c6 05bf 15da 35bc b572 f2be e672 953d
00000120: a093 a4bd 8391 b3be 2846 0d3f 9827 5dbe
00000130: 37d8 313e 2325 233f 6634 7c3e 54ff ce3e
00000140: 1e45 9ebd 653a 87be 3e02 8cbe e6d0 a23e
00000150: 7d88 fc3d c533 4e3e 548a 7e3e 8a1e d2be
00000160: 10fb 7abc ca41 f73e afe8 66be 03ad c83e
00000170: 2dfb fcbe 9dcc 0ebe 961f 7d3e 4365 9a3d
00000180: ffdd a13e 7e9a f4bc b7e7 f73e 255c 8bbd
00000190: 103b 25bf 3794 ad3e 59a6 5e3e 8ec8 763e
000001a0: f536 073f 54a7 ffbe 92e4 da3e 5292 14be
000001b0: c28b 493e 9a94 853d be9b 853d f685 2ebf
000001c0: a12b 563e 0c50 d9be c47e af3e 3472 903e
000001d0: 31c6 1cbf ab7b 22bc f09a 043f 2e83 d2be
000001e0: 8e1d 83be c5c7 a43e fe62 27be 1935 a53d
000001f0: 2401 29bf d813 b5be dbc5 e0be f439 c63e
-0.03481258 0.22292577 0.21149895 0.10678224 0.95170444 -0.17085746 0.08841324 0.02669629
-0.023739276 0.013572749 0.23552433 -0.036468096 0.50093496 0.43529445 0.25592518 0.2976721
-0.29466045 -0.38455272 -0.55487204 0.12226216 0.031627893 0.5143051 0.078843966 0.3770274
0.26197734 0.036446113 0.15609351 -0.1130266 0.01927357 0.33513993 0.6098512 -0.3149207
0.094889104 -0.15185367 -0.2274405 -0.22167282 -0.2897184 0.2728113 -0.6368732 -0.10190863
-0.2695794 0.2607207 -0.11914746 0.15884435 0.6514181 -0.27359155 -0.4281073 0.5829005
-0.043885075 -0.53881514 0.17102939 0.04942265 -0.627451 0.48259616 0.74639726 -0.11728311
-0.34910747 0.08321672 0.32052445 -0.050337166 -0.62277406 0.22958589 0.04379615 0.39019793
0.11645752 0.35782 0.005889356 -0.062039804 -0.52256036 -0.011099358 -0.4735314 0.07297306
-0.0803597 -0.35071954 0.55185175 -0.21597135 0.17367636 0.6372854 0.24629363 0.40429175
-0.07728027 -0.2641174 -0.2734546 0.31800002 0.123307206 0.20136936 0.24857455 -0.41038924
-0.015318647 0.4829238 -0.22549699 0.39194497 -0.49410382 -0.13945241 0.2471908 0.075388454
0.31614682 -0.029858824 0.48418972 -0.068046845 -0.6454325 0.3390214 0.21743144 0.24099943
0.5281823 -0.4993235 0.4275251 -0.14508942 0.1968222 0.06522484 0.06523846 -0.6817316
0.2091508 -0.42443883 0.34276402 0.2821213 -0.61239916 -0.00991718 0.51798916 -0.41115707
-0.25608486 0.32183662 -0.16346356 0.08066768 -0.66017365 -0.35366702 -0.43900952 0.3871609

fc_encoder.2.bias f4 [16]
00000000: d39a 3bbe 4539 8fbe a558 00bf 6060 4a3f
00000010: 4dcb 133f 9c26 be3e 2345 4abf 5f9e 513e
00000020: 4fde 3e3f d950 2fbf 76cb f6bd 114c c73e
00000030: df7f 68bd b69f 0bbf f07b e23e 344d ffbe
-0.1832078 -0.2797338 -0.5013526 0.79053307 0.5773209 0.37138832 -0.79011744 0.2047057
0.74557966 -0.6848274 -0.12050526 0.38925222 -0.056762572 -0.54540575 0.44235182 -0.4986359

fc_encoder.4.weight f4 [32, 16]
00000000: d5d6 883e 70f0 cf3e 780f 533e 4e2b 1f3e
00000010: ac24 fbbd 9d9b fcbd 6ef3 aa3e 13d6 5fbe
00000020: c6dd ed3e 3f28 aebe c0b1 933e e4fd b43e
00000030: a83a 8fbe 206f 123f 0312 8a3d 2248 4e3e
00000040: ac41 533d 44ce a3bc 8fb5 acbe 193d 2a3e
00000050: 03d6 1f3e f753 7ebe 68ba 81be c7b5 ae3e
00000060: d2cf 0b3f cfd6 e93d e97b d53e b973 29be
00000070: ac5a 0cbf f92f 873e 92cb 07bf 1062 9abe
00000080: 8000 9b3e d818 323e efd1 ba3e 4660 be3e
00000090: 334c 5e3e 5433 9e3e fcbf 91be 7d41 c8be
000000a0: cc65 c7bd 85ca 083e 6106 d1be 91eb e7be
000000b0: 7dab d2be 2649 f9be 5086 df3e e40f 813c
000000c0: 085e 823e 7bb8 843e 105e 513e 4004 4c3c
000000d0: a8a6 76be a22e 91be 44fb a7be b6bb 01bf
000000e0: bcf2 b5be 445a 0dbf 7ed0 a53d 3aae b0bd
000000f0: f601 873e 36c7 10bf 1e49 14be e2d3 c0be
00000100: 0704 d93e 832f 75be dffe d43e 1500 b3bd
00000110: 5a42 c6be c95c c7bd 3376 de3e 8c23 1ebd
00000120: 42f7 ea3e a107 c33d 4efc 14be c57f 61be
00000130: 3941 bbbd af49 b6be cc61 41be daa4 fcbc
00000140: 16b9 9ebe 2904 9bbe 7c3f 5cbd 2c46 2a3e
00000150: 7c50 f53e b5c2 de3e d657 a0bd 84b2 513c
00000160: 66c0 f1be 12f4 64bd 7376 d03e 7433 263e
00000170: 37ea 123f 4caf fd3e f9bd da3d d183 523e
00000180: 1651 16be de93 17bf 0027 ee3e 9d0f 7dbd
00000190: ca86 bd3e cf61 753e bb7c b3be 72de bb3e
000001a0: 704e 0cbf 9b50 043f c23f c7be 9287 c23d
000001b0: d3fd d5bd cef1 273e c710 b93e d947 8f3e
000001c0: a25f a03e dba4 813e 0e36 493e c760 b53e
000001d0: 1630 95be 84a0 f6be 33d5 a83e 8c85 8b3e
000001e0: ef9a 11bf 7e71 633e 98de c03d 7ffb c53e
000001f0: 026f f73e b5b7 f5bc e4d1 e0be 90f9 8a3e
00000200: 8116 e5be 025a 7d3e dd04 a43d 94b0 3ebe
00000210: 0757 97be f3f0 9e3e ce89 0a3f 8614 b0be
00000220: 8c71 013f 112a 10bf 1e3a c7be 309c c5be
00000230: 6368 003f b081 82be 7fac 25be 9ab2 823e
00000240: c226 e43e c312 89be 35bb 10be 1cc5 a6be
00000250: 32cc 053e d294 cb3e d992 193f a918 08be
00000260: 5c82 683e 691f c8bd 01ca 1abe 5556 ad3d
00000270: 0049 21be 0f5b 5dbe 7608 86be 95fb d13a
00000280: 449c 9a3d 9d57 c0be 5e54 f13d 5a13 e3be
00000290: cd59 0c3f b90b c8be dcc4 583e d995 71bb
000002a0: 594b 85be 5aba 0abf 1503 42be e9b8 f2be
000002b0: 4fd0 05be 90dc 1abe 633a 113f 8dea dfbe
000002c0: 7aca 70be b86a f83d 4bd1 ca3e f951 da3d
000002d0: 800f dfbe f2b3 0b3f 7c23 b2be 518d cc3e
000002e0: 2e11 e0be 439d 23be e969 6b3e a408 f2be
000002f0: f290 dbbd f314 da3e 5e26 f33d d716 fbbd
00000300: 1856 163f f81a efbe 7828 7d3e 4c23 d43d
00000310: c0b8 c2be fe6d 7d3e 54a2 c6bd 5a14 e83e
00000320: 4b23 0fbf a7e2 f6be b6d1 3bbc c4fc 79bd
00000330: bb19 b33e f713 433e d79a cd3e fa2c cf3e
00000340: fd06 073e cf61 07bf 56ca b4be 71ad b8bd
00000350: 9021 473e 59f6 ae3d 00f1 dd3d d62e 05bf
00000360: fc02 c03e b099 8f3e f88c cebe dc8d 6e3e
00000370: 88f6 cbbe 24e6 ecbe 1aa3 b73e 58ad b63e
00000380: f687 4e3d 0d21 813e aa23 b2be 5491 8a3d
00000390: 0392 92bd c88b f73e 6631 8ebd 8da4 c2be
000003a0: b764 62be 01e7 533e c9d5 babe ac29 95be
000003b0: 82c7 3fbe 36b1 5e3d e283 963e ff7c 8cbe
000003c0: 7c42 a2be 24a8 80bd 8f3d b2be 2bae 86bd
000003d0: 2f52 92be 84b7 87be 1a82 8dbe 1dc2 313e
000003e0: 66de ddbe e256 ae3c b2d2 f03e cbe4 f53e
000003f0: 716a c03e f726 8dbe 21ad 6dbd 373f a73d
0.26726404 0.40613127 0.2061137 0.15543863 -0.12262854 -0.123343684 0.33388847 -0.21859007
0.46458262 -0.3401508 0.2884655 0.35349953 -0.2797444 0.57200813 0.06741717 0.20144704
0.0515763 -0.019995816 -0.33732268 0.1662487 0.15608983 -0.24836718 -0.2533753 0.3412306
0.54613984 0.114179246 0.41696098 -0.16548051 -0.54825854 0.26403788 -0.53045 -0.3015294
0.3027382 0.1739229 0.36488292 0.37182826 0.21708755 0.30898535 -0.28466785 -0.39112464
-0.09736213 0.13358505 -0.4082518 -0.4529691 -0.4114646 -0.4868862 0.4365716 0.015754648
0.25462365 0.25921997 0.20446038 0.012452185 -0.24087012 -0.2835589 -0.32808888 -0.5067705
-0.35536754 -0.5521586 0.08096407 -0.08626981 0.26368684 -0.5655397 -0.14481017 -0.37661654
0.42385885 -0.23943906 0.416007 -0.0874025 -0.38722497 -0.09734494 0.43449554 -0.03860812
0.45891768 0.095229395 -0.14549372 -0.22021396 -0.091432996 -0.3560309 -0.18884963 -0.030840326
-0.31000584 -0.3027661 -0.05377148 0.16628331 0.47912967 0.43507925 -0.078292534 0.012798909
-0.472171 -0.055896826 0.4071537 0.16230565 0.57388633 0.49547803 0.10680766 0.20558096
-0.1467937 -0.5921 0.4651413 -0.061782468 0.37016898 0.23963092 -0.350561 0.3669315
-0.54807186 0.51685494 -0.3891583 0.09498514 -0.10448804 0.16400835 0.36145613 0.27984503
0.31322962 0.25321087 0.19649526 0.35425398 -0.2913825 -0.4816934 0.32975158 0.27250326
-0.56877035 0.22211263 0.094174564 0.3866844 0.4832688 -0.029994825 -0.43910134 0.27143526
-0.44743732 0.24741367 0.0800874 -0.18622047 -0.29558584 0.31043205 0.54116523 -0.34390658
0.50563884 -0.5631419 -0.38911527 -0.38595724 0.5015928 -0.2548957 -0.16179083 0.25526887
0.4456082 -0.26772127 -0.14133914 -0.32572258 0.13066176 0.39761978 0.59989697 -0.13290657
0.22705978 -0.09771616 -0.15116121 0.08463732 -0.15750504 -0.21616767 -0.2617833 0.0016020412
0.075493366 -0.37566844 0.1178367 -0.44350702 0.54824525 -0.39071444 0.21168846 -0.0036862998
-0.26034048 -0.541906 -0.18946488 -0.474067 -0.13067745 -0.151232 0.56729716 -0.43733636
-0.23514739 0.1212973 0.39612803 0.10660166 -0.43566513 0.5457145 -0.34792697 0.39951566
-0.43763107 -0.1597796 0.2298962 -0.47272217 -0.107210055 0.42594108 0.11872552 -0.12260216
0.5872512 -0.46700263 0.24722469 0.10358295 -0.38031578 0.2474899 -0.096989304 0.45328027
-0.5591323 -0.48219797 -0.011463573 -0.06103207 0.34980568 0.19050585 0.40157196 0.40464002
0.1318626 -0.5288362 -0.3531062 -0.09017456 0.19446397 0.08543081 0.10836983 -0.5202459
0.37502277 0.28046942 -0.40341926 0.23296303 -0.39836526 -0.46269333 0.35866624 0.35679126
0.05042263 0.25220528 -0.34792835 0.067660004 -0.07156756 0.48348832 -0.06943016 -0.38016167
-0.22108732 0.2069359 -0.3649123 -0.29133356 -0.1872845 0.05436822 0.29397494 -0.27439114
-0.3169135 -0.0628207 -0.3481259 -0.06576189 -0.28578326 -0.265072 -0.27638322 0.17359205
-0.4333374 0.021281663 0.47035748 0.48026118 0.37581208 -0.2756879 -0.058026437 0.08166354

fc_encoder.4.bias f4 [32]
00000000: 7412 dc3e dba3 c5be 93d0 b13e 3fbe 8f3e
00000010: 70bd 833e 4ea2 b73e 6751 bcbe 65af b33e
00000020: 799a fabe 15e1 8ebe 5d6c cc3e a3d1 cd3e
00000030: 75b0 be3e f359 48be 62cb d93d 91f3 9d3e
00000040: 5e3d edbe 621c cebe d216 a63e c8c5 de3e
00000050: 146f d6be 18dc 9fbd fd83 3e3e 4803 9fbe
00000060: 1925 a7be 009f ed3e f2a7 8f3e be61 3bbe
00000070: d1a2 f53c a5f3 95be cf36 f23e e5ba 06bf
0.4298283 -0.38601574 0.34729442 0.28074834 0.25730467 0.35866016 -0.36780855 0.35094753
-0.48945978 -0.279061 0.39926425 0.40199003 0.37244 -0.19565563 0.10634495 0.3084989
-0.46335882 -0.4025603 0.32439286 0.4351027 -0.4188162 -0.078056514 0.18605037 -0.3105719
-0.3264549 0.4641037 0.2805782 -0.18299004 0.029984863 -0.2928745 0.4730744 -0.5262893

decoder.0.weight f4 [128, 128]
00000000: 5b03 c33b 7fbb ed3b 7f35 9d3b 182b 953b
00000010: 95ef d23b 4be1 943b 294e 70bb 2490 053b
00000020: b183 9dbb 5295 783b 49b1 a5bb a877 bfbb
00000030: 2645 d23a 1972 a8bb f676 b6ba 5d60 223c
00000040: 7013 c5bb af64 313b 9e09 80ba e0cf 8fbb
00000050: bd5b 433b 59ab 8dbb 27a0 0a3b 0147 ebb9
00000060: d538 cb3b e0c3 9d3b 881b 5abb fb7d 813b
00000070: 13ae dd3b af05 bd3a 26a0 c13b e0ea 1d3c
00000080: 57fa 7c3a 0e8a 3c3c 6419 88bb 5c85 bdb9
00000090: 00b9 dc3a d131 5bb9 3afe e6ba 5a6e 84bb
000000a0: 07a3 2fbb 1ee5 863a a2a3 3a3c d364 7bba
000000b0: 2223 9cbb f02f 543a 6042 f039 9200 f13b
000000c0: a145 ee3b db14 103a a739 2bba 2b5b 903b
000000d0: 3cec dfba 769a 86bb 99db cd3b c61d 96bb
000000e0: 460b 32bb bf84 9ebb 3f1d 4f3b a939 cd3b
000000f0: d1d2 d33a baa9 eaba aa3a 4c3b 46fa ed3a
00000100: c6c7 00bb eee1 e83a ac45 febb 0b9d 28bb
00000110: 0e96 91bb f055 f3ba 6925 a539 e576 353c
00000120: 8568 453b 567a 643b d338 1b3c ba0a 39ba
00000130: fa43 513c 89d0 553b 6155 833b 8965 e3ba
00000140: bd84 c43b 8dba e3ba 8f5c 9e3b 2a49 0c3b
00000150: a14a 10bc 5e87 19bc 49f8 9db9 f4a0 e2bb
00000160: 2528 a7ba 1731 a23b bd63 d83b 2400 abba
00000170: edb1 803b b02e b03b 1b62 19bc ae67 163b
00000180: 805e 04bb a30a 213b 8b91 753b ec73 49bb
00000190: a4c1 23bc c4b7 d9bb e6e3 34bb 68fe 8b3b
000001a0: 3550 a53b 6b47 bb39 28d9 cabb a694 d13a
000001b0: 1a34 933a 5209 ecba f766 1a3a 712d faba
000001c0: 1087 2639 3a7b 033a 3cda 3bbb eb8a c2ba
000001d0: 1861 72bb da57 203b a863 b63b fc2b 81ba
000001e0: 7be3 edba bf0f 0fbb 4424 153b ed91 babb
000001f0: 6bc7 3eb8 6381 bcbb 1262 3ebb edfb 433c
00000200: 8e56 543b 1c19 ef38 c929 07bc cac5 8abb
00000210: 3819 43bb ea17 e7bb 698f 053b 05d5 c7ba
00000220: 5bad 2f3a e96c 2bbc 356f aa3b 1bb8 e7bb
00000230: bbf0 d43a bd68 48bc 40a8 9c3b 7bea 87bb
00000240: 0f2f 93bb e26e 84bb a1d7 63bc 997c bfbb
00000250: 0e25 743b c054 b83b 9d81 193c e56e 84ba
00000260: d104 28bc 3758 603b f219 5f3c 07e5 713a
00000270: 5b9f 72bb 7538 3cbc e3ec 323c ccee f9bb
00000280: 0c17 a43b 8038 77ba bd6d d5bb 3a93 623b
00000290: 96a8 5f3c ea01 41bc 1fd7 8a3b 5c0f 103c
000002a0: 90b7 16bb 22ef 8a3b e75c c63b c877 233c
000002b0: ecea 4539 6e5b 743b 6466 903b 5908 daba
000002c0: 394b 0abb 38ef 7a3b 7514 14bb 4ea7 56bb
000002d0: 0b65 f13b a238 e139 7928 5ebb 772b c63a
000002e0: d8f7 e9bb dc4c cd3b f0b3 25bb dc36 08bb
000002f0: 807b 14bb 8354 b239 d957 183c a570 093b
00000300: 2f8a 43bb afc4 1c3c b14e 6d3b c6b6 58bb
00000310: adc4 7abb 91bc b7bb c4ce 99bb 5c9c a7ba
00000320: 49f5 9dbb 04d9 cdbb 7c94 e73b 07d4 d23a
00000330: 3a47 72bc e2c3 1ebc 50e0 30bb 0ff3 7d3b
00000340: b118 00bc 9f00 0a3a 41eb 01bc 6444 69bb
00000350: 26dc 5a3c 8ffc b639 8e65 de3b d9c5 c73a
00000360: 929d 2bbc 83ca 31bb 6efb fdbb 3202 203c
00000370: d767 2fbc e2fb 3aba a6ca 813b cd70 b9ba
00000380: adb9 3ebb 87bd 073b 0ad1 f23a 9afc 073b
00000390: 2da8 4cbb 6ea1 2fbb 2d21 e7bb 72df 77ba
000003a0: f2cb a438 a869 d23a 621d c43a 79e9 4f3b
000003b0: ce4f 4a3b f360 153b ac97 5bbb 6b48 91bb
000003c0: fc44 83b9 92fb 233b dc42 d5bb 8807 8a3a
000003d0: 3ea1 01ba be84 103a 6a35 b33b cafc ad3b
000003e0: ab69 4f3b 19ee 693a 051b 0aba 7eac a53a
000003f0: 286e 20bb 953b 77ba 3ef9 14bb 3475 4ebb
0.0059513277 0.0072550173 0.004797637 0.0045522563 0.006437252 0.0045434586 -0.003666768 0.0020380104
-0.0048069586 0.0037930799 -0.0050565344 -0.0058431216 0.0016042336 -0.0051405546 -0.0013920951 0.00991067
-0.00601428 0.0027068069 -0.0009768491 -0.0043887943 0.002980932 -0.0043234047 0.0021152587 -0.00044875595
0.0062018433 0.00481461 -0.003328057 0.0039517856 0.006765136 0.001442125 0.0059089838 0.009638518
0.00096503407 0.011507524 -0.0041534174 -0.0003614825 0.0016839802 -0.00020904026 -0.0017623373 -0.0040414752
-0.0026800053 0.0010291671 0.011391552 -0.0009589914 -0.0047649303 0.00080943014 0.0004582582 0.0073548043
0.007271484 0.0005496272 -0.0006531723 0.0044053993 -0.0017083953 -0.0041077686 0.0062822816 -0.004581186
-0.0027167364 -0.004837602 0.0031603125 0.006262977 0.0016160851 -0.0017903366 0.0031162896 0.0018156252
-0.0019650324 0.0017767528 -0.0077597704 -0.002572837 -0.0044429367 -0.001856504 0.00031499125 0.01107571
0.0030122113 0.0034862957 0.009473997 -0.00070587883 0.0127725545 0.0032625517 0.0040079807 -0.0017348985
0.005997269 -0.0017374322 0.004832811 0.0021405914 -0.008806855 -0.009370653 -0.0003013036 -0.0069161598
-0.0012753053 0.0049496996 0.0066036866 -0.0013046307 0.0039274604 0.0053766593 -0.009361769 0.0022949982
-0.0020197928 0.002457299 0.0037470784 -0.003073926 -0.009994898 -0.006644221 -0.0027601658 0.004272271
0.005044962 0.0003572063 -0.006190438 0.0015989735 0.0011230737 -0.0018008149 0.0005889977 -0.0019087029
0.00015881308 0.00050156156 -0.0028664013 -0.0014842426 -0.0036984142 0.0024466426 0.005566079 -0.0009855027
-0.001814946 -0.0021829454 0.0022757212 -0.0056936652 -4.5485252e-05 -0.005752729 -0.0029050154 0.011961919
0.0032400223 0.00011401085 -0.008249708 -0.004235004 -0.002976967 -0.0070524113 0.0020379669 -0.001524598
0.0006701552 -0.010462978 0.005201245 -0.0070715076 0.001624606 -0.012232003 0.004780799 -0.0041478253
-0.004491694 -0.0040415386 -0.01390639 -0.0058437106 0.0037253532 0.0056253374 0.009369281 -0.001010385
-0.010255055 0.0034232268 0.013617026 0.0009227548 -0.0037021253 -0.01148807 0.010920736 -0.0076273438
0.00500763 -0.00094307214 -0.006513326 0.0034572617 0.013651034 -0.0117802415 0.00423707 0.008792724
-0.0022997595 0.0042399326 0.0060535553 0.009977289 0.00018874899 0.0037285942 0.004406737 -0.0016634568
-0.0021101965 0.0038289558 -0.00225952 -0.003275353 0.0073667816 0.0004295754 -0.0033898635 0.0015119155
-0.007140141 0.006265266 -0.0025284253 -0.0020784652 -0.002265662 0.00034013772 0.009298288 0.0020971682
-0.0029837003 0.009568377 0.0036210234 -0.0033067926 -0.00382642 -0.0056071957 -0.004693838 -0.0012787688
-0.0048205 -0.006281974 0.0070672613 0.0016084918 -0.01478749 -0.009690257 -0.002698917 0.003874961
-0.007818387 0.0005264375 -0.007929624 -0.0035593743 0.013358152 0.00034901916 0.0067870086 0.0015241458
-0.010474579 -0.0027128763 -0.00775092 0.009766148 -0.01070591 -0.00071328704 0.003960925 -0.0014147997
-0.002910237 0.0020712332 0.0018525433 0.0020749927 -0.003122817 -0.00267991 -0.0070535154 -0.0009455598
7.858117e-05 0.0016053217 0.001496237 0.0031724854 0.0030870321 0.0022793382 -0.0033507152 -0.0044336817
-0.00025037664 0.0025021774 -0.0065082144 0.0010530809 -0.00049449864 0.0005512944 0.005469014 0.005309676
0.0031648676 0.0008923724 -0.00052683085 0.0012639908 -0.002447972 -0.00094311807 -0.0022731568 -0.0031502964

decoder.0.bias f4 [128]
00000000: 0d9c c33a 8415 1bbb 3ec5 c53a cd66 91bb
00000010: c326 173c e774 f1bb 443f 9dbb b4c8 c3bb
00000020: 682d 1fba cba3 fab9 0a47 c63b c424 e1bb
00000030: 8903 55bb fb57 023c 837e 4d3b db27 adbb
00000040: 6863 663b e771 2c3b e30b e13a 73fb 983b
00000050: 6882 f1bb ff6a 333a 484d 53ba 9157 50bb
00000060: 9b5a 803b 89a1 babb 2b5a 853b 553e 083b
00000070: 70ea 733a 7033 23bb 1fd7 9fbb 6eb7 1cbc
00000080: 479f 263b 3efc e83b f6ec 083c ffb0 4d3b
00000090: 0bbb 1e3c e46f 383c fe96 a1bb 5a86 5d3b
000000a0: efd6 a53b 2ea0 5c3a d843 20bc 5d69 c0bb
000000b0: 6db7 46bb 3799 4f3b 8262 f8bb de42 e0bb
000000c0: 344c 16bc 10dc 483b c7a4 b93b 38e6 863b
000000d0: 86ca bf3b beff d83b e025 d139 7d9f 133b
000000e0: ccdf 15bc 272a 35bb d594 aeb9 4786 82bb
000000f0: e651 b4bb 0d5f abbb 2fe6 5c3b dda8 5f3b
00000100: d4f2 453a 77e6 0dbb f202 0e3b c939 e6bb
00000110: 750d 79bb 0617 893b 08d7 d2bb fb7a d63b
00000120: 422f 87ba 314b e83b 7315 e3bb efad 6fbb
00000130: bd57 a0bb f3dc 8d3b ad1d d1bb fef2 82bb
00000140: 80a9 8abb d0af bebb 9f2e 963b b02a a33a
00000150: d9c9 8f3b f0b3 17bc 0e94 0dbc 02e1 c9bb
00000160: e5e3 f53b 5d3c 4f3b 25f6 d33b d609 11bc
00000170: e8cb 4cbc 7897 e2bb 2544 dbba 5932 75ba
00000180: 2b1d 2dbb cad0 583b 0c32 afbb 0d19 313b
00000190: c41c 30bb e385 2bbb e3b1 5b3b 8701 6ebb
000001a0: 4121 a0b9 c185 21bb 8f73 3d39 7124 c23a
000001b0: de46 ed3b 9d85 af3b fc76 af3b 8fc9 2ebc
000001c0: 4bc4 703b e879 e93b d5b5 af3b 8188 0f3c
000001d0: 027e 1f3a d59f 6b3b 6f33 90bb 1556 d139
000001e0: 0e37 be3b 388b 4fbb f239 df3b d524 bcbb
000001f0: e8aa 07bc d20e 813b e3da b63b f493 c13b
0.0014923826 -0.0023663947 0.001508869 -0.0044373036 0.00922555 -0.007368672 -0.0047988016 -0.0059748534
-0.0006072135 -0.0004780575 0.006050949 -0.006870838 -0.0032503328 0.0079555465 0.0031355924 -0.005284292
0.0035154466 0.0026313008 0.001716968 0.004668647 -0.007370282 0.0006844252 -0.0008060527 -0.0031790475
0.003917051 -0.005695526 0.0040695868 0.0020789106 0.0009304648 -0.0024902485 -0.0048779394 -0.009565217
0.0025424527 0.0071101477 0.008357277 0.0031386015 0.009688149 0.011257146 -0.0049313297 0.0033802004
0.0050610225 0.00084162026 -0.0097818 -0.0058719353 -0.0030321733 0.0031677017 -0.0075801024 -0.0068439087
-0.009173442 0.0030648746 0.005665395 0.0041167997 0.005853 0.0066222837 0.00039891805 0.0022525482
-0.009147596 -0.0027643533 -0.00033298755 -0.0039832923 -0.005502927 -0.005229837 0.0033706536 0.003412775
0.0007551138 -0.002165226 0.0021669236 -0.0070259315 -0.0038002406 0.004183653 -0.006434325 0.006545422
-0.0010313767 0.0070890416 -0.006930047 -0.0036572178 -0.0048932717 0.0043293177 -0.0063817115 -0.003996252
-0.0042316318 -0.0058192983 0.0045831944 0.0012448635 0.004388076 -0.009259209 -0.008641256 -0.006160856
0.007503974 0.0031621673 0.0064685517 -0.008852443 -0.012499787 -0.006915029 -0.0016728683 -0.00093535107
-0.002641509 0.0033083432 -0.005346542 0.0027022988 -0.0026872614 -0.0026172332 0.0033522777 -0.0036316828
-0.00030542354 -0.0024646374 0.00018067494 0.0014811886 0.007241114 0.005356504 0.00535476 -0.0106681725
0.0036738093 0.007125128 0.0053622522 0.008760572 0.0006084145 0.0035953422 -0.0044006626 0.00039927723
0.005804903 -0.0031668674 0.0068123275 -0.0057416954 -0.008280493 0.0039385343 0.0055802925 0.00590753

decoder.2.weight f4 [64, 128]
00000000: 7835 a1bd 17ff eebd 6a7b c7bd b371 3ebe
00000010: d564 ca3d 9728 a5bd 8a27 00be 4838 a33d
00000020: 8ce6 34be 3797 5fbc c2a0 583e 3bde 083e
00000030: 1cb3 093e 647b a3bd 1add ffbd a611 383e
00000040: 369c 87bc 4ad8 c8bd 8d71 25be 680c 39be
00000050: 0553 eb3c c5d1 be3b a441 c8bc b5fc ec3d
00000060: ed32 e43d 96a8 be3d e841 363e da0e 75bd
00000070: 11ff 07be 5de5 8ebd e99c 023e 6220 babc
00000080: 69e5 e13d 6881 24be 5086 e53d e247 143c
00000090: ae26 e73d f52e febd 3b8c 923d a4c7 b3bd
000000a0: 27bb 51bc a496 333e 9d0c 93bb bbaf e7bd
000000b0: 8bf2 babd 37c5 7a3d c618 dcbc c050 533d
000000c0: 4c5a 31be 3582 a83d bf5a 40be 5a30 79bd
000000d0: 9433 933d 0730 1f3e 4148 f13d 9453 053e
000000e0: 3f8c 42be d8c4 5bbb 9ae7 19bd 0ba1 413e
000000f0: ff46 17be e86c 9f3c d1f8 1ebe bc9f aa3d
00000100: 3a29 353c 47dd d6bd 46ac 1b3d 2a29 3b3e
00000110: a8ab 4e3e 7ef0 873b 087f 0c3d c70f 60be
00000120: fab7 7a3e 6bd3 bcbc 90b4 9b3c 0334 493d
00000130: 4bd9 32be 4d4c 20be ad9b 753c ddef 173e
00000140: f2c1 2b3e ed43 56be f351 65be 914a 60bd
00000150: 8f03 ac3c 8bc3 363e c0cd 863d 486c 15be
00000160: 7bb5 893d 3763 7c3d 79df 71bd 7c9a 0c3d
00000170: c021 173d eeb2 23be b853 48bd 727b 653d
00000180: 23d2 f0bd 6bc4 34be ea62 0fbe 686e babc
00000190: 15c4 29be fd85 1d3e 8a2f 26be d777 a0bd
000001a0: 4320 b2bd c79c 0f3e ca1b 07bd 2c5a 3fbe
000001b0: 442f 393e ec45 133e 422d 93bd c982 c2bb
000001c0: 1a64 40be f052 99bc 7321 0abb 4491 2d3e
000001d0: c6c5 c6bd 0cdf 60bd 67f1 a2bd 3c92 39bc
000001e0: cd3a 913d ef77 1f3c 09cc 15be ff77 fa3b
000001f0: 705b 8fbb 6a69 39be cc7f 20be 5967 48bd
00000200: 8589 4ebd 9b2f 353d 1ff0 4d3e 57db 6cbd
00000210: a1f4 97bd ed14 523e e515 d7bd 0349 54bd
00000220: dcef b33d 4475 cd3d 183c 383e e4ea c3bd
00000230: f868 1cbe d381 923d 7394 f93b e3c9 9a3d
00000240: ac3f 8b3c 9188 b9bc b44b 12bd cffb e43d
00000250: f0a2 f4bc c7c8 67bd 7710 a13d c351 0ebe
00000260: 914c 2bbe 814c 2f3e 0ffd 6f3d 6548 273e
00000270: cc8e c4bd 211e f0bd 2735 27be 1efa 1ebe
00000280: 5bd5 1c3e f9ae 08be a589 e53c 6723 2ebd
00000290: aa41 463e d525 243e c3b9 dbbd 6198 2d3e
000002a0: 572c 07be 8699 3bbe 562c 1d3e b044 f4bd
000002b0: 95b2 083e cbf5 21bd ef76 273e dc15 8cbd
000002c0: b7fb 393e f305 a3bd 5f39 153e 8182 313e
000002d0: 9adb 56bd 9298 9e3c bc9f 3c3e aa7e 303d
000002e0: 46ac 87bb c5e5 be3d b382 2a3e 6e76 4dbd
000002f0: 324f bf3c 0783 a13d a3b9 47be 52da ecbd
00000300: 83bc b8bd c96f d13d ce5a 24be a754 523e
00000310: 4286 14be 4ee1 3a3e e496 b1bd d6f9 28be
00000320: 1490 7fbb c97c 47be 4370 1e3d 3a10 fcbd
00000330: 0389 2dbd 2ab7 4b3e 6f05 56bd c0c6 2abe
00000340: ec8d f43d 3867 07be e5e7 033e 2a95 1abe
00000350: 3224 58bd 372f 8d3d 2393 b4bd a645 6ebd
00000360: 224e f23d 150b 20be 201e 29bc 66f6 323e
00000370: 9e20 633d b6eb 24be b3ee 093d e4ce 10bc
00000380: d189 e83d 1f45 79bd a635 643e c11d 29be
00000390: 866e 7d3d 604c 64bd c4f5 8d3c 17a3 b23c
000003a0: aad6 0cbe fac7 59be 8bf9 153c 75c8 583d
000003b0: 0e7c 263e 8059 853d 55d6 29be 3abd c4bc
000003c0: 45a6 323e c782 ef3d 53ac 333e 73ec 89bc
000003d0: 637b 013e 34b7 963d 2d32 453b 73f6 8d3d
000003e0: 1aa1 d7bd fee8 4a3e 05ad 273e 2706 dbbd
000003f0: 7b64 9f3d 1a2e cabd 3efd 543d 2392 4d3d
-0.078715265 -0.11669748 -0.09740336 -0.1859806 0.098825134 -0.080643825 -0.12515083 0.07969719
-0.17666072 -0.013646892 0.21155074 0.13366024 0.13447231 -0.07982519 -0.12493344 0.17975482
-0.01655398 -0.09806879 -0.16156597 -0.18071139 0.02872611 0.0058233463 -0.024445362 0.115716375
0.11142526 0.09309499 0.17798579 -0.059828617 -0.13280894 -0.06977341 0.12755169 -0.02272052
0.11030085 -0.1606499 0.11207259 0.009050341 0.112866744 -0.124113 0.07155653 -0.08778313
-0.012800968 0.17537934 -0.0044875876 -0.11312815 -0.09128293 0.061223235 -0.026867282 0.05159068
-0.17319602 0.0822796 -0.18784617 -0.060837127 0.07187572 0.15545665 0.117813595 0.13020164
-0.18998812 -0.0033534076 -0.037574388 0.1890909 -0.14773177 0.01946111 -0.15524603 0.08331248
0.011057192 -0.10491424 0.03800609 0.18277422 0.20182669 0.004148542 0.034300834 -0.21881019
0.24484244 -0.02305003 0.019006997 0.049121868 -0.17465703 -0.15654106 0.014990729 0.14837594
0.16773203 -0.20924349 -0.22394542 -0.054758612 0.02099779 0.17848031 0.065822124 -0.14592087
0.06724068 0.061618056 -0.05905101 0.034327015 0.03689742 -0.15986225 -0.048907965 0.05602593
-0.117588304 -0.17653053 -0.14002576 -0.022757724 -0.16578706 0.15383144 -0.16229072 -0.07835358
-0.0869756 0.1402465 -0.032985486 -0.18686742 0.18084437 0.14382142 -0.071863666 -0.005936001
-0.18788186 -0.018716305 -0.0021077066 0.16949946 -0.09705691 -0.054900214 -0.079562 -0.011326369
0.070912935 0.009733184 -0.14628614 0.007643699 -0.004374914 -0.18106619 -0.1567375 -0.048926685
-0.050424118 0.044234853 0.2011113 -0.057826366 -0.07419706 0.20515795 -0.10502223 -0.051827442
0.08785984 0.10032132 0.17991674 -0.09566286 -0.15274417 0.07153668 0.0076165735 0.07558038
0.016998135 -0.022648128 -0.035716727 0.11180841 -0.02986285 -0.05658796 0.078644685 -0.13898377
-0.16728427 0.17119028 0.058590945 0.1633621 -0.09597549 -0.11724497 -0.1632887 -0.155251
0.15315764 -0.13347997 0.028019736 -0.04251423 0.19360986 0.16030057 -0.107287906 0.16952659
-0.13200508 -0.18320283 0.15348944 -0.119271636 0.13349374 -0.039541047 0.16353963 -0.06840107
0.18162428 -0.07960119 0.14572667 0.1733494 -0.052455522 0.01935986 0.18420309 0.043089546
-0.0041404096 0.09321169 0.1665142 -0.05016177 0.023353193 0.078863196 -0.19504409 -0.11565079
-0.09020331 0.102263995 -0.16050264 0.20540105 -0.1450434 0.1825001 -0.08671358 -0.16501555
-0.003899579 -0.19481196 0.03868128 -0.123077825 -0.042366993 0.1989409 -0.052251276 -0.1667738
0.11941132 -0.13222969 0.1288143 -0.15095964 -0.052768894 0.06893771 -0.088171266 -0.05817189
0.11831309 -0.15629227 -0.010322124 0.17476806 0.055451028 -0.16105542 0.033674907 -0.008838389
0.113544114 -0.060856935 0.2228609 -0.16515256 0.06187298 -0.0557369 0.017329104 0.021806283
-0.13753763 -0.21267691 0.009153734 0.052925546 0.1625826 0.065112114 -0.16585667 -0.024016012
0.1744624 0.11694866 0.17546205 -0.01683638 0.12644725 0.07359162 0.0030089722 0.06931772
-0.105287746 0.19815442 0.16374595 -0.10694533 0.07782837 -0.098720744 0.051999323 0.050188195

decoder.2.bias f4 [64]
00000000: 6844 203e 98bc 413e 551d 03be 9ddd 41be
00000010: df7f 1b3e d106 863d 3cd6 323e 3d4c 2cbe
00000020: f671 a8bd 2c2e 38be ec67 0abe a73d e73c
00000030: 0e50 403e 3dec 613c 51d5 fd3d 7882 323e
00000040: bcee 12bd 2d24 9f3d 71e7 24bd d7ae 223e
00000050: 58de ab3d 1203 293e 3dea e03d f7fd 473e
00000060: 5934 08be 84ab 37be 9f7e d7bd 509d a93d
00000070: 5413 94bc 230c dabd f893 3d3e 2e8d aebd
00000080: 7cbc a23c 6a34 b33d fee3 943d 7229 873d
00000090: db2a 013e f02c b3bd a5bc 3e3a dffd 37be
000000a0: 0d44 0a3e 29a8 c03d 01a2 493d b26b 1e3d
000000b0: 0ecf 07be 87d7 433e a182 ba3d 8801 133e
000000c0: 774d 30be 8185 7abc 881a 4e3e 7a84 87bb
000000d0: 556c 403e 1712 d1bd 71b9 2fbe d335 5e3d
000000e0: c8f1 44be 9f46 073e d044 473e 5627 b6bd
000000f0: d26d 933d 78f5 663d aa32 29be ceea 473e
0.15651095 0.18919599 -0.12804158 -0.18932195 0.15185498 0.06544269 0.17464536 -0.16825958
-0.08224861 -0.17986363 -0.13516206 0.02822764 0.18780538 0.013789234 0.123942025 0.17432582
-0.035872206 0.07770572 -0.040259782 0.15887009 0.08392018 0.16505077 0.109821774 0.19530474
-0.13301219 -0.17936522 -0.10522198 0.08281958 -0.018075623 -0.10646846 0.18513477 -0.08523022
0.019865267 0.087502316 0.072700486 0.06599702 0.12614004 -0.087488055 0.0007276035 -0.17967938
0.13502522 0.09407074 0.049226765 0.038676925 -0.13262579 0.19125186 0.09106947 0.14356053
-0.1721705 -0.015290619 0.20127308 -0.0041356655 0.18791325 -0.102085285 -0.17160584 0.05425055
-0.19232857 0.13210534 0.19459844 -0.088942215 0.07198681 0.05638644 -0.16523233 0.19523165

decoder.4.weight f4 [1, 64]
00000000: 235e b2bc 4920 ec3c c1ec 7e3d 77d2 b8bd
00000010: 6cf8 023e 4568 2d3e d668 80be 2491 4a39
00000020: ece5 053e 50c3 ec3d c718 31be 23bb ca3d
00000030: 89fc 70be 88ca 7b3d 4330 28be 6ba6 a03c
00000040: c7c0 153d 12d4 51be 1877 2d3c 11ed 583d
00000050: 16f3 9b3c f54b 29be 1465 3a3e 1f28 323e
00000060: fc5e c2bc f77d c43d 7430 603d 1996 10be
00000070: a96f 4d3e 91c5 91bd e69e 243e 5e8a a83d
00000080: ef43 ee3d 01a4 69be 97f0 253d 6476 9bbc
00000090: 8daa 733d d2a1 19be b4ba bfbc 8e2b f1bd
000000a0: 6c8d 7a3c c203 cd3d b620 823c e6b7 76be
000000b0: 1331 823e bf4f a33d b42c 90bd 60bb 50bd
000000c0: e6f8 94bd 964e 4cbe a73c 70be e89e 83be
000000d0: b798 f5bc 0174 94bd 8184 9e3d 63ff 2b3e
000000e0: 8e8b 58bc a3d8 6e3e 7f17 02be 8f69 13be
000000f0: 7541 cd3d 15fb 813e c7ce 043b b1b2 553e
-0.021773404 0.028823989 0.062237505 -0.09024518 0.12790078 0.16934307 -0.25079983 0.0001931829
0.1307599 0.115606904 -0.17294608 0.09898975 -0.23533835 0.061472446 -0.1642466 0.019610604
0.0365608 -0.20491055 0.010587476 0.05296046 0.01903681 -0.16532882 0.1820262 0.17398117
-0.023726933 0.095943384 0.05473371 -0.14119758 0.20062126 -0.07117761 0.1607624 0.082295164
0.11634051 -0.22816469 0.040512647 -0.018977351 0.05948882 -0.15003136 -0.023404457 -0.117758855
0.015292507 0.10010482 0.015884738 -0.24093589 0.25428066 0.07974195 -0.070397764 -0.050959945
-0.07274036 -0.19951853 -0.23460637 -0.25707173 -0.029980047 -0.072486885 0.07740117 0.16796641
-0.013216866 0.23324828 -0.12704276 -0.14395736 0.100222506 0.25386873 0.002026485 0.20868947
