Training/checkpoints/wind_pressure_200_5/mlp/model_50.pth (torch, 132355 bytes, 17 tensors)

pos_encoder.0.weight f4 [24, 1]
0	0x3e494501	0.19655229
1	0x3b904337	0.004402544
2	0xbf6561f4	-0.8960259
3	0xbf4935d6	-0.7859777
4	0xbe541eb7	-0.20714842
5	0xbf727c81	-0.9472123
6	0x3ee2dd72	0.44309574
7	0xbf07b586	-0.5301136
8	0x3e5af0e2	0.21380952
9	0xbf58a5b6	-0.84627855
10	0xbdc00777	-0.09376424
11	0xbe772ad9	-0.24137439
12	0xbdd0247d	-0.101632096
13	0x3d45d1fc	0.04829596
14	0xbf1ef9ee	-0.6210011
15	0x3e1965ec	0.14980286
16	0x3e8e1240	0.277483
17	0x3e2774f1	0.16353203
18	0x3e525691	0.20540835
19	0xbf751e21	-0.957491
20	0xbe1333fd	-0.143753
21	0xbf442933	-0.76625365
22	0xbf33ba20	-0.7020588
23	0xbd5f8198	-0.05456695

pos_encoder.0.bias f4 [24]
0	0x3f5a8f27	0.85374683
1	0x3e8edf77	0.27904865
2	0x3f251fa1	0.64501387
3	0xbd0f8a87	-0.03504422
4	0xbf12578f	-0.57164854
5	0x3f511c10	0.81683445
6	0x3f18df52	0.5971576
7	0x3f3593ba	0.7092854
8	0x3f1465b8	0.5796771
9	0x3f26edc5	0.6520656
10	0xbf10e65e	-0.5660151
11	0x3d8d61bb	0.06903406
12	0x3f2f2cf0	0.68427944
13	0x3efc8051	0.49316648
14	0xbf476653	-0.7789051
15	0x3ea72766	0.32647246
16	0x3f6d8961	0.9278775
17	0xbf446c4e	-0.7672776
18	0xbf327d35	-0.697223
19	0x3e01505e	0.12628314
20	0x3ead5de8	0.33860707
21	0xbf2e15db	-0.680021
22	0xbf636905	-0.8883212
23	0x3e54174d	0.20712014

pos_encoder.2.weight f4 [48, 24]
0	0xbe83d29a	-0.25746614
1	0xbea1c996	-0.3159911
2	0xbe07c0ca	-0.13257137
3	0xbeb34141	-0.35010722
4	0x3ec3d1ac	0.38245904
5	0x3e84c3de	0.25930685
6	0xbe1dfebc	-0.15429205
7	0x3c4c0efe	0.012454746
8	0x3e73f009	0.23822035
9	0x3eed2f0b	0.46324953
10	0xbedf3928	-0.43598294
11	0x3ca12b89	0.01967408
12	0xbe1b5c08	-0.15171826
13	0xbe002ad1	-0.12516333
14	0xbbb80585	-0.0056158924
15	0xbcf2a78d	-0.02962091
16	0xbeadc6ca	-0.33940727
17	0x3e765db0	0.24059176
18	0x3dd9bbfd	0.10631559
19	0xbe50d518	-0.20393789
20	0x3ea57052	0.32312256
21	0xbe800607	-0.25004598
22	0xbe16c7df	-0.14724682
23	0xbdb40b1d	-0.08791182
24	0xbddd6216	-0.10809724
25	0xbea866fe	-0.32891077
26	0xbedf8418	-0.43655467
27	0x3e5d6790	0.21621537
28	0xbde922d3	-0.11383595
29	0x3ec40ddc	0.38291824
30	0x3eb5cefe	0.35509485
31	0x3e22108b	0.15826623
32	0x3deccba9	0.115622826
33	0x3b0c599a	0.0021415711
34	0x3eb96de9	0.36216667
35	0x3e86ef08	0.2635424
36	0x3ec9f120	0.39441776
37	0x3da3051b	0.07959958
38	0xbe8ffd40	-0.28122902
39	0xbeb00bd2	-0.34384018
40	0xbe40bd36	-0.18822178
41	0x3e885423	0.2662669
42	0x3ee1b174	0.44080698
43	0x3e0c552b	0.13704364
44	0xbd9b2c84	-0.0757685
45	0xbe323b66	-0.17405471
46	0x3e1b78a4	0.1518274
47	0xbe9f1eaa	-0.31078082
48	0xbeb5b005	-0.35485855
49	0x3e86ed23	0.26352796
50	0xbd91eb45	-0.07124952
51	0xbeeec17b	-0.4663199
52	0x3ee714c7	0.4513304
53	0xbedb09da	-0.42780954
54	0x3e683e96	0.22680125
55	0x3e8559d8	0.26045108
56	0x3cc31a62	0.023816291
57	0x3e51ed91	0.2050078
58	0xbe1f42a5	-0.15552767
59	0xbe2f38c8	-0.17111504
60	0xbe4e6636	-0.20156178
61	0xbe959258	-0.29213214
62	0x3ef5ac41	0.47982982
63	0xbe852318	-0.26003337
64	0xbeb6ba54	-0.35689032
65	0x3ed7cffc	0.42150867
66	0xbe06d001	-0.13165285
67	0xbeab07ae	-0.33404297
68	0x3e84dc6f	0.25949427
69	0xbeaadbd8	-0.33370852
70	0x3dee2e55	0.11629931
71	0x3ec764c5	0.3894407
72	0x3d7f1aba	0.062281348
73	0x3d385444	0.045002237
74	0x3de33f13	0.11096015
75	0xbefaeb4e	-0.49007648
76	0x3e911d01	0.2834244
77	0xbea86e39	-0.32896593
78	0x3ebcc169	0.3686631
79	0xb9ce3f84	-0.00039338705
80	0xbea2f980	-0.31830978
81	0xbf025d9c	-0.50924087
82	0xbe394319	-0.18092002
83	0xbe09f84f	-0.13473628
84	0xbe23f4e1	-0.16011383
85	0x3dc25324	0.09488514
86	0x3ebb8d9b	0.36631474
87	0xbe300967	-0.17191087
88	0xbea827e2	-0.32842928
89	0x3e9d94ce	0.3077759
90	0xbe34fa47	-0.17673598
91	0x3d231461	0.039814357
92	0x3dc35374	0.09537402
93	0xbdab3ede	-0.083616
94	0x3de8d6d9	0.11369104
95	0xbe987086	-0.2977335
96	0xbde9abb4	-0.11409703
97	0x3e3049c2	0.17215636
98	0xbd608c98	-0.05482158
99	0x3ed5c4f8	0.41751838
100	0xbea00764	-0.3125564
101	0x3ed2ec1d	0.41195765
102	0xbeaa6dbd	-0.3328685
103	0x3d70594c	0.05867891
104	0xbe983fdd	-0.29736224
105	0xbe3bd54f	-0.1834309
106	0xbd9b306a	-0.075775936
107	0x3e1c64e2	0.15272859
108	0x3e830da0	0.25596333
109	0xbe98222d	-0.29713574
110	0xbe0709cc	-0.13187331
111	0xbee9f0ba	-0.45691472
112	0xbe856da5	-0.26060215
113	0xbeb246cd	-0.34819642
114	0x3d4f20c3	0.050568353
115	0xbd607b49	-0.054805074
116	0x3ef54081	0.47900775
117	0xbe3ddcc8	-0.18541253
118	0xbe7d42ad	-0.24732466
119	0xbeac860f	-0.3369603
120	0x3d403056	0.046921097
121	0xbea99638	-0.3312242
122	0x3ea126be	0.3147487
123	0x3e360bfa	0.17778006
124	0x3e52614a	0.20544925
125	0x3ea2959e	0.31754774
126	0x3ed0328d	0.40663567
127	0x3eeb9ee0	0.4601965
128	0xbe3e52e1	-0.18586303
129	0xbecf3e83	-0.4047738
130	0xbe8edef9	-0.2790449
131	0x3eceb8b5	0.40375295
132	0xbdbdac3f	-0.09261369
133	0x3e51ce1e	0.20488784
134	0xbe0dfd23	-0.13866095
135	0xbe6d06e6	-0.23147163
136	0xbebad5f5	-0.3649136
137	0x3ec732b0	0.3890586
138	0x3e1852b8	0.14875305
139	0xbe0892cd	-0.1333725
140	0xbe2531ce	-0.1613228
141	0x3e1b08b8	0.15140045
142	0x3dab11af	0.08352982
143	0xbf01cb42	-0.5070077
144	0x3ec5fa4a	0.38667518
145	0xbde906dc	-0.113782614
146	0x3e6cb801	0.23117067
147	0x3e3d2f09	0.18474974
148	0xbee641d1	-0.4497209
149	0xbe5e46ec	-0.21706742
150	0x3edb1173	0.4278675
151	0xbea1546c	-0.3150972
152	0x3ec9f56a	0.3944505
153	0xbeb8c936	-0.36091012
154	0x3e87a86a	0.26495677
155	0xbebd1a42	-0.36934096
156	0x3e4584c0	0.19288921
157	0x3eb1e549	0.34745243
158	0x3e300a7b	0.17191498
159	0xbe0d7ece	-0.13817903
160	0xbe1165de	-0.14199015
161	0xbef4f33b	-0.4784182
162	0x3d5ac9a0	0.05341494
163	0x3e6b3aac	0.229716
164	0xbd35bf8f	-0.044372138
165	0xbea3e03e	-0.3200702
166	0xbe0c781b	-0.13717692
167	0xbe610802	-0.21975711
168	0x3dd3b199	0.103366084
169	0x3ea1039b	0.31448063
170	0xbee832a6	-0.45351142
171	0xbe7b2029	-0.24523987
172	0x3e9b950e	0.30387157
173	0xbe124e5c	-0.14287704
174	0xbe1fb718	-0.15597188
175	0xbea663dd	-0.32498065
176	0xbe7c014b	-0.24609868
177	0x3eb1271c	0.3460015
178	0x3ea6c061	0.32568648
179	0x3e7e155a	0.24812832
180	0x3ea4df0b	0.32201418
181	0x3e3d80ef	0.18506216
182	0x3e636f89	0.22210516
183	0x3ed9e802	0.4255982
184	0x3ef41cf8	0.4767835
185	0x3e5b1189	0.21393408
186	0xbebc2ee1	-0.36754516
187	0xbe913d7c	-0.2836722
188	0x3d2ea9b7	0.04264232
189	0x3e3f222f	0.18665384
190	0xbe04f165	-0.1298271
191	0xbe31493a	-0.1731309
192	0x3e01d32f	0.12678216
193	0x3ebb4e8a	0.36583358
194	0xbed19f98	-0.40942073
195	0x3d992831	0.07478369
196	0x3e6b487b	0.22976868
197	0xbd0fbcce	-0.035092168
198	0x3e8b2abb	0.27181038
199	0xbe01572c	-0.1263091
200	0xbeeb27ec	-0.45928895
201	0xbe271f99	-0.16320647
202	0x3ed20eee	0.41027015
203	0x3e85ffe6	0.26171798
204	0xbec67c4d	-0.3876671
205	0x3e4fe0e4	0.20300633
206	0xbeddb55d	-0.43302432
207	0xbedf7d25	-0.43650165
208	0x3eef6adf	0.46761224
209	0x3e7f6946	0.24942502
210	0xbe13d855	-0.14437993
211	0x3e62436c	0.22096032
212	0x3ed1c7d5	0.40972772
213	0x3e3e2ed6	0.18572554
214	0x3ef4ec97	0.47836754
215	0xbee2fd62	-0.4433394
216	0x3d25e12d	0.040497947
217	0xbed0fa14	-0.40815794
218	0x3eed696f	0.46369502
219	0xbd2e2db5	-0.04252406
220	0x3e1d9fe9	0.15393032
221	0x3d6334c2	0.055470236
222	0xbdf803f8	-0.12110132
223	0x3ebd9f1e	0.3703546
224	0xbedb6332	-0.42849118
225	0x3e30c5d3	0.17262964
226	0x3e54a44b	0.20765798
227	0xbed3a911	-0.41339925
228	0xbe1b464f	-0.1516354
229	0xbccc69f5	-0.024952868
230	0xbdf57da7	-0.11986857
231	0xbe31e188	-0.1737119
232	0x3eb8492a	0.3599332
233	0xbe9de54b	-0.30839
234	0xbc2df9a3	-0.0106186
235	0x3d5f8d8c	0.05457835
236	0xbce20a4e	-0.027592804
237	0xbeca2016	-0.39477605
238	0x3ec44f0d	0.3834156
239	0xbeb59a3d	-0.35469237
240	0xbd8cc51a	-0.06873532
241	0xbef1ee09	-0.4725192
242	0x3e81e7c2	0.2537213
243	0x3ee23266	0.44179076
244	0xbef517c6	-0.478697
245	0x3e29f91f	0.16598938
246	0x3ec74d15	0.38925996
247	0xbe4414bb	-0.19148533
248	0x3e1a2e16	0.15056643
249	0xbeaa2bdc	-0.33236587
250	0xbc85ece5	-0.016348312
251	0x3e1288e6	0.14310035
252	0x3e6c233f	0.2306032
253	0xbe8c36d7	-0.2738559
254	0xbe8d5210	-0.2760167
255	0x3eb60550	0.35550928

pos_encoder.2.bias f4 [48]
0	0xbedae455	-0.4275233
1	0xbe33916c	-0.17535943
2	0xbd3df816	-0.04637917
3	0xbeeef95f	-0.4667463
4	0x3e40df97	0.18835293
5	0x3e647b09	0.22312559
6	0x3e9a109e	0.30090803
7	0xbebd1133	-0.36927184
8	0x3e77738b	0.2416517
9	0xbe21b9d9	-0.15793552
10	0x3dcc3b5c	0.099722594
11	0x3d666300	0.056246758
12	0xbd043a68	-0.032282263
13	0x3ece0049	0.40234593
14	0xbec0aeb5	-0.3763329
15	0xbe7363ae	-0.23768494
16	0x3e1af5f3	0.15132885
17	0x3ee74353	0.45168552
18	0x3ef9a9e4	0.4876243
19	0xbec0bcdf	-0.37644097
20	0x3efe7b7c	0.49703586
21	0xbe9ce787	-0.3064539
22	0xbe3c4c63	-0.18388514
23	0xbe34bf1e	-0.1765103
24	0x3d401bc1	0.04690147
25	0xbeba5072	-0.363895
26	0x3e01820c	0.12647265
27	0x3e6e729d	0.23285909
28	0x3e9c78bc	0.30560863
29	0x3e457481	0.19282724
30	0xbee85748	-0.4537909
31	0x3e89f310	0.26943254
32	0xbd8e394f	-0.069445245
33	0xbe8d3816	-0.27581853
34	0x3e7a68e6	0.24454078
35	0xbe72f885	-0.23727615
36	0xbeb117fd	-0.34588614
37	0xbe6966bd	-0.22793098
38	0xbec9db4b	-0.3942512
39	0xbeeb0671	-0.45903352
40	0xbe9be898	-0.30450892
41	0xbde2b2f0	-0.11069286
42	0xbec9dea4	-0.39427674
43	0x3ec58b75	0.3858296
44	0x3e8d6538	0.27616286
45	0x3eba06d7	0.36333343
46	0x3edc60b9	0.43042544
47	0xbd94211d	-0.07232878

pos_encoder.4.weight f4 [96, 48]
0	0x3e377745	0.17916591
1	0xbdcc9ba2	-0.09990622
2	0x3e09af2d	0.1344573
3	0x3dfc4dcb	0.12319525
4	0x3e29a3e7	0.1656643
5	0x3e713102	0.23553851
6	0x3e2fd46c	0.17170876
7	0x3d07ba0c	0.033136413
8	0x3d1642c8	0.03668478
9	0xbc54bb5d	-0.012984124
10	0xbe2c141e	-0.16804549
11	0xbeaab820	-0.333436
12	0x3dd4f084	0.10397437
13	0x3ce95f49	0.028487818
14	0xbe78b27c	-0.24286836
15	0x3d93585b	0.07194587
16	0x3dbbc55a	0.09168501
17	0x3e1e701b	0.15472452
18	0x3e1c7beb	0.15281646
19	0xbe93aa8d	-0.28841057
20	0x3dbdbfe1	0.092651136
21	0x3e262792	0.16226032
22	0x3d524330	0.051333606
23	0x3d169046	0.036758684
24	0xbe3e43f2	-0.18580607
25	0x3ea73bf2	0.32662922
26	0x3dcfb652	0.10142197
27	0x3dfd22ec	0.123601764
28	0xba11ed35	-0.00055666576
29	0xbd3e3590	-0.0464378
30	0xbe25a369	-0.16175617
31	0xbe5c3404	-0.21504217
32	0xbe2f5e41	-0.17125799
33	0xbe186dba	-0.14885607
34	0x3e41dbe7	0.18931542
35	0xbe8cc546	-0.27494258
36	0x3ea04daf	0.31309268
37	0x3dd21637	0.102581434
38	0xbe58c854	-0.21170169
39	0x3e251a4e	0.16123316
40	0xbe745cb4	-0.23863488
41	0x3ea6c399	0.32571104
42	0x3b71e81f	0.0036912037
43	0x3d5e56c7	0.054281976
44	0xbe4b2b8e	-0.19840834
45	0xbe03612f	-0.12830041
46	0xbd0ddce0	-0.03463447
47	0x3d8b54f6	0.068033144
48	0x3dd6f9a4	0.10496834
49	0xbd20acc6	-0.03922727
50	0xbb3a2ce4	-0.0028408105
51	0xbe8551b0	-0.26038885
52	0xbe53aa5c	-0.20670456
53	0x3dfcdad6	0.12346427
54	0x3e410e6f	0.18853162
55	0xbe9112d6	-0.28334683
56	0x3e5db29a	0.21650162
57	0x3d17827b	0.03698967
58	0xbe55470d	-0.20827885
59	0x3d8dd150	0.06924689
60	0x3e205431	0.15657116
61	0x3d63852c	0.055546924
62	0xbd5abf6c	-0.05340521
63	0x3d84dd0e	0.06487475
64	0xbda8e22f	-0.08246266
65	0xbe81acb3	-0.25327072
66	0xbeaa47c4	-0.33257878
67	0xbdeb4d5f	-0.11489367
68	0xbdf519b9	-0.11967797
69	0xbe2c7df5	-0.16844924
70	0xbd853225	-0.06503705
71	0x3e1f8d74	0.15581304
72	0xbd9c41c1	-0.07629729
73	0x3e7511d6	0.23932585
74	0x3e8d8f45	0.27648368
75	0xbea2e6f1	-0.3181682
76	0xbe37d645	-0.17952831
77	0x3cf83557	0.030298872
78	0xbc7d6c07	-0.01546765
79	0x3b9b502f	0.0047397832
80	0x3d48fec4	0.04907109
81	0xbe594b1d	-0.2122006
82	0x3ea57980	0.3231926
83	0x3e453bf6	0.19261155
84	0x3dcf2302	0.10114099
85	0x3e995c0c	0.2995304
86	0xbe9fafee	-0.3118891
87	0xbe0c7248	-0.1371547
88	0xbeae6364	-0.34060204
89	0x3dc5429e	0.09631847
90	0x3e2c7ad6	0.16843733
91	0xbea81cb4	-0.328344
92	0x3e15a36e	0.14613125
93	0xbe540136	-0.20703587
94	0x3e968b5d	0.294032
95	0xbe9c98d9	-0.30585364
96	0xbe8baee1	-0.2728186
97	0xbcbf2711	-0.023334058
98	0xbe6d70e6	-0.23187599
99	0x3e8c3d96	0.27390736
100	0x3e33daa6	0.17563877
101	0xbea13619	-0.31486586
102	0x3ca2a0ca	0.01985206
103	0x3bb8b05b	0.0056362576
104	0x3c32cc85	0.010913019
105	0x3e9a0154	0.30079138
106	0xbda085c4	-0.07838014
107	0xbe8fb12c	-0.2806486
108	0xbe81f047	-0.2537863
109	0xbe24dc17	-0.16099583
110	0x3e8c734b	0.27431712
111	0x3e9c4156	0.30518597
112	0x3e9cd84a	0.30633765
113	0xbdc2e036	-0.09515421
114	0xbea68b4f	-0.3252816
115	0xbe941688	-0.2892344
116	0x3c9185d9	0.017764019
117	0x3ea6533d	0.3248538
118	0xbe988586	-0.2978937
119	0xbe7e7004	-0.24847418
120	0xbe46c18f	-0.19409774
121	0xbe36c677	-0.17849146
122	0xbe624810	-0.22097802
123	0x3dc0e777	0.094191484
124	0xbdfd1688	-0.12357813
125	0xbe650e81	-0.22368814
126	0xbe07f45d	-0.13276811
127	0xbea9b995	-0.331494
128	0xbe78c9e9	-0.24295773
129	0x3df69f0a	0.12042053
130	0x3e0fc0ab	0.14038341
131	0xbea2fa53	-0.31831607
132	0x3de01f1e	0.10943435
133	0x3e82eba5	0.25570408
134	0x3da1c877	0.07899564
135	0x3e99685b	0.2996243
136	0xbdedb4cd	-0.11606751
137	0x3ced8f79	0.028999077
138	0xbe0c5a12	-0.13706234
139	0x3e8a2229	0.26979187
140	0x3ca4fac4	0.020139106
141	0xbe6cf37f	-0.23139761
142	0x3df778be	0.120835766
143	0xbe5c4fc2	-0.215148
144	0x3ea7f0d1	0.32800916
145	0xbdbd7c12	-0.0925218
146	0x3b5aec58	0.0033405032
147	0xbd232e7f	-0.039839264
148	0x3deed3de	0.11661504
149	0xbe6e632b	-0.23280017
150	0x3e47478e	0.1946089
151	0xbe62736a	-0.2211434
152	0xbdce7084	-0.100800544
153	0xbe09fd52	-0.1347554
154	0xbd73b3b7	-0.05949756
155	0x3e0c12c5	0.13679035
156	0x3e33aee9	0.17547192
157	0x3e78312e	0.2423751
158	0x3e954a6a	0.29158336
159	0xbeac9cb5	-0.33713308
160	0xbeb00cbd	-0.3438472
161	0xbe0a58b6	-0.13510403
162	0xbe778036	-0.24170002
163	0xbe987f3a	-0.29784566
164	0xbdce2042	-0.100647464
165	0x3bed9b6f	0.007251195
166	0xbdf95a91	-0.12175477
167	0x3c807411	0.015680345
168	0xbe4b0a43	-0.19828133
169	0xbdf71c70	-0.12065971
170	0x38f8b477	0.00011859176
171	0x3c71ee58	0.014766298
172	0x3dd6f14e	0.10495244
173	0xbde88876	-0.11354153
174	0x3d4d8755	0.05017789
175	0x3e5d9926	0.21640453
176	0x3ea23679	0.31682184
177	0xbd415eda	-0.047209598
178	0xbe0a401f	-0.13501023
179	0x3e03a7e1	0.1285701
180	0x3e211743	0.1573153
181	0xbea240cb	-0.31690058
182	0xbe2dc1a4	-0.169684
183	0x3e00b612	0.12569454
184	0x3e3c7b2d	0.18406363
185	0xbe0fc168	-0.14038622
186	0xbe85782b	-0.26068243
187	0xbe78805e	-0.24267718
188	0xbe026f69	-0.12737812
189	0x3e84092d	0.2578825
190	0xbead4630	-0.3384261
191	0x3ea079a5	0.31342807
192	0x3e531617	0.20613895
193	0x3e63afec	0.22235078
194	0xbe7bfe8d	-0.24608822
195	0xbc575e46	-0.013145035
196	0xbead131a	-0.33803636
197	0x3e89f5b1	0.2694526
198	0x3cb43a15	0.022000352
199	0x3e893b1f	0.26802918
200	0xbe81667f	-0.2527351
201	0x3d52062f	0.05127543
202	0xbe865140	-0.26233864
203	0x3b818eeb	0.0039538047
204	0x3e4430dd	0.19159265
205	0x3ea2b569	0.3177903
206	0x3c8229bb	0.01588904
207	0xbe35d6d6	-0.17757735
208	0xbea679f8	-0.3251493
209	0x3dfe3755	0.124128975
210	0x3ddd6d75	0.10811893
211	0x3d46b457	0.04851183
212	0x3d3886e1	0.045050506
213	0x3d805bcf	0.06267511
214	0x3ea9638a	0.33083755
215	0xbb593335	-0.0033142094
216	0xbe5562cc	-0.2083847
217	0xbd7ecc52	-0.062206574
218	0xbdf3b1ce	-0.11899148
219	0x3e9bafe0	0.3040762
220	0x3e23f913	0.16012983
221	0xbea7d6c6	-0.32781047
222	0x3e0c1cd7	0.13682877
223	0x3e8707c2	0.26373106
224	0x3e6e64dc	0.23280662
225	0x3e3b0d76	0.18266854
226	0xbe428f30	-0.18999934
227	0xbce2b9cb	-0.027676484
228	0x3e49ede2	0.19719651
229	0x3d8ece5f	0.06972956
230	0x3e9c8028	0.30566525
231	0xbe1e7f44	-0.15478235
232	0xbeaeec2f	-0.3416457
233	0x3e9b9413	0.3038641
234	0xbe0205c6	-0.12697515
235	0xbc8db77e	-0.01729941
236	0xbe5f8be3	-0.21830706
237	0x3e8bff32	0.27343136
238	0xbdfb5ede	-0.12273954
239	0x3ea22852	0.31671387
240	0xbd82bc49	-0.06383569
241	0xbe4e01e3	-0.20117907
242	0x3e199674	0.149988
243	0xbe4420a8	-0.19153082
244	0xbdc03e9e	-0.09386943
245	0x3dfbf849	0.12303216
246	0xbde3d299	-0.11124153
247	0x3e7c939a	0.2466568
248	0xbe3f8052	-0.18701294
249	0x3e529ae3	0.20566897
250	0xbd87fd65	-0.06640128
251	0x3e3a1bbc	0.18174642
252	0x3cdb19f5	0.026745776
253	0xbeb056d5	-0.34441248
254	0x3ea83d05	0.32859054
255	0x3e01e9bb	0.12686817

pos_encoder.4.bias f4 [96]
0	0xbe069ce6	-0.1314579
1	0x3e08f9c4	0.13376528
2	0xbe8d01a2	-0.27540308
3	0xbe3d56e8	-0.18490183
4	0x3e284311	0.16431834
5	0xbeade107	-0.33960745
6	0xbeb08bfb	-0.34481797
7	0x3e6dd391	0.23225237
8	0xbd8db09a	-0.0691845
9	0x3ded6ac9	0.11592633
10	0xbeb22324	-0.34792435
11	0xbe06ac5f	-0.13151692
12	0x3e164efb	0.14678566
13	0x3e4ab5c6	0.19795904
14	0xbdd380ab	-0.10327276
15	0xbdcf2e41	-0.10116244
16	0x3b2b85c7	0.0026172267
17	0xbe38f14a	-0.18060794
18	0x3cfb1acf	0.030652432
19	0xbe48e42a	-0.19618288
20	0xbe39621b	-0.1810383
21	0x3ea6382c	0.3246473
22	0x3e9bc441	0.30423167
23	0xbea271ee	-0.31727546
24	0x3e9d54d1	0.30728772
25	0x3e348caa	0.17631784
26	0xbe1a284d	-0.15054436
27	0x3e9dd4e1	0.30826476
28	0xbe989524	-0.29801285
29	0xbdd896d4	-0.10575643
30	0x3eaa429f	0.33253953
31	0xbea7ea67	-0.32796022
32	0xbdcc8b04	-0.099874526
33	0x3e09e34a	0.1346561
34	0x3e392e39	0.18084039
35	0x3e658e14	0.2241748
36	0xbe5055c6	-0.2034522
37	0xbb82190c	-0.003970271
38	0x3e5f8728	0.21828902
39	0x3dfdafe4	0.12387064
40	0xbe97062c	-0.29496896
41	0x3e770796	0.24123988
42	0xbdbb4267	-0.091435246
43	0x3e8923e1	0.26785186
44	0xbdf366ba	-0.11884828
45	0xbe531219	-0.20612372
46	0x3e05e867	0.13076936
47	0xbc20812d	-0.009796423
48	0x3de67042	0.1125188
49	0xbc3a5515	-0.011372824
50	0xbdf852d3	-0.121251725
51	0xbd92344b	-0.0713888
52	0xbe4b3440	-0.1984415
53	0xbda4073f	-0.080091946
54	0xbe8fab64	-0.28060448
55	0xbdcf9c8d	-0.101372816
56	0x3e989b1e	0.29805845
57	0xbdd4e739	-0.10395665
58	0xbe9ebe29	-0.31004456
59	0xbdec3da3	-0.11535194
60	0xbdfd309c	-0.12362787
61	0x3d2c3c9e	0.042049997
62	0x3cb2c8af	0.021824209
63	0x3e873478	0.26407218
64	0x3e4f8035	0.20263751
65	0x3dccde99	0.10003395
66	0xbe03f378	-0.12885845
67	0xbe9dd4dd	-0.30826464
68	0xbd6b7a4d	-0.057489682
69	0xbe8639e9	-0.26216057
70	0x3e6dc7bd	0.23220725
71	0x3dd99b64	0.106253415
72	0x3e868dea	0.26280147
73	0xbe5c60c8	-0.21521294
74	0x3e818a6c	0.2530092
75	0x3dcb22e7	0.099187665
76	0x3e8c5497	0.27408287
77	0xbd07fdf2	-0.033201165
78	0x3df2a5cc	0.118480295
79	0x3e2ed9dd	0.17075296
80	0x3d32b640	0.04363084
81	0x3e10b493	0.14131384
82	0x3e3f0d0b	0.18657319
83	0x3e066393	0.13123922
84	0x3e28fc73	0.16502552
85	0x3ea0ec6a	0.3143037
86	0xbdf504e7	-0.11963826
87	0xbe8a4454	-0.27005255
88	0xbe0224f9	-0.12709416
89	0xbc11250c	-0.00885893
90	0xbe94bc78	-0.2905004
91	0x3e0c0cf7	0.1367682
92	0x3e82b131	0.2552581
93	0xbd98d3fc	-0.07462308
94	0xbe5f297f	-0.21793173
95	0x3ea783e8	0.32717824

fc_encoder.0.weight f4 [8, 14]
0	0xbca0bf34	-0.019622423
1	0xbb82d74f	-0.003992952
2	0xbca2fbcf	-0.019895462
3	0xbd440a23	-0.04786123
4	0x3d8bb738	0.068220556
5	0x3d1c5933	0.038171005
6	0xbac9cbe3	-0.0015395846
7	0x3d5949ae	0.053048782
8	0x3b565037	0.003270162
9	0x3d613f18	0.05499181
10	0x3d2186ad	0.039435077
11	0xbbb37b2f	-0.005477331
12	0xbc6649cf	-0.014055683
13	0xbca3b48a	-0.019983549
14	0x3d0ad88c	0.03389792
15	0xbc0058ad	-0.007833642
16	0xbd53a3e4	-0.05166997
17	0x3c902be3	0.017599052
18	0x3c34e8af	0.011041804
19	0x3d1481b4	0.036256507
20	0x3d190b23	0.037364136
21	0x3d0256d7	0.0318211
22	0x3ca0e8f1	0.019642325
23	0xbcdc28f7	-0.026875002
24	0x3d8e111f	0.06936859
25	0x3b3c4239	0.0028725995
26	0x3c8deab5	0.017323831
27	0xbc86c696	-0.016452115
28	0x3d128f72	0.03578133
29	0x3cd4f9b3	0.025997972
30	0xbd2a3b5f	-0.041560527
31	0xbd325521	-0.043538217
32	0x3c0f0bb3	0.008730817
33	0x3c959f72	0.018264506
34	0x3ceaa3a9	0.028642492
35	0x3c9bdea1	0.019027056
36	0x3d0942c2	0.03351093
37	0xbcaed8a4	-0.021343537
38	0x39a38eee	0.00031196274
39	0xbcd48d4b	-0.02594628
40	0xbce19952	-0.02753893
41	0x3cdeee68	0.02721329
42	0xbbd8633f	-0.006603628
43	0x3bf5f3b6	0.0075058592
44	0x36483ca4	2.983762e-06
45	0x3bd84fb8	0.0066013
46	0xbbbef0dd	-0.005827053
47	0x3c284bb5	0.010271956
48	0xbd9d00ec	-0.076661915
49	0xbc699b1a	-0.0142581705
50	0xbb1c19c2	-0.0023819064
51	0x3b92f49d	0.0044847266
52	0x3b2f48bd	0.0026746236
53	0xbc2c65da	-0.01052233
54	0xbc0c52b0	-0.008564636
55	0xbd83dd32	-0.06438674
56	0xbb1c0cc7	-0.0023811327
57	0xbb1f7774	-0.0024332674
58	0xbb14b41d	-0.0022690364
59	0xbb1fa208	-0.0024358053
60	0xbb17c5c3	-0.0023158647
61	0xbb1b9ce3	-0.0023744635
62	0xbb0be49d	-0.002134598
63	0xbb1ae398	-0.0023634192
64	0xbb233398	-0.0024902578
65	0xbb21c26e	-0.002468254
66	0xbb10e0de	-0.0022106688
67	0xbb1b1fd3	-0.0023670092
68	0xbb1d4c9d	-0.0024001964
69	0xbb1ac4bd	-0.00236158
70	0xbd3cfbda	-0.046138622
71	0xbd2029ab	-0.039102238
72	0x3d3b777d	0.04576825
73	0xbc04533f	-0.008076488
74	0xbc8fb967	-0.017544461
75	0x3d26aad4	0.04069026
76	0x3a6ac297	0.0008955388
77	0x3da0ad40	0.07845545
78	0xbcdd7dfb	-0.027037611
79	0x3c261a30	0.0101380795
80	0x3d0a6fc2	0.033797987
81	0xbd71aa23	-0.059000146
82	0x3ca5acbd	0.02022397
83	0x3c2fdfeb	0.010734539
84	0xbd4484b5	-0.04797812
85	0x3b7d306f	0.0038633605
86	0xbceb3cb1	-0.028715463
87	0xbd03f0b9	-0.032211993
88	0xbd20a3e6	-0.039218806
89	0x3c9f96e2	0.019481126
90	0x3d332a8a	0.04374174
91	0xbd36f7d5	-0.044669945
92	0x3d14bcc9	0.036312852
93	0x3d2c9502	0.042134292
94	0xbca62513	-0.02028135
95	0xbcf7805f	-0.03021258
96	0xbcbcf53a	-0.023066152
97	0xbd16fd2a	-0.03686253
98	0xbcfde706	-0.03099395
99	0x3c43eb88	0.0119580105
100	0x3d63134d	0.05543833
101	0xbc40c47e	-0.011765597
102	0xbbf05b4b	-0.0073351017
103	0xbd037aed	-0.032099653
104	0x3d5c254a	0.0537465
105	0xbcf99c18	-0.03046994
106	0xbc3fcc9b	-0.011706497
107	0x3cf48ce9	0.029852347
108	0xbd884806	-0.066543624
109	0xb9a67356	-0.0003174792
110	0xbc560e41	-0.013064922
111	0x3c9a5ccf	0.018843083

fc_encoder.0.bias f4 [8]
0	0x3d911f64	0.070860654
1	0x3d028c8e	0.031872325
2	0xbd7b35f6	-0.061330758
3	0xbd21e037	-0.03952047
4	0xbd846715	-0.06464974
5	0x3d213359	0.03935561
6	0x3b17d2bd	0.0023166381
7	0x3d6ffd2f	0.058591064

fc_encoder.2.weight f4 [16, 8]
0	0xbd1911b9	-0.037370417
1	0x3e58215d	0.21106477
2	0x3e4e6222	0.20154622
3	0x3dcc3416	0.09970872
4	0x3f74df6b	0.9565341
5	0xbe251b55	-0.16123708
6	0x3da358bc	0.07975909
7	0x3cd550fe	0.026039597
8	0xbca51ac0	-0.020154357
9	0x3c23ef9c	0.010005858
10	0x3e6b39fe	0.22971341
11	0xbd238abf	-0.03992724
12	0x3f01e854	0.5074513
13	0x3ed9fdc9	0.42576435
14	0x3e7e93c9	0.24861063
15	0x3e9739f6	0.29536408
16	0xbe902636	-0.28154153
17	0xbebc7431	-0.36807397
18	0xbf07746a	-0.5291201
19	0x3df7c61a	0.12098332
20	0x3ccc5ce2	0.024946634
21	0x3ef624d0	0.4807496
22	0x3dad78a7	0.08470278
23	0x3ebfb7d8	0.3744495
24	0x3e820277	0.25392506
25	0x3d0a22aa	0.033724464
26	0x3e298f6a	0.16558614
27	0xbdd51069	-0.104035206
28	0x3ca74232	0.020417307
29	0x3ea6aabc	0.32552135
30	0x3f18e111	0.59718424
31	0xbe9d820a	-0.30763274
32	0x3d9e274f	0.07722341
33	0xbe290e34	-0.16509324
34	0xbe5a054b	-0.21291082
35	0xbe4c8ffb	-0.19976799
36	0xbe9839ea	-0.29731685
37	0x3e8532ad	0.26015225
38	0xbf236121	-0.6382008
39	0xbdc34c4d	-0.095360376
40	0xbe8241d9	-0.25440863
41	0x3e87f133	0.26551208
42	0xbdfdc7ca	-0.12391622
43	0x3e157601	0.14595796
44	0x3f27ec22	0.65594685
45	0xbe87861a	-0.264695
46	0xbecfe914	-0.40607512
47	0x3f136736	0.5757936
48	0xbd436d1a	-0.04771147
49	0xbf0a1dbd	-0.53951627
50	0x3e330f8d	0.17486401
51	0x3d5b9701	0.053610805
52	0xbf1fde01	-0.62448126
53	0x3ef1ff61	0.4726515
54	0x3f37f329	0.7185541
55	0xbe03762c	-0.12838048
56	0xbeab1eb1	-0.33421853
57	0x3da3bc68	0.0799492
58	0x3ea0e39f	0.3142366
59	0xbd38fb8d	-0.045161773
60	0xbf214df0	-0.6300955
61	0x3e614f16	0.22002825
62	0x3d3b4ede	0.04572951
63	0x3ec3a118	0.38208842
64	0x3df121e5	0.11774043
65	0x3eb6e213	0.35719356
66	0xb9b784ed	-0.00035003517
67	0xbd82ddfa	-0.06389995
68	0xbf07f55c	-0.53108764
69	0xbc8aa2c4	-0.016923316
70	0xbeed2be0	-0.46322536
71	0x3d915cd2	0.07097782
72	0xbd9f6d7f	-0.077845566
73	0xbeb0318f	-0.3441281
74	0x3f0453a0	0.516901
75	0xbe505e66	-0.2034851
76	0x3e2d54dc	0.16926903
77	0x3f1b6446	0.6069988
78	0x3e81c3ef	0.25344798
79	0x3ec8d49e	0.39224714
80	0xbd9d1548	-0.07670075
81	0xbe8d0a2f	-0.27546832
82	0xbe882055	-0.26587167
83	0x3ea02253	0.31276187
84	0x3e1325e0	0.14369917
85	0x3e39ac39	0.18132104
86	0x3e7289d6	0.23685393
87	0xbed38037	-0.41308758
88	0xbc2f4fdb	-0.010700191
89	0x3ef1f1ac	0.47254694
90	0xbe5d99a0	-0.21640635
91	0x3eb8c73f	0.36089513
92	0xbf007b33	-0.5018799
93	0xbe08bbae	-0.13352844
94	0x3e7c21c8	0.24622262
95	0x3d963ce9	0.073358364
96	0x3e9e6cec	0.30942476
97	0xbcb8c42a	-0.022554476
98	0x3ef0ffe4	0.4707023
99	0xbd8f669c	-0.07001993
100	0xbf2422d5	-0.6411565
101	0x3ea78a1e	0.32722563
102	0x3e59b405	0.21260078
103	0x3e720ac4	0.2363692
104	0x3efcdcde	0.49387258
105	0xbf03c313	-0.51469535
106	0x3ecfef26	0.40612143
107	0xbe077461	-0.13227989
108	0x3e58a93c	0.21158308
109	0x3db7c1d3	0.08972516
110	0x3dabf76a	0.083968
111	0xbf2e1dcf	-0.68014234
112	0x3e40c9b5	0.18826945
113	0xbed4e46a	-0.41580516
114	0x3ea9fcc1	0.33200648
115	0x3e8ebedd	0.27879992
116	0xbf1ecfbd	-0.62035733
117	0xbac79968	-0.0015228214
118	0x3efc4fe1	0.49279693
119	0xbecb8951	-0.39753202
120	0xbe78cb16	-0.24296221
121	0x3ea0c499	0.31399992
122	0xbe2412a1	-0.16022731
123	0x3da5eecb	0.08102187
124	0xbf28ea9b	-0.6598298
125	0xbeafe243	-0.34352311
126	0xbede3e88	-0.43407083
127	0x3ec53606	0.3851778

fc_encoder.2.bias f4 [16]
0	0xbe3affe3	-0.18261676
1	0xbe8f274d	-0.27959672
2	0xbf0743fd	-0.52838117
3	0x3f499da1	0.7875615
4	0x3f12538a	0.5715872
5	0x3eb962e1	0.3620825
6	0xbf4a7502	-0.7908479
7	0x3e4fc689	0.20290579
8	0x3f3e7ed2	0.7441226
9	0xbf2ef0de	-0.68336284
10	0xbdfde4a9	-0.12397129
11	0x3ec40c99	0.3829086
12	0xbd5098e6	-0.050927065
13	0xbf0fe7a1	-0.5621281
14	0x3edfd5ff	0.43717954
15	0xbefdfccf	-0.4960694

fc_encoder.4.weight f4 [32, 16]
0	0x3e867bf8	0.26266456
1	0x3ecfeefe	0.40612024
2	0x3e51af56	0.20477042
3	0x3e1ae5f6	0.15126786
4	0xbdec719b	-0.11545106
5	0xbdf92cb9	-0.12166733
6	0x3ea93c41	0.33053783
7	0xbe6094d3	-0.21931772
8	0x3eefa46b	0.46805128
9	0xbeae98e6	-0.34101027
10	0x3e91360f	0.28361556
11	0x3eb29950	0.34882593
12	0xbe8f9263	-0.28041372
13	0x3f130bbb	0.57439774
14	0x3d7e464a	0.06207875
15	0x3e507394	0.2035659
16	0x3d51b073	0.051193666
17	0xbc852e6b	-0.016257485
18	0xbeaab729	-0.33342865
19	0x3e29efa4	0.16595322
20	0x3e20c1b4	0.15698892
21	0xbe807cd4	-0.25095236
22	0xbe811078	-0.25207877
23	0x3eac1e7a	0.33617002
24	0x3f0b1ae0	0.54337883
25	0x3de7e49f	0.11322903
26	0x3ed859d2	0.42256027
27	0xbe2a8e9d	-0.16655965
28	0xbf0d4139	-0.55177647
29	0x3e88e43b	0.26736626
30	0xbf07a0c4	-0.52979684
31	0xbe9a49cb	-0.30134425
32	0x3e9d0143	0.30665025
33	0x3e34a7cc	0.17642134
34	0x3eb6850c	0.35648382
35	0x3ebdb4eb	0.37052092
36	0x3e6070f7	0.21918093
37	0x3e9ee145	0.31031242
38	0xbe915cae	-0.2839102
39	0xbec820b8	-0.39087462
40	0xbdc36b68	-0.095419705
41	0x3e0ac946	0.13553342
42	0xbed08067	-0.40722963
43	0xbeea5023	-0.45764264
44	0xbed28d50	-0.41123438
45	0xbef82740	-0.48467445
46	0x3ede2f10	0.4339528
47	0x3c7e943f	0.015538274
48	0x3e8338fb	0.2562941
49	0x3e85ec3a	0.2615679
50	0x3e4c9a57	0.19980751
51	0x3c39a545	0.011330907
52	0xbe77815c	-0.2417044
53	0xbe912b20	-0.28353214
54	0xbea89b02	-0.32930762
55	0xbf01e680	-0.5074234
56	0xbeb4f00c	-0.3533939
57	0xbf0cc274	-0.5498421
58	0x3d968681	0.07349873
59	0xbdb69380	-0.08914852
60	0x3e88f4c8	0.26749253
61	0xbf10a211	-0.56497294
62	0xbe16e486	-0.14735612
63	0xbebec3f6	-0.3725888
64	0x3edb6857	0.42853042
65	0xbe78b1a6	-0.24286518
66	0x3ed1acc1	0.40952113
67	0xbdb54823	-0.088516496
68	0xbec8292a	-0.39093906
69	0xbdc6dd67	-0.09710198
70	0x3edc9cd6	0.43088406
71	0xbd1f30eb	-0.03886501
72	0x3eebe7bb	0.46075234
73	0x3dbe4e29	0.092922516
74	0xbe170494	-0.1474784
75	0xbe60c3ac	-0.21949643
76	0xbdb7bcd3	-0.08971562
77	0xbeb4dab9	-0.35323122
78	0xbe3bc358	-0.18336236
79	0xbcfebd3c	-0.031096093
80	0xbe9f0341	-0.3105717
81	0xbe99edb9	-0.3006418
82	0xbd5ef7d0	-0.05443555
83	0x3e28d31e	0.16486785
84	0x3ef6a4f7	0.48172733
85	0x3ee01821	0.4376841
86	0xbda7dd45	-0.08196501
87	0x3c8bd8cf	0.017071156
88	0xbeeef0a6	-0.46667975
89	0xbd64733a	-0.05577395
90	0x3eceab3b	0.40365013
91	0x3e25c1c5	0.16187198
92	0x3f133f86	0.57518804
93	0x3efd43b0	0.49465704
94	0x3dd4c82d	0.10389743
95	0x3e521c7a	0.20518675
96	0xbe184393	-0.14869528
97	0xbf18596d	-0.5951145
98	0x3ef19301	0.47182468
99	0xbd834784	-0.06410125
100	0x3eb8e9c7	0.36115858
101	0x3e751f77	0.23937784
102	0xbeb0db96	-0.3454253
103	0x3ebb9069	0.36633614
104	0xbf0daa10	-0.5533762
105	0x3f03d422	0.51495564
106	0xbec9e5d3	-0.39433154
107	0x3dc8c770	0.09803665
108	0xbdd365f6	-0.10322182
109	0x3e2608e6	0.16214332
110	0x3eb8f530	0.36124563
111	0x3e909a94	0.28242934
112	0x3ea1ece0	0.31626034
113	0x3e81f99f	0.25385758
114	0x3e5828c3	0.211093
115	0x3eb20d4e	0.34775776
116	0xbe924c15	-0.2857367
117	0xbef49a4e	-0.47773975
118	0x3ea63625	0.32463184
119	0x3e8a9c54	0.27072394
120	0xbf1123c8	-0.5669522
121	0x3e644404	0.22291571
122	0x3dca57d7	0.09880035
123	0x3ec513a2	0.3849154
124	0x3ef2fa6f	0.4745669
125	0xbcecddb9	-0.02891432
126	0xbee5a9c5	-0.44856086
127	0x3e8c8b89	0.27450207
128	0xbee385f6	-0.44438142
129	0x3e8009c6	0.25007457
130	0x3d96edc7	0.07369571
131	0xbe34118f	-0.17584823
132	0xbe97e360	-0.2966566
133	0x3e9d7a09	0.30757168
134	0x3f0a75fc	0.5408628
135	0xbeaecca1	-0.34140494
136	0x3f02c51e	0.51082027
137	0xbf1086a5	-0.5645545
138	0xbeca2bf2	-0.39486653
139	0xbebfae69	-0.37437752
140	0x3f032733	0.5123169
141	0xbe8379a4	-0.25678742
142	0xbe2629b2	-0.16226843
143	0x3e8113c6	0.25210398
144	0x3ee480eb	0.44629607
145	0xbe86fa55	-0.26362863
146	0xbe0fb10c	-0.14032382
147	0xbea6f15e	-0.32606024
148	0x3e0343d9	0.1281885
149	0x3eca09f8	0.3946073
150	0x3f19ad7e	0.60030353
151	0xbe08c1c5	-0.13355167
152	0x3e666931	0.22501065
153	0xbdc359b7	-0.09538596
154	0xbe19e079	-0.15027036
155	0x3dab5ed8	0.083676994
156	0xbe1d7080	-0.15374947
157	0xbe5d4a05	-0.21610267
158	0xbe856af6	-0.26058167
159	0x3b1bbe69	0.0023764616
160	0x3d9b8edf	0.0759561
161	0xbec16c9d	-0.37778178
162	0x3e00fd7f	0.12596701
163	0xbee2c93e	-0.4429416
164	0x3f0c2142	0.5473825
165	0xbec2e430	-0.38064718
166	0x3e5959a3	0.212256
167	0x3c1d5e47	0.009604997
168	0xbe84a200	-0.25904846
169	0xbf091357	-0.53545135
170	0xbe2b4fb1	-0.16729619
171	0xbeef8d9d	-0.4678773
172	0xbe10d8ae	-0.14145157
173	0xbe24cf13	-0.16094618
174	0x3f14e1ba	0.5815693
175	0xbee206a7	-0.441457
176	0xbe6d8217	-0.23194157
177	0x3e018074	0.12646657
178	0x3eca530b	0.39516482
179	0x3dd6f9a8	0.10496837
180	0xbedf858f	-0.43656585
181	0x3f0c622e	0.5483731
182	0xbeb12269	-0.34596565
183	0x3ecc8226	0.39943045
184	0xbee18a2d	-0.44050732
185	0xbe2189e6	-0.1577526
186	0x3e6dc77d	0.2322063
187	0xbef1e5a0	-0.47245502
188	0xbddde3f8	-0.10834497
189	0x3ed9771d	0.4247369
190	0x3df16229	0.11786301
191	0xbdf50fd8	-0.119659126
192	0x3f16aeeb	0.58860654
193	0xbeee9269	-0.46596077
194	0x3e7bb981	0.24582483
195	0x3dd01b5e	0.1016147
196	0xbec2d909	-0.3805621
197	0x3e7d3978	0.24728954
198	0xbdc607a4	-0.09669426
199	0x3ee78f8f	0.45226714
200	0xbf0f4f05	-0.5597995
201	0xbef5d6e5	-0.48015514
202	0xbc1940dc	-0.009353843
203	0xbd82416b	-0.06360134
204	0x3eb27a2d	0.34858838
205	0x3e440501	0.19142534
206	0x3ecd7bc4	0.40133488
207	0x3ed12e47	0.4085562
208	0x3e027f29	0.1274382
209	0xbf073936	-0.5282167
210	0xbeb349a5	-0.35017124
211	0xbdb34c48	-0.08754784
212	0x3e45ea1d	0.19327588
213	0x3da7a941	0.081865795
214	0x3de2e62b	0.11079057
215	0xbf05d4c9	-0.5227781
216	0x3ebe4606	0.371628
217	0x3e8f7e79	0.28026178
218	0xbecaf787	-0.39641973
219	0x3e6f1520	0.23347902
220	0xbec94ce8	-0.39316487
221	0xbeec4978	-0.46149802
222	0x3eb970c7	0.36218855
223	0x3eb662c4	0.35622227
224	0x3d328b4c	0.043589875
225	0x3e802ee8	0.25035787
226	0xbeafbdf4	-0.3432461
227	0x3d85ab9a	0.06526871
228	0xbd8226df	-0.0635507
229	0x3ef6a8c9	0.48175648
230	0xbd8d4a10	-0.06898892
231	0xbebf812a	-0.37403232
232	0xbe5e74d7	-0.21724258
233	0x3e507979	0.20358838
234	0xbeb95d11	-0.36203817
235	0xbe94beea	-0.29051906
236	0xbe419dbc	-0.18907827
237	0x3d41973e	0.047263376
238	0x3e94bcc9	0.29050282
239	0xbe893c48	-0.26803803
240	0xbea4d5f8	-0.32194495
241	0xbd836413	-0.06415572
242	0xbeb13aa4	-0.34615052
243	0xbd8a25b1	-0.0674547
244	0xbe90a7af	-0.28252932
245	0xbe899db0	-0.2687812
246	0xbe8d3483	-0.27579126
247	0x3e322854	0.17398196
248	0xbede5986	-0.43427676
249	0x3cb0ddc6	0.021590125
250	0x3ef01a54	0.46895087
251	0x3ef231d7	0.4730365
252	0x3ebf8539	0.37406328
253	0xbe8abda2	-0.27097803
254	0xbd7eadf4	-0.062177613
255	0x3da66573	0.08124819

fc_encoder.4.bias f4 [32]
0	0x3edb5960	0.42841625
1	0xbec57715	-0.38567415
2	0x3eb19ac3	0.34688386
3	0x3e8f81ac	0.2802862
4	0x3e8429ae	0.2581305
5	0x3eb8215f	0.3596296
6	0xbebe097c	-0.3711661
7	0x3eb2bc75	0.34909406
8	0xbefa18d0	-0.48847055
9	0xbe900e51	-0.28135923
10	0x3ed036a5	0.4066669
11	0x3ecdd81a	0.40203935
12	0x3ebe0a95	0.37117448
13	0xbe4b6fef	-0.19866918
14	0x3dda016b	0.10644802
15	0x3e9cf8e9	0.30658653
16	0xbeeaeb7f	-0.45882794
17	0xbed01d5e	-0.40647405
18	0x3ea57fac	0.32323968
19	0x3ede1e55	0.43382517
20	0xbed63e28	-0.41844296
21	0xbd9fbc6d	-0.07799611
22	0x3e3e71a7	0.18598042
23	0xbe9fffa2	-0.3124972
24	0xbea6a49e	-0.32547468
25	0x3eedc21f	0.46437165
26	0x3e9411f5	0.2891995
27	0xbe3b550c	-0.18294162
28	0x3cf3588a	0.029705305
29	0xbe962d62	-0.293315
30	0x3ef30712	0.47466332
31	0xbf06f2fa	-0.527145

decoder.0.weight f4 [128, 128]
0	0x3bcbff23	0.006225483
1	0x3c13eb88	0.009028323
2	0x3b9100b4	0.0044251326
3	0x3bb1ad9f	0.0054223086
4	0x3bd2653d	0.00642076
5	0x3b9d5e73	0.004802519
6	0xbbae090f	-0.0053111385
7	0x3abe4695	0.0014516885
8	0xbb69d761	-0.0035681354
9	0x3b9c5ab9	0.004771557
10	0xbbb9ac59	-0.0056662974
11	0xbbd1104a	-0.0063801156
12	0x3ab97e13	0.0014151953
13	0xbbbc961c	-0.005755199
14	0xbaccc71f	-0.0015623308
15	0x3c132e29	0.008983173
16	0xbbbb3f52	-0.0057143355
17	0x3aea446e	0.0017873177
18	0xb9a7556f	-0.00031916375
19	0xbbb2e6a3	-0.005459623
20	0x3b3455a8	0.0027516875
21	0xbb84c17c	-0.0040513854
22	0x3aa25555	0.001238505
23	0xba8b354c	-0.0010620742
24	0x3bce4d0d	0.0062958063
25	0x3bb26f1d	0.0054453746
26	0xbb4cbdab	-0.003124098
27	0x3b6fbc08	0.0036580581
28	0x3c004243	0.007828298
29	0x3ada1b6d	0.0016640254
30	0x3bc616d6	0.0060452027
31	0x3c2ae97a	0.010431642
32	0x3a55268c	0.0008131049
33	0x3c4048d3	0.011736113
34	0xbb831f70	-0.0040015504
35	0x38e55545	0.000109354536
36	0x3a8f7718	0.0010945527
37	0xba1e6391	-0.0006042058
38	0xbb112d5c	-0.002215228
39	0xbb7f719c	-0.0038977629
40	0xbb3d37f3	-0.002887246
41	0x3a2e09a1	0.0006639008
42	0x3c3312d3	0.010929781
43	0xbaafe677	-0.0013420124
44	0xbba3c644	-0.0049980003
45	0xb9daaa9d	-0.00041707317
46	0x3a8f6d42	0.0010942596
47	0x3bf34e29	0.007425089
48	0x3c010652	0.007875042
49	0x3a88adc2	0.001042776
50	0x3a70a12c	0.000917929
51	0x3b898532	0.0041967863
52	0xba378e75	-0.0007002124
53	0xbb7e5ecb	-0.0038813825
54	0x3be4fca0	0.006988123
55	0xbb819649	-0.003954683
56	0xbaee7654	-0.0018193224
57	0xbb9b710d	-0.0047437013
58	0x3b2e5d43	0.0026605881
59	0x3bf33010	0.007421501
60	0x3b004a27	0.0019575448
61	0xbb1ea357	-0.0024206245
62	0x3b8276f4	0.0039814655
63	0x3ae61a94	0.0017555528
64	0xbaca4a77	-0.0015433569
65	0x3adadb38	0.0016697412
66	0xbbe91946	-0.0071136085
67	0xbb555ed8	-0.0032557752
68	0xbb998da5	-0.004686075
69	0xbaeee342	-0.0018225687
70	0x3a8d546b	0.0010782605
71	0x3c4b7913	0.012419003
72	0x3af0426b	0.0018330341
73	0x3b79961a	0.0038083852
74	0x3c28dce2	0.010306569
75	0xb9fbba5b	-0.00048013296
76	0x3c51f8c9	0.012815663
77	0x3b405044	0.0029344717
78	0x3b8af066	0.0042400835
79	0xbb2674d4	-0.0025399225
80	0x3bf422af	0.0074504237
81	0xbab99532	-0.0014158844
82	0x3bb72fc4	0.005590411
83	0x3b5e30ba	0.0033903555
84	0xbc07b10e	-0.008281959
85	0xbc27b036	-0.010234883
86	0xba8df7a4	-0.0010831249
87	0xbbe3ed17	-0.0069557535
88	0xba9bc696	-0.0011884745
89	0x3ba8e726	0.005154508
90	0x3bcd6ba0	0.0062689334
91	0xbacfb7e9	-0.0015847656
92	0x3b90aa4b	0.0044148318
93	0x3bb7b259	0.0056059775
94	0xbc15b59b	-0.009137536
95	0x3af96926	0.0019028529
96	0xbb34174a	-0.0027479702
97	0x3b368be8	0.0027854387
98	0x3b5a911f	0.003335066
99	0xbb9002ae	-0.0043948507
100	0xbc1dc813	-0.009630221
101	0xbbe99914	-0.007128844
102	0xbb725bc3	-0.0036980964
103	0x3b4ec468	0.0031550173
104	0x3bb5e5bc	0.005551068
105	0xba66f887	-0.0008810837
106	0xbba89329	-0.005144496
107	0x3add11d0	0.001686627
108	0x3b2f82cf	0.002678085
109	0x39175761	0.00014433033
110	0x3ae7c043	0.00176812
111	0xba229fce	-0.00062036223
112	0x3a2768f5	0.0006386184
113	0x3af99d54	0.001904408
114	0xbb904e6c	-0.00440388
115	0xba820440	-0.000991948
116	0xbbac666f	-0.0052612345
117	0x3b87ca92	0.0041440213
118	0x3bbf4741	0.0058373515
119	0x3951ccfb	0.00020008154
120	0xbafc79a7	-0.001926233
121	0xbac05bd8	-0.0014675809
122	0x3b507f4a	0.0031814151
123	0xbbca66e8	-0.006176818
124	0x3a1a32b9	0.0005882192
125	0xbbbcc5e8	-0.005760897
126	0xbb6167c3	-0.0034394122
127	0x3c3aefdc	0.011409726
128	0x3b0ed0c9	0.0021791926
129	0xba2115f9	-0.0006144937
130	0xbc1b44f8	-0.009476893
131	0xbb808ab7	-0.003922786
132	0xbb47beae	-0.0030478644
133	0xbc050d78	-0.008120887
134	0x3a8a04de	0.0010530015
135	0xbb068c8d	-0.0020530552
136	0xb8a3fcf0	-7.819559e-05
137	0xbc35b77a	-0.0110911075
138	0x3bb3c9b2	0.0054866904
139	0xbbe3e9e0	-0.0069553703
140	0x3b15f31a	0.0022880496
141	0xbc469e01	-0.012122632
142	0x3b74c11e	0.0037346552
143	0xbb932bfb	-0.004491327
144	0xbb94b949	-0.0045386893
145	0xbb6b5f12	-0.003591482
146	0xbc694639	-0.014237934
147	0xbbaaa716	-0.0052079065
148	0x3b81015d	0.00393693
149	0x3bb2e0fe	0.00545895
150	0x3c28c6e9	0.01030133
151	0xba823302	-0.0009933414
152	0xbc2e91e9	-0.010654905
153	0x3b8818cb	0.004153346
154	0x3c61dde5	0.013785814
155	0x3ac80f64	0.0015263376
156	0xbb5de38b	-0.003385755
157	0xbc4b2ada	-0.012400353
158	0x3c269dfe	0.010169504
159	0xbbfd7ac2	-0.007735581
160	0x3bbe1876	0.005801256
161	0xbad67f69	-0.0016364875
162	0xbbe1b41e	-0.0068879267
163	0x3b80e95b	0.003934068
164	0x3c512153	0.012764293
165	0xbc44a5db	-0.012002434
166	0x3ba64fc1	0.0050754254
167	0x3c2237f1	0.009901033
168	0xbb0eb447	-0.0021774934
169	0x3b870497	0.00412042
170	0x3bcec5ba	0.006310192
171	0x3c1828ef	0.009287103
172	0x3abf62f3	0.0014601633
173	0x3b3a3488	0.0028412659
174	0x3bad023a	0.0052798064
175	0xbb3368c2	-0.0027375673
176	0xba8290bc	-0.0009961347
177	0x3b81d4cc	0.003962135
178	0xbaebcc8e	-0.0017990039
179	0xbb1c6a6d	-0.0023867146
180	0x3c0cba93	0.008589405
181	0x39744c6b	0.00023298121
182	0xbb4e13b9	-0.003144486
183	0x3b63dd25	0.0034769264
184	0xbbe29540	-0.0069147646
185	0x3bd19900	0.006396413
186	0xbb2fb54b	-0.002681094
187	0xbb470f79	-0.0030374213
188	0xbb1714fc	-0.002305328
189	0x3a4f21fe	0.00079014886
190	0x3c09cee9	0.008411148
191	0x3b1f60a8	0.0024319086
192	0xbb0ee37e	-0.0021803076
193	0x3c2259c2	0.009909095
194	0x3b9cc16a	0.004783799
195	0xbb6d475e	-0.0036205868
196	0xbb4d1203	-0.0031291253
197	0xbbd28ae2	-0.0064252475
198	0xbbc3db1d	-0.005977048
199	0xbad9d990	-0.0016620625
200	0xbbb09744	-0.005389126
201	0xbbc192f7	-0.005907412
202	0x3c075067	0.0082589155
203	0x3ab2b42d	0.0013634019
204	0xbc886ddd	-0.01665395
205	0xbc1cf676	-0.009580245
206	0xbb13d8fb	-0.002255975
207	0x3b89219b	0.0041849143
208	0xbc0018bd	-0.007818398
209	0xb8bb82b8	-8.941203e-05
210	0xbc0a2c96	-0.008433482
211	0xbb517b9f	-0.0031964553
212	0x3c568bfa	0.013094896
213	0x378f2401	1.7063694e-05
214	0x3bcf9740	0.006335169
215	0x3a627169	0.0008638115
216	0xbc228953	-0.009920436
217	0xbb3d2f35	-0.002886725
218	0xbc0c73ef	-0.008572563
219	0x3c24abc5	0.010050719
220	0xbc3d7212	-0.011562841
221	0xba1d7ff2	-0.000600814
222	0x3b9a8db5	0.0047166
223	0xbacbf5ce	-0.0015560926
224	0xbb6ac654	-0.003582378
225	0x3b15948c	0.0022824137
226	0x3b0685fc	0.0020526638
227	0x3b4d7c74	0.0031354697
228	0xbb4e587b	-0.0031485844
229	0xbb15df2a	-0.0022868612
230	0xbbbfe3c0	-0.0058560073
231	0xbac0a912	-0.0014698824
232	0xba04c8a2	-0.0005065297
233	0x3ad149e4	0.0015967456
234	0x3ae0b994	0.001714515
235	0x3afaf091	0.0019145181
236	0x3b346057	0.0027523243
237	0x3ade1597	0.001694369
238	0xbb5f8ebe	-0.003411218
239	0xbb6baeb1	-0.0035962278
240	0x396de8b3	0.00022688769
241	0x3b08edf9	0.0020893796
242	0xbbcf7b22	-0.0063318172
243	0x398c0479	0.00026706213
244	0xba84d59a	-0.0010134459
245	0x3ad68fc6	0.0016369752
246	0x3bac602f	0.0052604894
247	0x3b91c02e	0.0044479584
248	0x3b51191a	0.003190583
249	0x3a11670a	0.0005546665
250	0xbaae8889	-0.0013315837
251	0x3aff91af	0.0019498373
252	0xbb133a56	-0.002246519
253	0xb8989ba5	-7.276916e-05
254	0xbabc090e	-0.001434596
255	0xbaa20f44	-0.0012364169

decoder.0.bias f4 [128]
0	0x3a93bf93	0.0011272304
1	0xbb25b3e5	-0.0025284227
2	0x3aab9935	0.0013091924
3	0xbb97da68	-0.0046341904
4	0x3c16ae6c	0.009196859
5	0xbbeeb47e	-0.0072847
6	0xbba8862b	-0.005142947
7	0xbbe84a19	-0.0070889113
8	0xba6d6493	-0.0009055819
9	0xb758add9	-1.291508e-05
10	0x3bcd3bd9	0.006263238
11	0xbbdb3c36	-0.0066905273
12	0xbb5bf294	-0.0033561336
13	0x3c096e9c	0.008388188
14	0x3b4a26ca	0.0030845874
15	0xbbb88498	-0.005631041
16	0x3b4fda99	0.0031715988
17	0x3b128993	0.0022359833
18	0x3aabe7d2	0.0013115352
19	0x3ba883b1	0.005142652
20	0xbbeb4281	-0.0071795587
21	0x3a85c35e	0.0010205319
22	0xba81e0fb	-0.0009908968
23	0xbb612e2e	-0.00343598
24	0x3b8991d8	0.004198294
25	0xbbbf38b9	-0.0058356193
26	0x3b852ae2	0.00406395
27	0x3b1da40d	0.002405408
28	0x3a9584f5	0.0011407422
29	0xbb215f7a	-0.002462356
30	0xbba6ddb2	-0.005092346
31	0xbc1a6e13	-0.009425658
32	0x3b12fc2d	0.002242814
33	0x3bea0cf9	0.0071426597
34	0x3c0ca4a2	0.008584173
35	0x3b4cbf5e	0.0031241993
36	0x3c2140b5	0.0098420875
37	0x3c34dc1e	0.011038808
38	0xbbb4446d	-0.005501321
39	0x3b6f4fa5	0.0036515978
40	0x3ba5ec50	0.005063571
41	0x3a887952	0.0010412133
42	0xbc1ec56e	-0.009690626
43	0xbbbea583	-0.0058180704
44	0xbb339fa1	-0.0027408379
45	0x3b3f0233	0.0029145598
46	0xbbf08ba2	-0.0073408643
47	0xbbdfc5a1	-0.006828979
48	0xbc16d4ae	-0.00920598
49	0x3b41506d	0.00294974
50	0x3bca3c27	0.0061717215
51	0x3b68c943	0.0035520352
52	0x3bcc087e	0.0062265983
53	0x3bdf00c2	0.0068055103
54	0x39f9cb8f	0.00047644644
55	0x3aed497b	0.0018103564
56	0xbc18bf70	-0.009322986
57	0xbb221db6	-0.0024736947
58	0xba437ef5	-0.0007457578
59	0xbb848a5e	-0.004044815
60	0xbbbb1e81	-0.0057104235
61	0xbbb85a2a	-0.005625983
62	0x3b5d1081	0.003373176
63	0x3b5afc9b	0.0033414725
64	0x3a1c2c3b	0.00059575186
65	0xbb01797c	-0.0019756248
66	0x3afbb6f8	0.0019204309
67	0xbbf3a417	-0.0074353325
68	0xbb90f296	-0.0044234497
69	0x3b92a00b	0.004474645
70	0xbbe6c8db	-0.007042987
71	0x3be4cff7	0.006982799
72	0x39e08d7a	0.00042830018
73	0x3bd9d321	0.006647483
74	0xbbdd692c	-0.006756922
75	0xbb72b310	-0.0037033
76	0xbbadb08e	-0.005300588
77	0x3b9a4049	0.0047073704
78	0xbbcc9dd7	-0.006244402
79	0xbb8d7346	-0.00431672
80	0xbb8008fc	-0.003907321
81	0xbbc7cc8f	-0.0060973833
82	0x3b8c53fd	0.004282473
83	0x3aa17775	0.0012318926
84	0x3b8ec364	0.0043567885
85	0xbc14b550	-0.009076431
86	0xbc0fcf4f	-0.008777454
87	0xbbbf96db	-0.005846841
88	0x3bee4aac	0.007272085
89	0x3b4e21dc	0.0031453287
90	0x3bd8c732	0.006615543
91	0xbc15f51b	-0.009152676
92	0xbc5a8451	-0.013337211
93	0xbbd95f35	-0.006633664
94	0xbaf16c9d	-0.001841921
95	0xba1080db	-0.0005512365
96	0xbb382487	-0.0028097944
97	0x3b61e3db	0.0034468088
98	0xbbae32a7	-0.005316097
99	0x3b13f9c9	0.0022579303
100	0xbb3772a9	-0.0027991927
101	0xbb32b982	-0.0027271216
102	0x3b3fb56f	0.002925243
103	0xbb67f422	-0.0035393317
104	0xba4a06cc	-0.0007706701
105	0xbb19ed30	-0.0023487322
106	0xb90f4d25	-0.00013666281
107	0x3af11cb1	0.0018395392
108	0x3be2d9de	0.0069229444
109	0x3bb4eb9c	0.005521251
110	0x3baa1f5f	0.005191728
111	0xbc35e877	-0.011102787
112	0x3b7a439d	0.0038187273
113	0x3be8605e	0.007091566
114	0x3bb35de3	0.0054738387
115	0x3c10fb2e	0.008848948
116	0x39328516	0.00017024981
117	0x3b88990e	0.004168636
118	0xbb8e7bb7	-0.004348244
119	0x399959f6	0.0002924946
120	0x3bc1b0ce	0.0059109693
121	0xbb20a672	-0.0024513272
122	0x3bdb70dd	0.006696804
123	0xbbb73ee7	-0.0055922153
124	0xbc056db3	-0.00814383
125	0x3b788d9d	0.0037926205
126	0x3bb82cce	0.0056205755
127	0x3bc1a8ed	0.00591003

decoder.2.weight f4 [64, 128]
0	0xbd9b2217	-0.075748615
1	0xbdef9001	-0.116973884
2	0xbdc19565	-0.09452323
3	0xbe3c36fe	-0.18380353
4	0x3dcbf4ba	0.09958787
5	0xbda4da26	-0.08049421
6	0xbdfca5aa	-0.123362854
7	0x3da66687	0.08125024
8	0xbe3218d7	-0.17392288
9	0xbc76642e	-0.015038533
10	0x3e5933f1	0.2121122
11	0x3e0a2171	0.1348932
12	0x3e09ff6f	0.13476346
13	0xbda56f02	-0.08077814
14	0xbe01c7a3	-0.12673812
15	0x3e3a9f4c	0.1822483
16	0xbc842f2f	-0.01613578
17	0xbdcb29c5	-0.09920076
18	0xbe24dc04	-0.16099554
19	0xbe38a623	-0.18032126
20	0x3cfceed5	0.030875603
21	0x3bf0a038	0.0073433183
22	0xbcb9c431	-0.02267656
23	0x3de9b85e	0.114121184
24	0x3def01c8	0.116702616
25	0x3db88707	0.090101294
26	0x3e37632d	0.17908926
27	0xbd71baeb	-0.05901615
28	0xbe086dda	-0.13323155
29	0xbd8e1706	-0.06937985
30	0x3e036469	0.12831272
31	0xbcc294f7	-0.023752673
32	0x3dde66ed	0.10859475
33	0xbe24ce38	-0.16094291
34	0x3de72680	0.1128664
35	0x3c1f852b	0.00973634
36	0x3de411de	0.111362204
37	0xbdff99f9	-0.1248054
38	0x3d92baef	0.07164561
39	0xbdb5ee16	-0.08883302
40	0xbc640296	-0.013916632
41	0x3e321f17	0.17394672
42	0xbb8d999e	-0.004321291
43	0xbddc7c09	-0.10765845
44	0xbdb5837c	-0.08862969
45	0x3d787414	0.060657576
46	0xbccf3c67	-0.025297357
47	0x3d514804	0.05109407
48	0xbe30cac6	-0.17264852
49	0x3da73a26	0.08165388
50	0xbe414625	-0.18874414
51	0xbd8481d6	-0.06470077
52	0x3d983a1f	0.07432961
53	0x3e2127c5	0.15737827
54	0x3df603ce	0.120124444
55	0x3e04fa5d	0.12986131
56	0xbe428300	-0.18995285
57	0xbb97577c	-0.0046185832
58	0xbd198f2d	-0.03749006
59	0x3e3e1116	0.18561205
60	0xbe190c07	-0.14945994
61	0x3c8dd017	0.017311139
62	0xbe1f6ee8	-0.15569651
63	0x3db1731c	0.086645335
64	0x3c108092	0.008819716
65	0xbdd6d753	-0.104902886
66	0x3d19c5f9	0.037542317
67	0x3e3b68a0	0.1830163
68	0x3e50005f	0.20312642
69	0xbad7144f	-0.0016409251
70	0x3d0930e0	0.033493876
71	0xbe624187	-0.22095309
72	0x3e81da2c	0.25361764
73	0xbcbb3a73	-0.02285502
74	0x3c8341a4	0.01602251
75	0x3d37cb77	0.044871774
76	0xbe325226	-0.1741415
77	0xbe205c69	-0.15660252
78	0x3c883059	0.016624616
79	0x3e1779b7	0.14792524
80	0x3e2c2773	0.16811924
81	0xbe557ebb	-0.20849125
82	0xbe674684	-0.22585493
83	0xbd572550	-0.05252582
84	0x3cb9f136	0.022698026
85	0x3e382d59	0.17986049
86	0x3d82c066	0.06384353
87	0xbe14c6b6	-0.14528927
88	0x3d8f16d7	0.06986778
89	0x3d7b647e	0.061375134
90	0xbd754fa6	-0.05989041
91	0x3d0e6060	0.03475988
92	0x3d12e374	0.035861447
93	0xbe23daae	-0.16001388
94	0xbd450cd5	-0.04810794
95	0x3d578a74	0.052622274
96	0xbdf2b4f0	-0.11850917
97	0xbe354d0a	-0.1770517
98	0xbe0ea1ad	-0.13928862
99	0xbca9f886	-0.020748388
100	0xbe2aeb5c	-0.16691345
101	0x3e1af8d7	0.15133987
102	0xbe25537f	-0.16145132
103	0xbd9e70cc	-0.07736358
104	0xbdaf2b54	-0.08553186
105	0x3e0e5d5d	0.13902803
106	0xbd02501b	-0.031814676
107	0xbe3ec1f4	-0.18628675
108	0x3e3774af	0.17915605
109	0x3e14242b	0.14466922
110	0xbd9293c3	-0.071570896
111	0xbc2508d8	-0.010072909
112	0xbe3f4544	-0.18678766
113	0xbca81108	-0.020515934
114	0xbb28acec	-0.0025737835
115	0x3e2bf88a	0.16794029
116	0xbdc3405b	-0.09533759
117	0xbd54bf1c	-0.05194007
118	0xbda408ab	-0.08009466
119	0xbc3ac477	-0.01139938
120	0x3d895dbf	0.06707334
121	0x3c16c7d4	0.009202916
122	0xbe177acf	-0.14792942
123	0x3ad69401	0.0016371013
124	0xbbbb4197	-0.005714606
125	0xbe3d718a	-0.18500343
126	0xbe215b63	-0.15757518
127	0xbd4de5fe	-0.050268166
128	0xbd508402	-0.050907142
129	0x3d363f70	0.044494092
130	0x3e4e56ed	0.20150347
131	0xbd6caeca	-0.05778388
132	0xbd9b57a5	-0.07585076
133	0x3e530fb3	0.20611458
134	0xbdd41535	-0.103556074
135	0xbd5918af	-0.053002056
136	0x3db3236f	0.08746993
137	0x3dcabf9a	0.09899826
138	0x3e37f43c	0.17964262
139	0xbdc2c38d	-0.095099546
140	0xbe1bc7c7	-0.15212928
141	0x3d8fcbe8	0.07021314
142	0x3c11399e	0.008863835
143	0x3d9ae83f	0.07563829
144	0x3c8ecb64	0.017430969
145	0xbcc4faef	-0.024045436
146	0xbd0bcf6d	-0.034133364
147	0x3de4b8a6	0.111680314
148	0xbcfa8ac3	-0.030583745
149	0xbd675b5f	-0.056483623
150	0x3da157e1	0.0787809
151	0xbe0d5c35	-0.13804705
152	0xbe2a181c	-0.1661076
153	0x3e2f6ac9	0.17130579
154	0x3d72c439	0.059269164
155	0x3e28864c	0.1645748
156	0xbdc2770b	-0.09495362
157	0xbdf261a9	-0.118350334
158	0xbe257711	-0.16158701
159	0xbe1f895d	-0.15579744
160	0x3e1d7ae9	0.15378918
161	0xbe0998bd	-0.13437171
162	0x3cead323	0.028665131
163	0xbd2c5091	-0.04206902
164	0x3e467ed4	0.19384319
165	0x3e22cb2d	0.15897818
166	0xbddaf709	-0.106916495
167	0x3e2befbf	0.16790675
168	0xbe076a1d	-0.13224073
169	0xbe3aa4ec	-0.18226975
170	0x3e1c1818	0.15243566
171	0xbdf2cc88	-0.118554175
172	0x3e0909fc	0.13382715
173	0xbd2517b3	-0.040305804
174	0x3e2792a8	0.16364539
175	0xbd91d0f1	-0.071199305
176	0x3e398ab3	0.18119316
177	0xbda7485a	-0.08168097
178	0x3e13d814	0.14437896
179	0x3e318831	0.17337109
180	0xbd5d9432	-0.05409641
181	0x3ca945f2	0.020663235
182	0x3e3d1c5f	0.18467854
183	0x3d316787	0.043311622
184	0xbb4c9122	-0.0031214436
185	0x3dbd2f2a	0.092375115
186	0x3e2b36e6	0.16720161
187	0xbd494f78	-0.049148053
188	0x3cb74402	0.022371296
189	0x3da1fe12	0.07909788
190	0xbe46e3c3	-0.19422822
191	0xbdeecfa0	-0.11660695
192	0xbdbb9e9d	-0.091611125
193	0x3dd2307f	0.10263156
194	0xbe2439c1	-0.16037656
195	0x3e52d0e2	0.20587495
196	0xbe12ae3d	-0.14324279
197	0x3e3a2ae3	0.18180422
198	0xbdb21039	-0.086945005
199	0xbe298c74	-0.16557485
200	0xbbcbb5ce	-0.006216741
201	0xbe4674dc	-0.19380516
202	0x3d1b2b4f	0.0378831
203	0xbdfd08d8	-0.123552024
204	0xbd30f0d5	-0.043198425
205	0x3e4a93c4	0.1978293
206	0xbd539964	-0.051659957
207	0xbe294f3b	-0.1653413
208	0x3df78ecb	0.120877825
209	0xbe07961a	-0.13240853
210	0x3e04bc5e	0.12962481
211	0xbe199fbe	-0.15002343
212	0xbd5af8b5	-0.05345984
213	0x3d8d3f96	0.06896894
214	0xbdb3b533	-0.087747954
215	0xbd6c88df	-0.057747718
216	0x3df2eafd	0.11861227
217	0xbe1fd938	-0.15610206
218	0xbc2d587d	-0.010580179
219	0x3e32f857	0.17477547
220	0x3d651f18	0.055937856
221	0xbe25482c	-0.16140813
222	0x3d0b9ed3	0.034087013
223	0xbc1303ca	-0.008973071
224	0x3de6c706	0.112684295
225	0xbd7cdb57	-0.061732616
226	0x3e6334cf	0.22188114
227	0xbe27f769	-0.16402973
228	0x3d7c78ee	0.061638765
229	0xbd60ed11	-0.054913584
230	0x3c906d55	0.017630259
231	0x3ca5800a	0.020202655
232	0xbe0d2409	-0.13783278
233	0xbe592f4d	-0.2120945
234	0x3c378057	0.011200032
235	0x3d5368fb	0.05161379
236	0x3e257cd3	0.16160898
237	0x3d85d6ce	0.06535111
238	0xbe2ad196	-0.16681513
239	0xbcc6e731	-0.024280163
240	0x3e31e60b	0.1737291
241	0x3dec83d8	0.11548585
242	0x3e332ca8	0.17497504
243	0xbc739622	-0.014867337
244	0x3e015304	0.12629324
245	0x3d93f8bb	0.07225176
246	0x3b277581	0.0025552216
247	0x3d8a91df	0.06766104
248	0xbdd803b2	-0.1054758
249	0x3e4ac599	0.1980194
250	0x3e25d8c8	0.16195977
251	0xbddd6664	-0.10810545
252	0x3da061a1	0.07831121
253	0xbdccef8c	-0.100066274
254	0x3d552467	0.05203667
255	0x3d4bf2aa	0.04979197
