Training/checkpoints/wind_pressure_200_5/mlp/model_100.pth (torch, 132375 bytes, 17 tensors)

pos_encoder.0.weight f4 [24, 1]
0	0x3e497c49	0.19676317
1	0x3b89341b	0.0041871197
2	0xbf655009	-0.8957525
3	0xbf49339e	-0.78594387
4	0xbe53b52f	-0.20674585
5	0xbf724c6e	-0.9464787
6	0x3ee3365c	0.4437741
7	0xbf07ba6c	-0.5301883
8	0x3e5b0b7c	0.213911
9	0xbf58a46e	-0.846259
10	0xbdbffb5d	-0.093741156
11	0xbe772b8c	-0.24137706
12	0xbdcec806	-0.10096745
13	0x3d4a000a	0.049316444
14	0xbf1eaad9	-0.6197944
15	0x3e19b80d	0.15011616
16	0x3e8e396a	0.27778178
17	0x3e270218	0.16309392
18	0x3e51c39b	0.20484774
19	0xbf74ce7e	-0.9562758
20	0xbe131983	-0.143652
21	0xbf43e66a	-0.7652346
22	0xbf338c8c	-0.7013633
23	0xbd60356f	-0.05473846

pos_encoder.0.bias f4 [24]
0	0x3f5ad50e	0.85481346
1	0x3e8ed456	0.27896374
2	0x3f25495f	0.6456508
3	0xbd0f94ea	-0.035054125
4	0xbf123aed	-0.57121164
5	0x3f513149	0.8171583
6	0x3f18dbfa	0.5971066
7	0x3f359a29	0.70938355
8	0x3f14501e	0.5793475
9	0x3f271661	0.6526852
10	0xbf10ee91	-0.56614023
11	0x3d8dde36	0.06927149
12	0x3f2f2531	0.68416125
13	0x3efc900d	0.49328652
14	0xbf4737fb	-0.77819794
15	0x3ea73951	0.32660916
16	0x3f6d7b4e	0.92766273
17	0xbf44827a	-0.7676159
18	0xbf327bfa	-0.69720423
19	0x3e01aad2	0.12662819
20	0x3ead955b	0.33903012
21	0xbf2e0533	-0.67976683
22	0xbf6360af	-0.888194
23	0x3e5440c5	0.20727833

pos_encoder.2.weight f4 [48, 24]
0	0xbe85626e	-0.26051658
1	0xbea1e64f	-0.31621024
2	0xbe0bb803	-0.13644414
3	0xbeaf47fa	-0.342346
4	0x3ec2c6f3	0.3804241
5	0x3e864a25	0.26228443
6	0xbe203fcf	-0.15649341
7	0x3c8a1cef	0.0168595
8	0x3e75bb87	0.23997317
9	0x3eedbd96	0.46433705
10	0xbedf89d8	-0.43659854
11	0x3c8d07e4	0.017215677
12	0xbe1c73c9	-0.15278544
13	0xbe00b990	-0.12570786
14	0xbb3ccca6	-0.0028808503
15	0xbcf59a76	-0.02998088
16	0xbeae417b	-0.34034333
17	0x3e786cc4	0.24260241
18	0x3de010c2	0.10940696
19	0xbe522d56	-0.20525107
20	0x3ea7ad2e	0.32749313
21	0xbe7ec760	-0.24880743
22	0xbe15fb6e	-0.14646694
23	0xbdba4313	-0.09094825
24	0xbde51f86	-0.11187653
25	0xbea9149c	-0.33023536
26	0xbedea966	-0.43488616
27	0x3e5be4f6	0.2147406
28	0xbde97162	-0.11398579
29	0x3ec275ea	0.37980586
30	0x3eb4d422	0.35318094
31	0x3e1f04c5	0.15529163
32	0x3deb53af	0.11490571
33	0x3bbc11a6	0.0057394085
34	0x3eba0876	0.3633458
35	0x3e8839bb	0.26606545
36	0x3eca4073	0.39502296
37	0x3d9f7365	0.07785682
38	0xbe904b97	-0.2818267
39	0xbeaf5cf1	-0.34250596
40	0xbe416b7e	-0.18888661
41	0x3e870690	0.26372194
42	0x3ee2bb6c	0.44283617
43	0x3e0efc74	0.1396349
44	0xbd97fbbf	-0.07421064
45	0xbe2bfb36	-0.16795048
46	0x3e18ef5c	0.14935058
47	0xbea120b0	-0.3147025
48	0xbeb65aaa	-0.35616046
49	0x3e86f8d9	0.2636173
50	0xbd91ae94	-0.07113376
51	0xbeedc520	-0.46439457
52	0x3ee7aa3b	0.45247063
53	0xbedaa8df	-0.42706963
54	0x3e637ea2	0.22216275
55	0x3e844703	0.25835428
56	0x3cb3ed51	0.021963747
57	0x3e532c40	0.20622349
58	0xbe210c27	-0.15727292
59	0xbe2fbaf3	-0.17161159
60	0xbe5076ff	-0.20357893
61	0xbe937090	-0.28796816
62	0x3ef56986	0.4793207
63	0xbe854b76	-0.26034135
64	0xbeb7ff8b	-0.3593715
65	0x3ed8589e	0.4225511
66	0xbe06cef1	-0.1316488
67	0xbeaabb92	-0.3334623
68	0x3e84d961	0.25947097
69	0xbeaa45a2	-0.3325625
70	0x3df7839a	0.12085648
71	0x3ec88a89	0.39168194
72	0x3d7ed6d3	0.06221659
73	0x3d40a86e	0.047035627
74	0x3dee7249	0.11642892
75	0xbefb42b5	-0.4907433
76	0x3e900a28	0.2813275
77	0xbea7555f	-0.3268232
78	0x3ebe2ab9	0.3714197
79	0xbba843fc	-0.0051350575
80	0xbea22dd8	-0.316756
81	0xbf02fa67	-0.51163334
82	0xbe388d35	-0.18022616
83	0xbe0c70d1	-0.13714911
84	0xbe2265e3	-0.15859179
85	0x3db6e14c	0.08929691
86	0x3ebaed81	0.36509326
87	0xbe2f810d	-0.17139073
88	0xbea7eede	-0.3279943
89	0x3e9cd93e	0.30634493
90	0xbe327e07	-0.17430888
91	0x3d1a903b	0.037735205
92	0x3dc10221	0.09424234
93	0xbdab418d	-0.08362112
94	0x3de1c25d	0.110234
95	0xbe9a3dfb	-0.30125412
96	0xbde9ebfc	-0.114219636
97	0x3e2ea84f	0.17056392
98	0xbd524164	-0.051331893
99	0x3ed4954e	0.4152016
100	0xbe9f47f9	-0.31109598
101	0x3ed2a8ec	0.41144502
102	0xbeaa3e24	-0.33250535
103	0x3d5de27f	0.05417108
104	0xbe987847	-0.29779264
105	0xbe36eaa5	-0.17862947
106	0xbd9a2ac2	-0.07527687
107	0x3e1c0ce6	0.15239295
108	0x3e834fdd	0.25646868
109	0xbe98581a	-0.29754716
110	0xbe0844a3	-0.13307433
111	0xbeea6148	-0.45777345
112	0xbe84b0a3	-0.25916013
113	0xbeb1fc38	-0.3476274
114	0x3d48686d	0.048927713
115	0xbd60642c	-0.05478303
116	0x3ef54f31	0.4791198
117	0xbe3e0ee8	-0.18560374
118	0xbe7eb9f7	-0.24875627
119	0xbeacf88a	-0.3378337
120	0x3d4d7eda	0.050169803
121	0xbea9a1ff	-0.33131406
122	0x3ea2676a	0.31719524
123	0x3e37f686	0.17965135
124	0x3e5218ca	0.20517269
125	0x3ea25c0c	0.3171085
126	0x3ecf92e8	0.40541768
127	0x3eeb532e	0.459619
128	0xbe3ddb32	-0.18540648
129	0xbecfddf1	-0.40599015
130	0xbe900f2a	-0.2813657
131	0x3ecf2f86	0.40465945
132	0xbdc05f5f	-0.093931906
133	0x3e4fb14f	0.20282482
134	0xbe0f6b70	-0.14005828
135	0xbe6cdf04	-0.23131949
136	0xbebb3f8b	-0.36571917
137	0x3ec81eae	0.39085907
138	0x3e16fb8f	0.147444
139	0xbe08e2cb	-0.13367765
140	0xbe2506a3	-0.16115813
141	0x3e1a3cc5	0.15062244
142	0x3da831e3	0.0821264
143	0xbf020e67	-0.50803226
144	0x3ec716d9	0.3888462
145	0xbde68583	-0.11255934
146	0x3e6c9d0e	0.23106787
147	0x3e3d12c4	0.1846419
148	0xbee55a72	-0.44795567
149	0xbe59b665	-0.21260984
150	0x3edc05fe	0.42973322
151	0xbea0b7e6	-0.31390303
152	0x3ec9560c	0.3932346
153	0xbeb8434d	-0.35988846
154	0x3e87b73b	0.2650698
155	0xbebf6dd0	-0.37388468
156	0x3e46e40c	0.1942293
157	0x3eb110bd	0.34583083
158	0x3e287201	0.16449739
159	0xbe1000da	-0.14062825
160	0xbe0f31d4	-0.13983852
161	0xbef33c81	-0.47507098
162	0x3d51c23c	0.051210627
163	0x3e685c6d	0.22691508
164	0xbd38228c	-0.04495482
165	0xbea30f88	-0.31847787
166	0xbe0992c4	-0.13434893
167	0xbe61a9e4	-0.22037464
168	0x3dd0a119	0.10186977
169	0x3ea26add	0.31722155
170	0xbee55081	-0.44787982
171	0xbe77abad	-0.24186583
172	0x3e9b8149	0.30372074
173	0xbe117e8b	-0.14208429
174	0xbe1c37cc	-0.1525566
175	0xbea6f8b3	-0.32611617
176	0xbe7cbf6b	-0.24682395
177	0x3eb1e504	0.34745038
178	0x3ea7486a	0.32672435
179	0x3e7e4ccf	0.24833988
180	0x3ea586ed	0.32329503
181	0x3e3e2ef8	0.18572605
182	0x3e62131d	0.22077604
183	0x3ed9824a	0.42482215
184	0x3ef35025	0.47522083
185	0x3e59fbd7	0.21287476
186	0xbebb8e46	-0.36631984
187	0xbe918bf4	-0.28427088
188	0x3d299419	0.041401003
189	0x3e408780	0.18801689
190	0xbe071e7a	-0.1319522
191	0xbe31ab17	-0.17350422
192	0x3e028441	0.12745763
193	0x3eba66c0	0.36406517
194	0xbed12c12	-0.40853935
195	0x3d9bcddd	0.07607625
196	0x3e6cf40e	0.23139974
197	0xbd189a49	-0.037256513
198	0x3e8c4d4d	0.27402726
199	0xbe0347f9	-0.12820424
200	0xbeebec76	-0.46078843
201	0xbe1fe752	-0.15615585
202	0x3ed33e62	0.41258532
203	0x3e86d379	0.26333216
204	0xbec4b99e	-0.38422865
205	0x3e4fb50d	0.20283909
206	0xbedbb68f	-0.4291272
207	0xbedf5507	-0.43619558
208	0x3eefe8cb	0.46857294
209	0x3e7f9b0c	0.2496149
210	0xbe159021	-0.14605762
211	0x3e63a179	0.22229566
212	0x3ed1dacb	0.40987238
213	0x3e4475f7	0.19185625
214	0x3ef6a3f9	0.48171976
215	0xbee37d44	-0.44431508
216	0x3d1f2e60	0.038862586
217	0xbed018b0	-0.40643835
218	0x3eeb49c2	0.4595471
219	0xbd3b5236	-0.0457327
220	0x3e1f5216	0.15558657
221	0x3d6b4be1	0.05744541
222	0xbdf3e375	-0.11908618
223	0x3ebce1c2	0.3689099
224	0xbedc3cc5	-0.43015113
225	0x3e2f386c	0.17111367
226	0x3e52a71d	0.20571561
227	0xbed34397	-0.41262504
228	0xbe1c83fc	-0.15284723
229	0xbce5eb16	-0.0280662
230	0xbdfb98ca	-0.122850016
231	0xbe341472	-0.17585924
232	0x3eb76d45	0.35825554
233	0xbe9e58e7	-0.30927202
234	0xbc3bedf4	-0.011470307
235	0x3d5a8e43	0.053358328
236	0xbcf3e86d	-0.029773915
237	0xbecb5e1c	-0.39720237
238	0x3ec4393c	0.38324916
239	0xbeb6dd2e	-0.35715622
240	0xbd89cbc6	-0.0672832
241	0xbef0e9d4	-0.47053397
242	0x3e82fcf3	0.2558361
243	0x3edfa6a1	0.43681815
244	0xbef49a08	-0.47773767
245	0x3e2bda5d	0.16782518
246	0x3ec69709	0.38787106
247	0xbe465543	-0.19368462
248	0x3e18abf3	0.14909343
249	0xbea92706	-0.33037585
250	0xbc81eab3	-0.015858984
251	0x3e111cfd	0.14171214
252	0x3e6b7e48	0.22997391
253	0xbe8bb052	-0.2728296
254	0xbe8cf473	-0.2753025
255	0x3eb69493	0.35660228

pos_encoder.2.bias f4 [48]
0	0xbedb1001	-0.42785648
1	0xbe34f867	-0.17672883
2	0xbd3e1750	-0.04640895
3	0xbeedd687	-0.46452734
4	0x3e3f3af8	0.18674839
5	0x3e647539	0.22310342
6	0x3e9ab878	0.30218863
7	0xbebbad4b	-0.3665565
8	0x3e75a709	0.239895
9	0xbe1fe996	-0.1561645
10	0x3dd05d11	0.10174001
11	0x3d69b281	0.057055
12	0xbd04bc0a	-0.03240589
13	0x3ecf0c55	0.40439096
14	0xbebf90d5	-0.37415186
15	0xbe73b7e6	-0.2380062
16	0x3e18e75b	0.14932005
17	0x3ee6da7f	0.45088574
18	0x3ef752e8	0.4830544
19	0xbebfbfde	-0.3745107
20	0x3eff2e6c	0.49840105
21	0xbe9cdae6	-0.30635756
22	0xbe3bd189	-0.1834165
23	0xbe33cf50	-0.17559552
24	0x3d44270b	0.047888797
25	0xbebb3dfd	-0.3657073
26	0x3e024ce3	0.12724642
27	0x3e6cdd0a	0.23131195
28	0x3e9d1ba8	0.30685163
29	0x3e443115	0.19159348
30	0xbee82670	-0.45341825
31	0x3e898598	0.26859736
32	0xbd8f2268	-0.06988984
33	0xbe8e3d36	-0.27781075
34	0x3e79ac55	0.24382146
35	0xbe70235d	-0.2345099
36	0xbeb0a9f4	-0.34504664
37	0xbe693314	-0.22773391
38	0xbeca4eb9	-0.39513186
39	0xbee95a68	-0.45576787
40	0xbe9a8439	-0.30179003
41	0xbde30d02	-0.110864654
42	0xbec82c44	-0.39096272
43	0x3ec60a4c	0.3867973
44	0x3e8d0e14	0.27549803
45	0x3eb88d7c	0.36045444
46	0x3edb32c5	0.42812172
47	0xbd90e4d7	-0.07074898

pos_encoder.4.weight f4 [96, 48]
0	0x3e34abcc	0.1764366
1	0xbdcff8ea	-0.101548985
2	0x3e069970	0.1314447
3	0x3df67f71	0.12036026
4	0x3e2b0267	0.16700135
5	0x3e724a40	0.23661137
6	0x3e322e05	0.17400368
7	0x3d000475	0.03125425
8	0x3d11e27d	0.035616387
9	0xbc656c83	-0.014002922
10	0xbe28ec8d	-0.16496487
11	0xbeab300f	-0.33435103
12	0x3dd04091	0.10168565
13	0x3cf64570	0.030062407
14	0xbe761255	-0.2403043
15	0x3d8ae8d8	0.06782693
16	0x3db9de7c	0.09075639
17	0x3e1e656d	0.15468378
18	0x3e1bebca	0.15226665
19	0xbe93b9a1	-0.2885256
20	0x3dba776d	0.0910481
21	0x3e24e6e9	0.1610371
22	0x3d534787	0.051581886
23	0x3d198a91	0.037485663
24	0xbe3d4e46	-0.1848689
25	0x3ea626aa	0.32451373
26	0x3dcd546d	0.100258686
27	0x3dfffd4d	0.12499485
28	0xbb150244	-0.0022736946
29	0xbd3355db	-0.04378305
30	0xbe26e478	-0.16298091
31	0xbe589269	-0.21149601
32	0xbe2e0719	-0.16994895
33	0xbe17f83e	-0.1484079
34	0x3e446ac0	0.19181347
35	0xbe8dd1a2	-0.27699
36	0x3e9f5b35	0.31124273
37	0x3dcc701a	0.09982319
38	0xbe5a5aa2	-0.21323636
39	0x3e25805e	0.1616225
40	0xbe74c2e2	-0.23902467
41	0x3ea72b48	0.32650208
42	0x3b455bd2	0.0030114544
43	0x3d69a8ba	0.057045676
44	0xbe4b5efb	-0.19860451
45	0xbe01b2c5	-0.12665851
46	0xbd11db45	-0.035609502
47	0x3d889fde	0.06671117
48	0x3dd46819	0.103714176
49	0xbd22130a	-0.03956894
50	0xbb8892b9	-0.0041678813
51	0xbe8593b1	-0.26089242
52	0xbe545852	-0.20736817
53	0x3df6ffda	0.120605186
54	0x3e41ee19	0.18938483
55	0xbe907891	-0.28216985
56	0x3e5e416f	0.21704648
57	0x3d1af36b	0.037829798
58	0xbe5451d9	-0.20734347
59	0x3d8990d2	0.067170754
60	0x3e2342e4	0.15943485
61	0x3d61dd04	0.055142418
62	0xbd529c01	-0.05141831
63	0x3d8343e4	0.064094335
64	0xbda5fcab	-0.08104833
65	0xbe80dccc	-0.25168455
66	0xbeaa9f06	-0.3332445
67	0xbde8b625	-0.11362866
68	0xbdf87ecd	-0.1213356
69	0xbe2a1c9d	-0.16612478
70	0xbd83c3c3	-0.06433823
71	0x3e1dd009	0.1541139
72	0xbd929495	-0.07157246
73	0x3e761547	0.24031554
74	0x3e8c925c	0.27455413
75	0xbea20582	-0.31644827
76	0xbe3945cc	-0.18093032
77	0x3cf8fd7d	0.03039431
78	0xbc79976f	-0.0152338585
79	0x3b8ed208	0.004358534
80	0x3d57c625	0.0526792
81	0xbe56c038	-0.20971763
82	0x3ea5bde3	0.32371435
83	0x3e446ce8	0.1918217
84	0x3dccea36	0.1000561
85	0x3e98b2d9	0.2982395
86	0xbe9cd6be	-0.30632585
87	0xbe0d285a	-0.13784924
88	0xbeadc372	-0.33938175
89	0x3dcc6bd8	0.09981507
90	0x3e287664	0.16451412
91	0xbea8f00c	-0.3299564
92	0x3e17677b	0.14785568
93	0xbe53ee84	-0.20696455
94	0x3e944fb3	0.28967056
95	0xbe9c7199	-0.30555418
96	0xbe893abf	-0.26802632
97	0xbcbfc1b0	-0.023407787
98	0xbe6ed79e	-0.23324439
99	0x3e8c8a31	0.27449182
100	0x3e3780fa	0.17920294
101	0xbea2d1d1	-0.31800702
102	0x3c9af1a5	0.018914053
103	0x3c172149	0.009224244
104	0x3c1fc799	0.009752178
105	0x3e996c0b	0.29965243
106	0xbd9d91b7	-0.076938085
107	0xbe8f21f4	-0.27955592
108	0xbe82e47c	-0.25564945
109	0xbe274b04	-0.1633721
110	0x3e87f26b	0.26552138
111	0x3e9c9fd2	0.30590683
112	0x3e9b5a59	0.30342367
113	0xbdc50633	-0.09620323
114	0xbea6e091	-0.32593206
115	0xbe937dd6	-0.28806943
116	0x3c913cb3	0.017729139
117	0x3ea74bcd	0.3267502
118	0xbe968e27	-0.2940533
119	0xbe7d92c6	-0.24763021
120	0xbe45a54d	-0.19301338
121	0xbe390c7d	-0.1807117
122	0xbe633aaf	-0.22190355
123	0x3dc2ecd3	0.09517827
124	0xbdfcfe54	-0.12353197
125	0xbe65dd96	-0.2244781
126	0xbe076007	-0.13220225
127	0xbea97610	-0.33097887
128	0xbe7b8f39	-0.24566354
129	0x3df54a9d	0.11977122
130	0x3e117442	0.14204505
131	0xbea331f3	-0.31874046
132	0x3de15c4d	0.11003933
133	0x3e83dec1	0.25755885
134	0x3da458e9	0.08024771
135	0x3e9ad09a	0.30237275
136	0xbdeaa832	-0.11457862
137	0x3cd09d32	0.025465582
138	0xbe0cc51e	-0.13747069
139	0x3e8a2432	0.2698074
140	0x3c8e4dfb	0.017371168
141	0xbe6ce655	-0.2313474
142	0x3e024d7c	0.1272487
143	0xbe6101df	-0.2197337
144	0x3ea7df91	0.32787755
145	0xbdc36e4f	-0.09542524
146	0x3b45991e	0.003015108
147	0xbd2ece5d	-0.042677272
148	0x3def79d2	0.11693157
149	0xbe6dcc16	-0.23222384
150	0x3e44c7d5	0.19216855
151	0xbe62d700	-0.22152328
152	0xbdd061af	-0.10174882
153	0xbe08b14e	-0.13348886
154	0xbd77e3bd	-0.060519923
155	0x3e0aa341	0.13538839
156	0x3e32d86c	0.17465371
157	0x3e7b5956	0.24545798
158	0x3e9620ca	0.2932189
159	0xbeac9df3	-0.33714256
160	0xbeafa6eb	-0.34307036
161	0xbe07e3b7	-0.1327046
162	0xbe7a0149	-0.24414553
163	0xbe9a2e30	-0.30113363
164	0xbdceac3c	-0.10091445
165	0x3c0f82b0	0.008759186
166	0xbdf9b929	-0.121935196
167	0x3c80a9f4	0.01570604
168	0xbe47aff2	-0.19500712
169	0xbdf9179e	-0.12162708
170	0x3a0009c3	0.0004884267
171	0x3c48d760	0.012258381
172	0x3dd6f660	0.10496211
173	0xbdeb7012	-0.11495985
174	0x3d4b79d8	0.049676746
175	0x3e5f35cf	0.2179787
176	0x3ea0d264	0.31410515
177	0xbd3d66f9	-0.04624078
178	0xbe0ab24f	-0.13544582
179	0x3e0158a6	0.12631473
180	0x3e1ecc05	0.15507515
181	0xbea22593	-0.31669292
182	0xbe2acc6c	-0.16679543
183	0x3dfcfadc	0.12352535
184	0x3e3cf22c	0.18451756
185	0xbe0f6db3	-0.1400669
186	0xbe85060c	-0.25981176
187	0xbe773e59	-0.24144877
188	0xbe00909f	-0.12555169
189	0x3e841ca3	0.25803098
190	0xbeadb4c7	-0.33926985
191	0x3ea03e70	0.31297636
192	0x3e53168f	0.20614074
193	0x3e64f081	0.2235737
194	0xbe7d6be8	-0.24748194
195	0xbc5c8c81	-0.013461233
196	0xbeab977a	-0.33514005
197	0x3e8ade3d	0.2712268
198	0x3cb81961	0.02247304
199	0x3e896916	0.26837987
200	0xbe8232ff	-0.25429532
201	0x3d504cad	0.050854374
202	0xbe8561d7	-0.26051208
203	0x3b837fc0	0.0040130317
204	0x3e4344b2	0.19069174
205	0x3ea165ef	0.31523082
206	0x3c5b207a	0.013374442
207	0xbe367f70	-0.17822051
208	0xbea81b4a	-0.3283332
209	0x3dfdefb6	0.12399237
210	0x3ddaab0b	0.10677155
211	0x3d4154b8	0.047199935
212	0x3d3739e1	0.044732932
213	0x3d82196d	0.06352506
214	0x3ea86fac	0.328977
215	0xbb96f03c	-0.004606275
216	0xbe577bde	-0.21043345
217	0xbd80eb73	-0.062949084
218	0xbdecd6e0	-0.11564422
219	0x3e9b09b8	0.30280852
220	0x3e219445	0.15779217
221	0xbea5b20f	-0.3236241
222	0x3e0d312e	0.13788292
223	0x3e8681ad	0.2627081
224	0x3e6e6ab3	0.2328289
225	0x3e39db04	0.18149954
226	0xbe402724	-0.18764931
227	0xbceba531	-0.028765293
228	0x3e48dfb5	0.19616587
229	0x3d9133d6	0.07089965
230	0x3e9c4213	0.3051916
231	0xbe1e07ea	-0.15432706
232	0xbeaee86b	-0.34161696
233	0x3e9af954	0.30268347
234	0xbdfad3f9	-0.12247462
235	0xbc8d62aa	-0.01725896
236	0xbe5e6773	-0.2171915
237	0x3e8c4eb9	0.2740381
238	0xbdf312b6	-0.11868803
239	0x3ea2858d	0.31742516
240	0xbd83237a	-0.06403251
241	0xbe4d0d85	-0.20024689
242	0x3e17662c	0.14785069
243	0xbe44186e	-0.19149944
244	0xbdc28c0d	-0.09499369
245	0x3dfa200a	0.12213142
246	0xbde553eb	-0.11197647
247	0x3e7c0c0a	0.24613968
248	0xbe3fa665	-0.18715818
249	0x3e529e62	0.20568231
250	0xbd8a7060	-0.06759715
251	0x3e3b3894	0.18283302
252	0x3cd38670	0.02582094
253	0xbeb050ed	-0.3443674
254	0x3ea92252	0.33033997
255	0x3df9a3ac	0.12189421

pos_encoder.4.bias f4 [96]
0	0xbe05372a	-0.13009325
1	0x3e07a07a	0.1324481
2	0xbe8d8480	-0.27640152
3	0xbe3ce1aa	-0.18445459
4	0x3e275a3e	0.16343018
5	0xbeaf2ef3	-0.34215507
6	0xbeb0e8ca	-0.34552604
7	0x3e702ad5	0.23453839
8	0xbd8ede6b	-0.069760166
9	0x3de92104	0.1138325
10	0xbeb1f1a3	-0.34754667
11	0xbe05b220	-0.1305623
12	0x3e173cb3	0.14769249
13	0x3e48bbc6	0.1960288
14	0xbdd7a4c9	-0.10529477
15	0xbdcf9784	-0.10136321
16	0x3b1cea76	0.002394346
17	0xbe39b5fa	-0.18135825
18	0x3ce6e6e2	0.028186265
19	0xbe485d3c	-0.19566816
20	0xbe383548	-0.17989075
21	0x3ea4ab25	0.32161823
22	0x3e9b985f	0.30389687
23	0xbea1e7ba	-0.31622106
24	0x3e9ce773	0.30645332
25	0x3e374203	0.17896275
26	0xbe1a2650	-0.15053678
27	0x3e9e361c	0.30900657
28	0xbe98afe8	-0.29821706
29	0xbdd66c72	-0.10469903
30	0x3eaab176	0.33338517
31	0xbea7d62e	-0.32780594
32	0xbdcf0b6d	-0.10109601
33	0x3e088591	0.13332202
34	0x3e37dcd9	0.1795534
35	0x3e659d31	0.22423245
36	0xbe4ec9e7	-0.20194207
37	0xba58afc2	-0.0008265936
38	0x3e5eb1c0	0.21747494
39	0x3dfb7944	0.12278989
40	0xbe97b4d6	-0.29630154
41	0x3e75a9eb	0.239906
42	0xbdba9f19	-0.09112377
43	0x3e893cd8	0.26804233
44	0xbdf4890e	-0.119402036
45	0xbe5443d8	-0.20729005
46	0x3e0686f4	0.13137418
47	0xbc1f71e3	-0.009731743
48	0x3dea870c	0.114515394
49	0xbc314f14	-0.010822076
50	0xbdf9e374	-0.12201586
51	0xbd8fdb36	-0.07024233
52	0xbe49df67	-0.19714127
53	0xbda54074	-0.08068934
54	0xbe8f63b8	-0.28005767
55	0xbdcf0298	-0.101079166
56	0x3e99a8e3	0.30011663
57	0xbdd3eca9	-0.10347874
58	0xbe9ed6da	-0.31023294
59	0xbdee5d5b	-0.116389
60	0xbdf96317	-0.12177103
61	0x3d242965	0.04007854
62	0x3cabae79	0.020957218
63	0x3e867197	0.26258537
64	0x3e4f1a0b	0.20224778
65	0x3dce70ae	0.10080086
66	0xbe036a8b	-0.12833612
67	0xbe9d7b88	-0.3075831
68	0xbd6e29b8	-0.058145255
69	0xbe85928c	-0.2608837
70	0x3e6f24ea	0.23353925
71	0x3dd9005d	0.105957724
72	0x3e86dc88	0.26340127
73	0xbe5c36bd	-0.21505256
74	0x3e82551a	0.25455552
75	0x3dccbb19	0.099966235
76	0x3e8d1944	0.2755834
77	0xbd07044a	-0.032963075
78	0x3df1484d	0.117813684
79	0x3e2f46de	0.17116877
80	0x3d3018ba	0.04299233
81	0x3e110b79	0.14164533
82	0x3e40450c	0.1877634
83	0x3e0615d4	0.13094264
84	0x3e29300e	0.16522238
85	0x3e9ecee3	0.31017217
86	0xbdf369a5	-0.118853845
87	0xbe8aa140	-0.2707615
88	0xbdffc896	-0.124894306
89	0xbbe7f47e	-0.0070787063
90	0xbe94fdca	-0.29099876
91	0x3e0c4886	0.1369954
92	0x3e836aa3	0.25667295
93	0xbd9d3411	-0.076759465
94	0xbe5eb32a	-0.21748033
95	0x3ea67b42	0.32515913

fc_encoder.0.weight f4 [8, 14]
0	0xbc8dcd57	-0.017309828
1	0xbb93ea41	-0.004514009
2	0xbcb3c3c2	-0.02194393
3	0xbd3ea137	-0.046540465
4	0x3d91382a	0.070907906
5	0x3d0fc3bc	0.035098776
6	0xb9cc5cd0	-0.00038979063
7	0x3d58e537	0.05295297
8	0x3b5634e2	0.003268533
9	0x3d478e07	0.048719432
10	0x3d323c8e	0.04351478
11	0xbbee298f	-0.0072681378
12	0xbc826c07	-0.015920652
13	0xbc87becf	-0.016570477
14	0x3d0ea907	0.034829166
15	0xbc059f6c	-0.008155685
16	0xbd52ec41	-0.05149484
17	0x3c86f9b2	0.016476486
18	0x3c3362b4	0.010948826
19	0x3d0ba703	0.03409482
20	0x3d1e511d	0.038651574
21	0x3d02eaa6	0.03196206
22	0x3caa4d91	0.02078894
23	0xbce0c150	-0.027435929
24	0x3d8b2436	0.06794016
25	0x3b9747fe	0.0046167364
26	0x3c85a286	0.016312849
27	0xbc65098c	-0.013979327
28	0x3cfe8b1e	0.031072196
29	0x3cc09daa	0.02351268
30	0xbd21c895	-0.03949793
31	0xbd30f6cd	-0.043204118
32	0x3c14eb8b	0.009089361
33	0x3cb7893b	0.022404304
34	0x3cf71501	0.030161383
35	0x3caa84c3	0.020815259
36	0x3cf2c335	0.029634098
37	0xbca9a94d	-0.020710612
38	0xbb1ca02c	-0.002389918
39	0xbcb277f1	-0.021785708
40	0xbccdced5	-0.02512304
41	0x3ce7df37	0.02830468
42	0xba65ae81	-0.000876166
43	0x3af93294	0.0019012266
44	0xbb085311	-0.0020801465
45	0xba8c2fdc	-0.0010695416
46	0x39bcac61	0.00035986587
47	0x3b997c7e	0.00468403
48	0xbda02d54	-0.07821146
49	0xbba913f8	-0.005159851
50	0xbb36a544	-0.0027869502
51	0x3a7e049f	0.00096900197
52	0x39040731	0.0001259118
53	0xbbd1487a	-0.0063868137
54	0xbb8013ba	-0.0039086016
55	0xbd8e7a9a	-0.06956978
56	0xbb15f090	-0.0022878982
57	0xbb14807c	-0.002265959
58	0xbb15ecbf	-0.0022876707
59	0xbb17cd35	-0.0023163084
60	0xbb1860d1	-0.0023251066
61	0xbb198181	-0.0023423138
62	0xbb0e21da	-0.0021687658
63	0xbb114f56	-0.0022172532
64	0xbb1fa1e1	-0.0024357962
65	0xbb1d27d9	-0.002398005
66	0xbb0c9d13	-0.0021455928
67	0xbb182b6e	-0.0023219245
68	0xbb14a0a3	-0.0022678755
69	0xbb1717b7	-0.0023054907
70	0xbd406e53	-0.046980213
71	0xbd175a2e	-0.036951236
72	0x3d3a7b7b	0.045527916
73	0xbbe6d0a2	-0.007043914
74	0xbc844d35	-0.016150096
75	0x3d1cd687	0.038290527
76	0x3ae1b781	0.0017220826
77	0x3d9fc495	0.07801167
78	0xbcd6579b	-0.02616482
79	0x3c46df3b	0.012138183
80	0x3cf0cbc1	0.029394032
81	0xbd705672	-0.05867619
82	0x3cb57c70	0.022154063
83	0x3c2b3064	0.010448549
84	0xbd466b3a	-0.048442103
85	0x3b9e193c	0.0048247855
86	0xbcf7e430	-0.030260175
87	0xbd039098	-0.032120317
88	0xbd230783	-0.039802086
89	0x3c9c78cc	0.01910057
90	0x3d3898a1	0.045067433
91	0xbd387561	-0.045033816
92	0x3d1cf7cb	0.03832225
93	0x3d2aa699	0.041662786
94	0xbcafc8a4	-0.021457978
95	0xbd00c360	-0.031436324
96	0xbcb2bbd0	-0.021818072
97	0xbd18acb4	-0.037274078
98	0xbd026a6c	-0.031839773
99	0x3c2ca26e	0.010536773
100	0x3d62c0c3	0.055359613
101	0xbc32176a	-0.01086984
102	0xbbdf23f5	-0.0068097063
103	0xbcffb303	-0.03121329
104	0x3d4ae0bf	0.04953074
105	0xbcf07a20	-0.029355109
106	0xbc5fbe2c	-0.01365618
107	0x3cff35da	0.031153608
108	0xbd850a43	-0.06496098
109	0xb9e89a78	-0.00044365576
110	0xbc3ee30c	-0.011650812
111	0x3c83c8ab	0.016086897

fc_encoder.0.bias f4 [8]
0	0x3d93732d	0.071997024
1	0x3ceb6973	0.028736806
2	0xbd822298	-0.063542545
3	0xbd3c7098	-0.046005815
4	0xbd84a9ed	-0.06477723
5	0x3d236e3b	0.039900046
6	0x3b2c2f9c	0.0026273495
7	0x3d618d19	0.0550662

fc_encoder.2.weight f4 [16, 8]
0	0xbd1da3bf	-0.03848624
1	0x3e4aebc9	0.19816507
2	0x3e418681	0.18898965
3	0x3dc1b27e	0.09457873
4	0x3f76c09f	0.96387666
5	0xbe177808	-0.14791882
6	0x3d871683	0.06596091
7	0x3cb0a651	0.02156368
8	0xbc7a021b	-0.015259291
9	0x3b8f587d	0.0043745623
10	0x3e61766e	0.22017834
11	0xbd2c4a67	-0.042063143
12	0x3f03d1e7	0.5149216
13	0x3ed39fc5	0.41332832
14	0x3e738b50	0.23783612
15	0x3e95c80a	0.2925418
16	0xbe832f3e	-0.2562198
17	0xbeb654b4	-0.35611498
18	0xbefc07aa	-0.49224597
19	0x3e14d051	0.14532591
20	0x3c47be5c	0.012191381
21	0x3eda6708	0.42656732
22	0x3dd3dda2	0.103450075
23	0x3ebbdbae	0.3669104
24	0x3e79a94d	0.2438099
25	0x3ccc61d3	0.02494899
26	0x3e318db4	0.17339212
27	0xbdbaf28e	-0.09128295
28	0x3c9d6393	0.01921252
29	0x3ea0c57f	0.31400678
30	0x3f1560e5	0.58350974
31	0xbe98c056	-0.2983424
32	0x3d4e7680	0.05040598
33	0xbe35ffbd	-0.17773338
34	0xbe3dd5b0	-0.18538547
35	0xbe2389b5	-0.159705
36	0xbe9b2803	-0.30303964
37	0x3e75b005	0.23992927
38	0xbf225c6d	-0.6342228
39	0xbdc10946	-0.09425597
40	0xbe69e0dc	-0.22839683
41	0x3e8e4c4f	0.27792594
42	0xbe08a80a	-0.13345352
43	0x3e1742b9	0.14771546
44	0x3f28b2fc	0.6589811
45	0xbe7ef323	-0.24897437
46	0xbec1f7fc	-0.3788451
47	0x3f105a62	0.56387913
48	0xbd516a72	-0.051126905
49	0xbf09a1d0	-0.5376253
50	0x3e38d205	0.18048866
51	0x3d4e5573	0.05037446
52	0xbf20082f	-0.6251249
53	0x3ee91fe6	0.4553215
54	0x3f305b22	0.6888906
55	0xbe0da623	-0.13832907
56	0xbea12f13	-0.31481227
57	0x3d9b6be0	0.07588935
58	0x3e9dfe04	0.3085786
59	0xbd20c73e	-0.039252512
60	0xbf232e5a	-0.637426
61	0x3e5693f3	0.20954876
62	0x3d384165	0.04498424
63	0x3ebe0f55	0.37121072
64	0x3dee7aa3	0.11644485
65	0x3eb483a5	0.35256687
66	0xbc157636	-0.009122422
67	0xbd6c4db2	-0.057691284
68	0xbf0afc09	-0.54290825
69	0xbca928dd	-0.020649368
70	0xbee5f7d0	-0.44915628
71	0x3d8f9507	0.070108466
72	0xbd966c4d	-0.073448755
73	0xbea694d1	-0.32535413
74	0x3ef7602d	0.48315564
75	0xbe3206a8	-0.17385352
76	0x3e2940c6	0.16528615
77	0x3f1285a5	0.57235175
78	0x3e80643b	0.2507647
79	0x3ebfc702	0.37456518
80	0xbd95776d	-0.07298169
81	0xbe9b1b93	-0.30294475
82	0xbe8371a9	-0.25672653
83	0x3eaa4649	0.33256748
84	0x3e2e8e4c	0.1704647
85	0x3e222c45	0.158372
86	0x3e5d12a4	0.21589142
87	0xbed5501d	-0.41662684
88	0xbb747a4a	-0.0037304335
89	0x3eedf261	0.46473983
90	0xbe4a1fc7	-0.19738685
91	0x3eae0296	0.33986348
92	0xbf03b953	-0.5145466
93	0xbdf16fab	-0.11788877
94	0x3e6ca5f3	0.2311018
95	0x3d96014f	0.07324468
96	0x3e98aa2a	0.29817325
97	0xbc052af8	-0.00812792
98	0x3ee65df4	0.44993556
99	0xbd979c14	-0.074028164
100	0xbf21b1b6	-0.6316179
101	0x3e9fa540	0.31180763
102	0x3e54e5cf	0.2079079
103	0x3e6e352e	0.23262474
104	0x3eeac41d	0.45852748
105	0xbf044d35	-0.5168031
106	0x3ec651fc	0.38734424
107	0xbdaf2d51	-0.08553565
108	0x3e609f05	0.21935661
109	0x3e07c4e7	0.13258706
110	0x3dcc3563	0.0997112
111	0xbf2bc5ea	-0.6709887
112	0x3e23f0b7	0.16009794
113	0xbed4a1d4	-0.41529715
114	0x3ea087b2	0.31353527
115	0x3e8ba3f2	0.27273518
116	0xbf2116e3	-0.6292555
117	0x3c2586ad	0.01010291
118	0x3ee92f2e	0.45543808
119	0xbec793bb	-0.38979897
120	0xbe65b9e4	-0.22434193
121	0x3e9ddbce	0.3083176
122	0xbe2146a5	-0.15749605
123	0x3db32336	0.0874695
124	0xbf298b97	-0.6622862
125	0xbea8a26d	-0.3293642
126	0xbed95ea0	-0.42455006
127	0x3ec56685	0.3855478

fc_encoder.2.bias f4 [16]
0	0xbe3a6b21	-0.18204929
1	0xbe8f3e99	-0.27977446
2	0xbf0fd86f	-0.56189626
3	0x3f493231	0.7859221
4	0x3f105f77	0.5639567
5	0x3eb39443	0.35074052
6	0xbf4a1494	-0.7893765
7	0x3e4cc5bd	0.19997306
8	0x3f3dd2b0	0.7414961
9	0xbf2f247b	-0.6841504
10	0xbe0358db	-0.12826864
11	0x3ebdfad8	0.3710544
12	0xbd2f7715	-0.042838175
13	0xbf16b63d	-0.58871824
14	0x3eddf141	0.43348125
15	0xbefca1e4	-0.49342263

fc_encoder.4.weight f4 [32, 16]
0	0x3e7fe186	0.24988374
1	0x3ecff610	0.40617418
2	0x3e54f01e	0.20794722
3	0x3e148317	0.14503132
4	0xbdd41274	-0.10355082
5	0xbe0056b6	-0.12533078
6	0x3eaa0b7e	0.33211893
7	0xbe62b2aa	-0.22138467
8	0x3ef11b6b	0.4709123
9	0xbead9905	-0.33905807
10	0x3e91185d	0.283389
11	0x3eacba59	0.33735922
12	0xbe8f33fc	-0.27969348
13	0x3f146453	0.5796558
14	0x3d6f99bd	0.058496226
15	0x3e539509	0.20662321
16	0x3d47cb5b	0.04877792
17	0xbc452dc6	-0.012034839
18	0xbea45c26	-0.32101554
19	0x3e270dd0	0.16313863
20	0x3e217e7f	0.1577091
21	0xbe8174b0	-0.25284338
22	0xbe7fe23d	-0.24988647
23	0x3ea8ce13	0.32969722
24	0x3f09b241	0.5378762
25	0x3de3f258	0.11130208
26	0x3ee067b2	0.43829113
27	0xbe27c3d3	-0.16383295
28	0xbf0e7d0e	-0.5565957
29	0x3e8c8ec7	0.2745268
30	0xbf05b152	-0.52223694
31	0xbe9ac720	-0.30230045
32	0x3e9ec23f	0.31007573
33	0x3e35b591	0.17745043
34	0x3eb09bd8	0.344939
35	0x3ebdacf2	0.3704601
36	0x3e678d23	0.22612433
37	0x3e9ef996	0.31049794
38	0xbe911644	-0.283373
39	0xbec88aaa	-0.39168292
40	0xbdba7e70	-0.09106147
41	0x3e0b36e0	0.13595152
42	0xbece6b73	-0.40316352
43	0xbeeea36c	-0.46609056
44	0xbed33616	-0.41252202
45	0xbef5be17	-0.4799659
46	0x3eddbfde	0.43310446
47	0x3c427891	0.011869566
48	0x3e84401d	0.25830165
49	0x3e870984	0.26374447
50	0x3e4771ca	0.19477001
51	0x3c26a626	0.010171449
52	0xbe7920ea	-0.24328962
53	0xbe9132e0	-0.28359127
54	0xbea98d13	-0.33115444
55	0xbf0256a4	-0.50913453
56	0xbeb3646a	-0.35037547
57	0xbf0c23a9	-0.54741913
58	0x3d7fa3d7	0.06241211
59	0xbdbf4b52	-0.09340538
60	0x3e8bce05	0.27305618
61	0xbf1015e2	-0.5628339
62	0xbe1a0ed9	-0.15044726
63	0xbebcbc6b	-0.36862502
64	0x3edfa937	0.43683788
65	0xbe7e0733	-0.24807434
66	0x3ecdd00d	0.40197793
67	0xbdb08523	-0.08619144
68	0xbecac792	-0.39605385
69	0xbdc49e0f	-0.0960046
70	0x3ed974ce	0.42471927
71	0xbd229438	-0.039692134
72	0x3eee7286	0.4657175
73	0x3db9e546	0.090769336
74	0xbe189da4	-0.14903885
75	0xbe5d5f0b	-0.21618287
76	0xbdae3ce9	-0.085077114
77	0xbeb3061d	-0.34965602
78	0xbe2fd7fc	-0.17172235
79	0xbd149f5b	-0.036284786
80	0xbe9dceaa	-0.30821735
81	0xbe975627	-0.29557917
82	0xbd61e492	-0.055149622
83	0x3e2659dc	0.16245216
84	0x3ef841c2	0.4848767
85	0x3ee1ad4e	0.44077533
86	0xbdb0028a	-0.08594234
87	0x3cbc9b5d	0.023023302
88	0xbeeb792a	-0.45990878
89	0xbd640d28	-0.05567661
90	0x3ecdde39	0.40208605
91	0x3e25f988	0.1620847
92	0x3f13c0fe	0.5771636
93	0x3efd983b	0.49530205
94	0x3dd32624	0.10310009
95	0x3e51c7e6	0.20486411
96	0xbe1910bf	-0.14947794
97	0xbf1a24a8	-0.60212183
98	0x3ef54332	0.47902828
99	0xbd81ce6d	-0.06338201
100	0x3eb29d42	0.34885603
101	0x3e744957	0.23856102
102	0xbeae1bd9	-0.3400562
103	0x3eb86683	0.3601571
104	0xbf0f5d96	-0.56002176
105	0x3f0246ed	0.50889474
106	0xbecba3e5	-0.3977348
107	0x3dd6b779	0.104842134
108	0xbdd51d89	-0.10406024
109	0x3e2428ed	0.16031237
110	0x3eba1950	0.36347437
111	0x3e90f5ae	0.2831244
112	0x3ea3f797	0.32024834
113	0x3e81113f	0.2520847
114	0x3e6bd157	0.23029076
115	0x3ead0246	0.33790797
116	0xbe8d5bf5	-0.2760922
117	0xbef025cc	-0.46903837
118	0x3ea0dc54	0.31418097
119	0x3e8b6102	0.2722245
120	0xbf0fed1e	-0.5622119
121	0x3e624328	0.2209593
122	0x3dd612d4	0.1045281
123	0x3ec4e539	0.38456133
124	0x3eede434	0.46463168
125	0xbcce0b78	-0.025151953
126	0xbeea0799	-0.45708922
127	0x3e8fc291	0.2807813
128	0xbee3ef87	-0.44518682
129	0x3e82b69d	0.25529948
130	0x3d9289ac	0.07155165
131	0xbe297b7e	-0.16551015
132	0xbe97ce87	-0.29649755
133	0x3e9aa939	0.30207232
134	0x3f0bb031	0.5456572
135	0xbead7005	-0.33874527
136	0x3f03f962	0.515524
137	0xbf10ac5d	-0.56513005
138	0xbec6749d	-0.38760844
139	0xbeb7a893	-0.358708
140	0x3f06a89b	0.5260102
141	0xbe846fe9	-0.2586663
142	0xbe23da2f	-0.16001199
143	0x3e7cf3b3	0.24702339
144	0x3ee577e7	0.4481804
145	0xbe84b509	-0.2591937
146	0xbe0e3f3d	-0.13891311
147	0xbea7dd4d	-0.32786027
148	0x3e00dece	0.12584993
149	0x3ec95c86	0.39328402
150	0x3f1941ca	0.5986601
151	0xbe09e574	-0.13466436
152	0x3e662314	0.22474319
153	0xbdbf364e	-0.0933653
154	0xbe1978d1	-0.14987494
155	0x3dac3ab5	0.08409635
156	0xbe19d826	-0.1502386
157	0xbe5f2f50	-0.21795392
158	0xbe8477e8	-0.2587273
159	0x3b46bc9b	0.003032482
160	0x3da390fe	0.079866394
161	0xbec31234	-0.38099825
162	0x3e008867	0.12552033
163	0xbedddc49	-0.43332127
164	0x3f0c9abf	0.54923624
165	0xbebff915	-0.37494722
166	0x3e5809c3	0.21097474
167	0x3ca87cab	0.020567259
168	0xbe83f514	-0.25772917
169	0xbf070396	-0.52739847
170	0xbe194a30	-0.14969707
171	0xbef0f9bc	-0.47065532
172	0xbe1eb8d5	-0.15500195
173	0xbe27d3f8	-0.16389453
174	0x3f1b77ad	0.60729486
175	0xbeebae99	-0.46031645
176	0xbe6b3d2b	-0.22972552
177	0x3e06f52f	0.13179468
178	0x3ec9bf18	0.39403605
179	0x3dcf4b5a	0.10121794
180	0xbedff5ea	-0.43742305
181	0x3f0cc7e3	0.549925
182	0xbeb01ed4	-0.3439852
183	0x3ecc50c7	0.39905378
184	0xbee2cbb6	-0.44296044
185	0xbe1ef3c9	-0.15522684
186	0x3e72e7bf	0.23721217
187	0xbef163e1	-0.47146514
188	0xbddd8735	-0.10816804
189	0x3ed959cf	0.4245133
190	0x3df49abe	0.11943577
191	0xbdf04b3d	-0.117331006
192	0x3f16f61c	0.58969283
193	0xbeeef8c7	-0.46674177
194	0x3e7b8821	0.24563648
195	0x3dc7e033	0.097595595
196	0xbec1e75a	-0.3787182
197	0x3e7d7749	0.24752535
198	0xbdc80dd5	-0.09768263
199	0x3ee6d874	0.45087016
200	0xbf0eb516	-0.55745065
201	0xbef514b0	-0.47867346
202	0xb9704e9c	-0.00022917468
203	0xbd83e85e	-0.06440805
204	0x3eb331e4	0.34999
205	0x3e46c96f	0.19412778
206	0x3ecfd86d	0.40594807
207	0x3ed37c63	0.41305837
208	0x3df9c965	0.12196616
209	0xbf070c84	-0.5275347
210	0xbeb37f90	-0.3505826
211	0xbdb0b2f8	-0.086278856
212	0x3e45433b	0.19263928
213	0x3da1127d	0.078648545
214	0x3de43141	0.11142207
215	0xbf05d3f6	-0.5227655
216	0x3ebd7bc9	0.37008503
217	0x3e8ed893	0.27899608
218	0xbec8fb8f	-0.39254424
219	0x3e70b687	0.23507129
220	0xbec4a625	-0.38408008
221	0xbeecd13b	-0.4625338
222	0x3eba65d9	0.3640583
223	0x3eb818ff	0.3595657
224	0x3d0caed6	0.034346424
225	0x3e7c04b2	0.24611166
226	0xbeac7eff	-0.3369064
227	0x3d80c1aa	0.062869385
228	0xbd5b1e2e	-0.05349558
229	0x3ef47018	0.4774177
230	0xbd8a6f8d	-0.06759558
231	0xbebce1b8	-0.3689096
232	0xbe5a4b4d	-0.21317787
233	0x3e4cf189	0.20014013
234	0xbeb6159d	-0.35563365
235	0xbe94cd35	-0.2906281
236	0xbe4508fb	-0.19241707
237	0x3d2a03d2	0.04150755
238	0x3e92d66a	0.2867921
239	0xbe869234	-0.2628342
240	0xbea792cf	-0.32729194
241	0xbd8831d8	-0.06650132
242	0xbeafaafc	-0.34310138
243	0xbd8fe9e6	-0.070270345
244	0xbe8d3017	-0.27575752
245	0xbe8b887f	-0.27252576
246	0xbe8d82ff	-0.27639005
247	0x3e2ff251	0.1718228
248	0xbedf313a	-0.43592244
249	0x3c9ee101	0.0193944
250	0x3eef18ab	0.46698508
251	0x3eed0166	0.4629013
252	0x3ebb1753	0.36541232
253	0xbe87e9c7	-0.26545545
254	0xbd91ad27	-0.07113104
255	0x3da631d7	0.08114975

fc_encoder.4.bias f4 [32]
0	0x3eda182f	0.42596576
1	0xbec57a9b	-0.38570103
2	0x3eb1b1a3	0.3470584
3	0x3e8f320c	0.2796787
4	0x3e857303	0.2606431
5	0x3eb89a3d	0.36055174
6	0xbebfc6d3	-0.37456378
7	0x3eb1c497	0.347203
8	0xbef8f9d2	-0.48628098
9	0xbe9125fe	-0.28349298
10	0x3ed66ebf	0.41881368
11	0x3ecdf64a	0.40226966
12	0x3ebd046d	0.3691744
13	0xbe4e8240	-0.20166874
14	0x3dd73081	0.10507298
15	0x3e9be868	0.3045075
16	0xbee852ad	-0.45375577
17	0xbed2a9d8	-0.41145205
18	0x3ea46f64	0.32116234
19	0x3edd9134	0.43274844
20	0xbed64ece	-0.41856998
21	0xbda3d8f6	-0.080003664
22	0x3e3e0ff2	0.1856077
23	0xbea14cd2	-0.31503922
24	0xbea5c841	-0.32379344
25	0x3eedad61	0.4642134
26	0x3e97db7c	0.2965964
27	0xbe3dafc1	-0.18524076
28	0x3cee552a	0.029093344
29	0xbe9688fc	-0.29401386
30	0x3ef45daa	0.4772771
31	0xbf07668b	-0.52890843

decoder.0.weight f4 [128, 128]
0	0x3bbd00ce	0.005767918
1	0x3c35100d	0.01105119
2	0x3b46ee14	0.0030354308
3	0x3bb870d0	0.0056286827
4	0x3bd25e3a	0.006419924
5	0x3bc0751e	0.0058733365
6	0xbbc43ef9	-0.0059889522
7	0x3a546d95	0.0008103487
8	0xbb1df398	-0.0024101492
9	0x3b89514b	0.004190599
10	0xbbcf11db	-0.006319267
11	0xbbf37e1b	-0.0074308044
12	0xb87809da	-5.9136983e-05
13	0xbbf309c8	-0.0074169375
14	0xbaa442c6	-0.0012532107
15	0x3c13c693	0.009019512
16	0xbba5d612	-0.0050609196
17	0x3a9f79ef	0.0012167076
18	0xba0b9b14	-0.00053255376
19	0xbbd51811	-0.006503113
20	0x3a69ac4f	0.00089139206
21	0xbb35db80	-0.002774924
22	0x39ff139f	0.0004865201
23	0xbaaf9eb1	-0.0013398734
24	0x3c00390f	0.007826104
25	0x3bb39bc2	0.0054812143
26	0xba7f5605	-0.0009740296
27	0x3b8569eb	0.0040714643
28	0x3c117fc7	0.008880562
29	0x3af1eb9e	0.001845706
30	0x3bf4d247	0.007471356
31	0x3c30b25a	0.01078471
32	0xb9bdd827	-0.00036209935
33	0x3c4d92bf	0.012547194
34	0xbb33057c	-0.0027316501
35	0x38c2281a	9.2581104e-05
36	0x3b1e8fb3	0.0024194538
37	0xbb56fdc5	-0.0032805067
38	0xbb36cf99	-0.0027894734
39	0xbb6c8cac	-0.003609459
40	0xbb643ba5	-0.003482559
41	0x39e96514	0.00044516532
42	0x3c19da88	0.009390481
43	0xbb1d3c9b	-0.0023992423
44	0xbbbacae1	-0.0057004546
45	0x3a874fac	0.0010323427
46	0x3ae46dd7	0.0017427754
47	0x3c0beebf	0.008540808
48	0x3c04ba09	0.008100995
49	0xb91c4635	-0.00014903473
50	0x3aa6a7f2	0.0012714847
51	0x3b7cb4e2	0.0038559963
52	0xba1d58c6	-0.0006002303
53	0xbbb15230	-0.005411409
54	0x3be793ec	0.007067194
55	0xbb5e14bd	-0.0033886873
56	0xbaa54d39	-0.0012611515
57	0xbb9cfce2	-0.004790888
58	0x3b1c7da5	0.00238786
59	0x3c0bece6	0.008540368
60	0x3b2a9467	0.0026028396
61	0xbb84f1a5	-0.0040571266
62	0x3b6321d3	0.0034657612
63	0x39d42034	0.00040459784
64	0xba9e1c84	-0.0012062942
65	0x3a1838bb	0.00058067933
66	0xbbce2d20	-0.0062920004
67	0xbb19e8bf	-0.0023484675
68	0xbbaaa1c0	-0.0052072704
69	0xbaa3f0ec	-0.0012507713
70	0x3b3b41a4	0.002857306
71	0x3c536ff0	0.012905106
72	0x3b27565c	0.0025533652
73	0x3b095d47	0.0020960139
74	0x3c41b372	0.011822568
75	0x3a8af095	0.0010600263
76	0x3c554a95	0.01301827
77	0x3b38c3e4	0.0028192932
78	0x3b94dacc	0.004542684
79	0xbb27682a	-0.0025544264
80	0x3c1d9af4	0.009619463
81	0xba803c81	-0.0009783657
82	0x3bd4eb18	0.006497752
83	0x3baa6163	0.0051995977
84	0xbc058044	-0.008148257
85	0xbc3192d9	-0.010838234
86	0xbae39c93	-0.0017365388
87	0xbbf6086d	-0.0075083287
88	0xbaf03268	-0.0018325569
89	0x3ba6feee	0.005096308
90	0x3bbaeeb9	0.0057047275
91	0xbafacc95	-0.0019134457
92	0x3bcdc82c	0.006279966
93	0x3ba53ed8	0.005042892
94	0xbc186fd2	-0.009304004
95	0x3b000e35	0.0019539718
96	0xbb3af1ac	-0.0028525395
97	0x3ab2063c	0.001358218
98	0x3b3797b6	0.002801401
99	0xbbd9b16b	-0.0066434643
100	0xbc08131d	-0.008305338
101	0xbc047c0f	-0.0080862185
102	0xbb669fed	-0.0035190538
103	0x3b285c5a	0.0025689811
104	0x3bb69946	0.005572471
105	0xbb6d54d1	-0.0036213885
106	0xbbaa2e08	-0.0051934756
107	0x3a83112f	0.0009999628
108	0x3b2eaf17	0.0026654655
109	0x3b0821ab	0.002077202
110	0x3adb0003	0.0016708378
111	0x3ae65fad	0.0017576121
112	0xba1a7dff	-0.00058934087
113	0x3b54361d	0.0032380887
114	0xbbce40ae	-0.0062943315
115	0xb8c9fded	-9.631724e-05
116	0xbbce2d4d	-0.0062920214
117	0x3bb28e26	0.0054490743
118	0x3bd5319d	0.0065061585
119	0x3a4277ac	0.0007418345
120	0xba68f6a1	-0.0008886848
121	0xbb204ee0	-0.0024461076
122	0x3b43d580	0.0029881895
123	0xbbd472c7	-0.006483409
124	0x3a9d8cb1	0.0012020079
125	0xbb8b58c7	-0.0042525264
126	0xbb218db6	-0.0024651117
127	0x3c183197	0.009289167
128	0x3b2581f4	0.002525446
129	0xba5fef1b	-0.00085424044
130	0xbc22126f	-0.00989209
131	0xbb121a6a	-0.0022293576
132	0xbb1ac750	-0.0023617335
133	0xbc1a8262	-0.0094305
134	0x3a598ca2	0.0008298849
135	0xbada061b	-0.00166339
136	0xb6174ec3	-2.2546599e-06
137	0xbc47c7a7	-0.012193597
138	0x3bd18e05	0.006395104
139	0xbbcc34c1	-0.0062318747
140	0x3b2bd285	0.0026218009
141	0xbc28ea5e	-0.010309784
142	0x3b3f505b	0.0029192183
143	0xbb7ab525	-0.0038254943
144	0xbbaa5d4d	-0.0051991106
145	0xbb619e87	-0.0034426765
146	0xbc5ae0a7	-0.013359225
147	0xbba4d61f	-0.005030408
148	0x3b852f59	0.004064482
149	0x3bb9072e	0.005646608
150	0x3c3505af	0.011048718
151	0xbaa66695	-0.0012695367
152	0xbc35ba6d	-0.011091811
153	0x3b9942a0	0.004677132
154	0x3c715880	0.014730573
155	0x3adb22a1	0.0016718694
156	0xbb6dd6d0	-0.0036291368
157	0xbc5fbd98	-0.0136560425
158	0x3c0bc1a7	0.008530057
159	0xbbf198e1	-0.007372961
160	0x3bd2b153	0.00642983
161	0xbaa83cd7	-0.0012835514
162	0xbbc272de	-0.0059341034
163	0x3b7f3b8e	0.003894541
164	0x3c491b9f	0.012274652
165	0xbc467dfe	-0.012115
166	0x3bbe429a	0.0058062794
167	0x3c39bcea	0.0113365445
168	0xbb23c472	-0.0024988917
169	0x3b18e937	0.0023332366
170	0x3bde3ace	0.0067819124
171	0x3c1ac9c6	0.009447521
172	0x3ae526a1	0.0017482826
173	0x3b221cde	0.0024736444
174	0x3bf466c6	0.0074585406
175	0xbb90f0c4	-0.0044232327
176	0x3a033ff0	0.0005006781
177	0x3b3d0874	0.002884415
178	0xbaaff310	-0.0013423879
179	0xbaaec072	-0.00133325
180	0x3c215260	0.0098463
181	0x3a40dae4	0.0007356836
182	0xbb3a78cb	-0.0028453346
183	0x3bac13e1	0.005251393
184	0xbbbadab9	-0.0057023433
185	0x3bb503d1	0.0055241366
186	0xbb1bb43d	-0.0023758553
187	0xbb873617	-0.004126321
188	0xbb2b2f2a	-0.0026120641
189	0x399bb0ef	0.0002969573
190	0x3beee68e	0.007290668
191	0x3abd569b	0.0014445366
192	0xbaf436f7	-0.0018632103
193	0x3c2e46a2	0.010636957
194	0x3bbef6e3	0.005827771
195	0xbb8ab43e	-0.0042329123
196	0xbb3c19d5	-0.002870192
197	0xbbf5d599	-0.0075022695
198	0xbbcdf44b	-0.0062852255
199	0xbb30bbd2	-0.0026967418
200	0xbbc9500a	-0.0061435746
201	0xbbbabc0b	-0.005698686
202	0x3c028cf8	0.00796818
203	0x3ac8edcc	0.0015329658
204	0xbc99ef35	-0.01879082
205	0xbc224ba0	-0.009905726
206	0xbb0acb04	-0.0021178136
207	0x3b81c855	0.003960649
208	0xbbee4560	-0.0072714537
209	0xbaa34b78	-0.0012458405
210	0xbc097257	-0.008389077
211	0xbb35669f	-0.0027679575
212	0x3c528adf	0.012850492
213	0xb9f39cab	-0.00046465299
214	0x3be8e177	0.0071069556
215	0xba47cb78	-0.0007621567
216	0xbc1c525e	-0.009541122
217	0xbaea20b3	-0.0017862528
218	0xbc0d961b	-0.008641745
219	0x3c237ef6	0.009979
220	0xbc4bddbe	-0.012443004
221	0x398f3e0a	0.00027321308
222	0x3b86db21	0.0041154777
223	0xba681e29	-0.0008854592
224	0xbb9bb2cb	-0.0047515384
225	0x3b0443f3	0.0020182102
226	0x3b2731c5	0.0025511843
227	0x3b356a07	0.0027681605
228	0xbb537b29	-0.0032269454
229	0xbb1693b6	-0.0022976226
230	0xbb78ef6a	-0.0037984499
231	0xbaa62d47	-0.0012678289
232	0xb9095627	-0.00013097432
233	0x3a4555b9	0.0007527727
234	0x3b6e5de1	0.0036371874
235	0x3a9d46fe	0.0011999307
236	0x3ad2c741	0.0016081111
237	0x398574fb	0.00025454894
238	0xbb238e64	-0.0024956698
239	0xbae5fa63	-0.0017545935
240	0x39e831ed	0.00044287686
241	0x39cf791c	0.0003957235
242	0xbbd89450	-0.006609477
243	0xb9b8c211	-0.00035239806
244	0xbb037129	-0.0020056462
245	0x3b73dde9	0.0037211126
246	0x3b8aa664	0.004231261
247	0x3b452c94	0.0030086385
248	0x3b1b3883	0.0023684807
249	0x3aceb97c	0.0015771831
250	0xba3f1121	-0.0007288624
251	0x3b1d90f0	0.0024042688
252	0xbb054764	-0.0020336742
253	0x3905db3f	0.00012765544
254	0x3a788680	0.0009480491
255	0xba8c006f	-0.0010681282

decoder.0.bias f4 [128]
0	0x3a082a5f	0.0005194302
1	0xbb0b0393	-0.0021211847
2	0x3a816454	0.0009871819
3	0xbb8cb6d1	-0.0042942544
4	0x3c163227	0.009167231
5	0xbbf867ad	-0.0075807185
6	0xbbb4267e	-0.0054977527
7	0xbc0bb565	-0.008527135
8	0xbab8c6d4	-0.0014097341
9	0x39d62f18	0.00040852348
10	0x3bc83df9	0.0061109033
11	0xbbe20b07	-0.006898287
12	0xbb458711	-0.003014032
13	0x3c122ecf	0.008922293
14	0x3b532461	0.0032217728
15	0xbbc149b2	-0.0058986777
16	0x3b232640	0.0024894625
17	0x3b185096	0.0023241392
18	0x3a9ff3c5	0.0012203386
19	0x3bc68720	0.0060585886
20	0xbbe912f2	-0.007112854
21	0x3ab241dc	0.001359995
22	0xbaaf12c3	-0.0013357032
23	0xbb843bf1	-0.004035466
24	0x3ba2c931	0.0049678315
25	0xbbc8c6b2	-0.006127202
26	0x3b8c3395	0.00427861
27	0x3b397450	0.0028298087
28	0x3aefee27	0.0018305228
29	0xbb17f13f	-0.0023184565
30	0xbb9686f0	-0.0045937225
31	0xbc1acb37	-0.009447864
32	0x3ae3b132	0.0017371534
33	0x3be366f7	0.0069397646
34	0x3c056b7e	0.008143304
35	0x3b4a2024	0.0030841911
36	0x3c2004b8	0.00976675
37	0x3c33a52e	0.010964675
38	0xbbc3f95e	-0.0059806546
39	0x3b92c869	0.004479457
40	0x3b97ece7	0.0046363953
41	0x3aa9eeb7	0.0012964819
42	0xbc1908c7	-0.009340472
43	0xbbb79946	-0.0056029884
44	0xbb31baa7	-0.002711931
45	0x3b16eb09	0.0023028275
46	0xbbf0d127	-0.0073491517
47	0xbbee605b	-0.00727467
48	0xbc19b6e4	-0.009381983
49	0x3b3b6d97	0.0028599256
50	0x3bdca72a	0.0067337947
51	0x3b3cd882	0.0028815572
52	0x3bcd664e	0.006268299
53	0x3bf1b9e1	0.007376895
54	0x3a7f4298	0.0009737401
55	0x3acea7e0	0.0015766583
56	0xbc1e50aa	-0.0096627865
57	0xbb266653	-0.002539058
58	0xba7ee1da	-0.00097229856
59	0xbb59c7ac	-0.0033230586
60	0xbbc72052	-0.006076851
61	0xbbc8a675	-0.006123359
62	0x3b5e2ab9	0.0033899976
63	0x3b32d216	0.0027285866
64	0x391e2cda	0.00015084763
65	0xbad62dfd	-0.001634061
66	0x3ac80da9	0.001526286
67	0xbc0a0e0e	-0.008426202
68	0xbb9b2eee	-0.004735819
69	0x3baf4612	0.005348929
70	0xbc01eb13	-0.007929581
71	0x3bf57a7b	0.0074914075
72	0x3b0fcded	0.002194281
73	0x3bcdf381	0.0062851314
74	0xbbd4ef8a	-0.006498282
75	0xbb78f258	-0.0037986245
76	0xbbba3cb9	-0.0056835082
77	0x3ba96aab	0.0051701865
78	0xbbc62218	-0.0060465448
79	0xbb894e96	-0.0041902764
80	0xbb886461	-0.0041623567
81	0xbbcfbba8	-0.006339509
82	0x3b823ddf	0.0039746608
83	0x3a46b60e	0.0007580229
84	0x3b9ef69c	0.0048511755
85	0xbc13e9f8	-0.0090279505
86	0xbc0b91e5	-0.008518671
87	0xbbb33736	-0.005469228
88	0x3bd64164	0.006538557
89	0x3b370512	0.0027926606
90	0x3beae312	0.007168182
91	0xbc1f5ecd	-0.009727192
92	0xbc709544	-0.014684025
93	0xbbc49c03	-0.0060000434
94	0xbb141625	-0.0022596207
95	0x38bd9829	9.040564e-05
96	0xbb46a07e	-0.0030308063
97	0x3b8c6c72	0.0042853886
98	0xbb9d7587	-0.00480527
99	0x3ab5739e	0.0013843661
100	0xbb3d38c1	-0.002887294
101	0xbb29b7e8	-0.002589697
102	0x3b189e62	0.0023287763
103	0xbb658f1b	-0.0035027924
104	0xbaa6a9c4	-0.0012715389
105	0xbb08199e	-0.0020767222
106	0xba36edec	-0.0006978202
107	0x3b15281f	0.002275951
108	0x3bdb262a	0.006687899
109	0x3bb44284	0.0055010933
110	0x3badc7ad	0.005303344
111	0xbc41986b	-0.011816124
112	0x3b755b37	0.0037438401
113	0x3bfdf1d5	0.007749776
114	0x3bbf8320	0.0058444887
115	0x3c112ccd	0.008860779
116	0xb9fe87fe	-0.00048547977
117	0x3b9e8c09	0.004838471
118	0xbb8d78bc	-0.004317371
119	0x3a2fa372	0.00067000755
120	0x3bd68c22	0.006547467
121	0xbafbe1f5	-0.0019217121
122	0x3bcf82dd	0.006332739
123	0xbba78b68	-0.005113054
124	0xbc063f43	-0.008193794
125	0x3b76a515	0.0037635018
126	0x3bbbeb49	0.0057348353
127	0x3bc7d424	0.006098287

decoder.2.weight f4 [64, 128]
0	0xbd986014	-0.074402004
1	0xbdf5ace3	-0.11995866
2	0xbdbd7ab2	-0.09251918
3	0xbe3c4376	-0.1838511
4	0x3dd3e6a1	0.10346723
5	0xbda2a99f	-0.07942509
6	0xbdfc3fb1	-0.12316836
7	0x3da62b1f	0.081136934
8	0xbe2f809d	-0.17138906
9	0xbc5fbe49	-0.013656207
10	0x3e5c0d64	0.21489483
11	0x3e0cfb5e	0.13767764
12	0x3e0b35b2	0.13594702
13	0xbda4ae1a	-0.0804102
14	0xbe047ad6	-0.12937483
15	0x3e3f8158	0.18701684
16	0xbc817478	-0.015802607
17	0xbdd38def	-0.10329806
18	0xbe2643a4	-0.1623674
19	0xbe37bbbc	-0.17942709
20	0x3d0954b6	0.033528052
21	0x3bf2c8d7	0.007409196
22	0xbcc92ab0	-0.024556488
23	0x3de4b30d	0.11166964
24	0x3e003c9f	0.12523125
25	0x3daa114a	0.08304079
26	0x3e36c18e	0.17847273
27	0xbd799a84	-0.060938373
28	0xbe09aaa3	-0.13443999
29	0xbd942f90	-0.07235634
30	0x3e0337af	0.1281421
31	0xbcdb5047	-0.026771678
32	0x3dd9c2c9	0.106328554
33	0xbe22e94b	-0.15909307
34	0x3de7aac8	0.11311871
35	0x3c54ca2d	0.012987656
36	0x3ddb4b52	0.107077256
37	0xbe00ff8e	-0.12597486
38	0x3d914232	0.07092704
39	0xbdb1b141	-0.086763866
40	0xbc8153ed	-0.01578709
41	0x3e2fb558	0.17159021
42	0xbbb68a68	-0.0055706985
43	0xbdcd972a	-0.10038598
44	0xbdad3128	-0.084566414
45	0x3d771ccc	0.060330197
46	0xbccc488a	-0.024936933
47	0x3d5fbbfe	0.054622643
48	0xbe30764a	-0.17232624
49	0x3da9fc5e	0.08300088
50	0xbe411089	-0.18853964
51	0xbd8f8531	-0.07007826
52	0x3da2bfa9	0.079467125
53	0x3e2170a5	0.15765627
54	0x3dfc54bc	0.12320849
55	0x3e02e86d	0.12783976
56	0xbe40c48f	-0.18824981
57	0xbb3ccc3b	-0.0028808254
58	0xbd1bdb35	-0.03805085
59	0x3e3b5e9f	0.18297814
60	0xbe19aef5	-0.15008147
61	0x3c449836	0.011999181
62	0xbe232eee	-0.15935871
63	0x3db840af	0.089967124
64	0x3bc0d66e	0.005884937
65	0xbdd49d58	-0.103815734
66	0x3d0c65b6	0.034276687
67	0x3e3ade83	0.18248944
68	0x3e52c7dd	0.20584054
69	0xbc1c8b76	-0.009554734
70	0x3d0849a5	0.033273358
71	0xbe64d95a	-0.22348538
72	0x3e85c8c4	0.26129735
73	0xbcb5fae7	-0.022214366
74	0x3c0aacaf	0.008464023
75	0x3d1c73b6	0.038196288
76	0xbe30a98e	-0.1725218
77	0xbe201661	-0.15633537
78	0x3c95e379	0.018296944
79	0x3e188f53	0.14898424
80	0x3e2988c9	0.16556086
81	0xbe547559	-0.2074789
82	0xbe69437a	-0.22779647
83	0xbd5eb468	-0.054371268
84	0x3cd2f277	0.025750382
85	0x3e398712	0.18117931
86	0x3d8323f3	0.06403341
87	0xbe133b6b	-0.14378135
88	0x3d982a49	0.0742994
89	0x3d75f201	0.060045246
90	0xbd754845	-0.059883375
91	0x3d12b041	0.03581262
92	0x3d04ef75	0.032454927
93	0xbe20efdc	-0.15716499
94	0xbd345348	-0.044024736
95	0x3d423acd	0.047419358
96	0xbdf2d65b	-0.11857291
97	0xbe36be62	-0.17846063
98	0xbe0e040f	-0.13868736
99	0xbc9650d3	-0.018349087
100	0xbe2d9ee1	-0.16955139
101	0x3e16f868	0.14743197
102	0xbe24f45d	-0.16108842
103	0xbd9d54df	-0.076822035
104	0xbdae8630	-0.08521688
105	0x3e0bc668	0.13649905
106	0xbd013694	-0.03154619
107	0xbe3d0c24	-0.18461663
108	0x3e3666e3	0.17812686
109	0x3e189870	0.149019
110	0xbd97de27	-0.07415419
111	0xbc92b579	-0.017908799
112	0xbe3beede	-0.1835284
113	0xbca99012	-0.02069858
114	0xbbc5525b	-0.0060217804
115	0x3e29e6e6	0.16591987
116	0xbdbb890c	-0.09156999
117	0xbd44b0e9	-0.048020277
118	0xbdab9c2f	-0.08379399
119	0xbc364ece	-0.011127187
120	0x3d839945	0.06425718
121	0x3c192f76	0.0093496945
122	0xbe1aac6b	-0.15104835
123	0xbc14b9d5	-0.009077509
124	0xbc006a89	-0.0078379
125	0xbe41bd52	-0.18919876
126	0xbe256891	-0.1615317
127	0xbd58edc4	-0.052961126
128	0xbd540dc5	-0.051770944
129	0x3d3a14f6	0.045430146
130	0x3e4e6eb5	0.20159419
131	0xbd6ce390	-0.057834208
132	0xbd9d745b	-0.07688209
133	0x3e548af6	0.20756134
134	0xbdcfeaf0	-0.10152233
135	0xbd593bcd	-0.053035546
136	0x3daec6b2	0.08533992
137	0x3dc68cdd	0.09694836
138	0x3e385f2f	0.1800506
139	0xbdc0470c	-0.09388551
140	0xbe1b94c8	-0.15193474
141	0x3d8c0486	0.068368
142	0x3c0fc478	0.008774869
143	0x3d9a3c9c	0.075310916
144	0x3c91fe04	0.01782132
145	0xbcdde922	-0.027088705
146	0xbd05f888	-0.03270772
147	0x3de525a7	0.11188822
148	0xbcf9e1a8	-0.03050311
149	0xbd63525c	-0.055498466
150	0x3da11a56	0.07866351
151	0xbe0c39dc	-0.13693947
152	0xbe287095	-0.16449197
153	0x3e2e3dae	0.17015716
154	0x3d7d93ce	0.061908536
155	0x3e28fc9a	0.1650261
156	0xbdc122f5	-0.09430496
157	0xbdf6733b	-0.12033697
158	0xbe22d667	-0.159021
159	0xbe1fead4	-0.15616924
160	0x3e1dd8a4	0.15414673
161	0xbe0ab68e	-0.13546202
162	0x3ce95e32	0.028487299
163	0xbd2a1420	-0.0415231
164	0x3e46109c	0.19342273
165	0x3e217e74	0.15770894
166	0xbdd913c3	-0.105994724
167	0x3e2a295d	0.16617341
168	0xbe090d9d	-0.133841
169	0xbe39c2bb	-0.1814069
170	0x3e1b1be2	0.15147355
171	0xbdf077fa	-0.11741634
172	0x3e0a3b14	0.13499099
173	0xbd24c939	-0.040230963
174	0x3e288c5c	0.16459793
175	0xbd97d84d	-0.07414303
176	0x3e3883e5	0.18019064
177	0xbdaf29f4	-0.08552924
178	0x3e111f09	0.14171995
179	0x3e321858	0.17392099
180	0xbd668417	-0.056278314
181	0x3cacc6f6	0.021090966
182	0x3e3e04b2	0.18556479
183	0x3d39cb58	0.04535994
184	0xbb34eee1	-0.0027608203
185	0x3dbe30a0	0.09286618
186	0x3e2dda74	0.16977865
187	0xbd410fca	-0.0471342
188	0x3cbdac19	0.023153352
189	0x3da39534	0.079874426
190	0xbe4581b6	-0.19287762
191	0xbdef7334	-0.11691895
192	0xbdc10dc5	-0.094264545
193	0x3dd3cc66	0.1034172
194	0xbe22ec61	-0.15910484
195	0x3e527a07	0.20554362
196	0xbe1283f9	-0.14308156
197	0x3e39abc0	0.18131924
198	0xbdb0cc8d	-0.08632765
199	0xbe2b6144	-0.16736323
200	0xbc37b9a9	-0.011213698
201	0xbe444d36	-0.19170079
202	0x3d175c74	0.036953405
203	0xbdfd93b6	-0.12381689
204	0xbd34872e	-0.04407423
205	0x3e48b28e	0.19599363
206	0xbd516a62	-0.051126845
207	0xbe283d90	-0.16429734
208	0x3dfa040b	0.122078024
209	0xbe092167	-0.13391648
210	0x3e02b685	0.12764938
211	0xbe1793a5	-0.14802416
212	0xbd5c3e33	-0.053770255
213	0x3d8ab3b3	0.06772556
214	0xbdafeac1	-0.08589698
215	0xbd6ac953	-0.057320904
216	0x3df1f88c	0.11814985
217	0xbe205707	-0.15658198
218	0xbc4e85cb	-0.012605141
219	0x3e326ceb	0.17424361
220	0x3d686cb5	0.056744296
221	0xbe260c01	-0.16215517
222	0x3d0fbd43	0.035092603
223	0xbc139548	-0.009007759
224	0x3de57913	0.11204734
225	0xbd809826	-0.0627902
226	0x3e622faf	0.22088502
227	0xbe267efd	-0.1625938
228	0x3d806cd2	0.06270756
229	0xbd5bab71	-0.053630296
230	0x3c95f2af	0.018304197
231	0x3c91b47f	0.017786263
232	0xbe0e53fb	-0.13899224
233	0xbe5822b6	-0.21106991
234	0x3c4e77c2	0.012601795
235	0x3d4a6996	0.0494171
236	0x3e23b14f	0.15985607
237	0x3d88ce19	0.06679935
238	0xbe2bdf77	-0.16784464
239	0xbcc8677f	-0.024463413
240	0x3e316bf3	0.17326336
241	0x3deb278a	0.11482151
242	0x3e318207	0.17334758
243	0xbc3d2f9c	-0.0115469955
244	0x3e0206a7	0.1269785
245	0x3d9156e4	0.07096651
246	0x3a75a7d2	0.00093710155
247	0x3d8559d9	0.06511278
248	0xbdd8de52	-0.10589279
249	0x3e4ad6c3	0.19808488
250	0x3e2350bf	0.15948771
251	0xbde0a0c5	-0.10968164
252	0x3da2ee92	0.0795566
253	0xbdcf7e22	-0.1013148
254	0x3d58eed6	0.052962147
255	0x3d4919f6	0.049097024
