Training/checkpoints/wind_pressure_200_5/mlp/model_60.pth (torch, 132355 bytes, 17 tensors)

pos_encoder.0.weight f4 [24, 1]
0.19661298 0.0042431215 -0.8959593 -0.7860114 -0.20706813 -0.947046 0.44312194 -0.5301723
0.21398625 -0.8463246 -0.09372038 -0.24137528 -0.101510055 0.048613187 -0.62087446 0.14976367
0.27759334 0.16344072 0.20554698 -0.95728916 -0.14372623 -0.7660204 -0.7019401 -0.054593872
00000000: ea54 493e e209 8b3b 975d 65bf 0b38 49bf
00000010: ab09 54be 9b71 72bf e1e0 e23e 5fb9 07bf
00000020: 361f 5b3e bba8 58bf 78f0 bfbd 152b 77be
00000030: 81e4 cfbd 9f1e 473d a1f1 1ebf a65b 193e
00000040: b720 8e3e 015d 273e e87a 523e e710 75bf
00000050: f82c 13be ea19 44bf 59b2 33bf d39d 5fbd

pos_encoder.0.bias f4 [24]
0.85409826 0.27915496 0.64510405 -0.03510824 -0.5715639 0.81684244 0.5971375 0.709238
0.5796671 0.6521698 -0.56609946 0.06903557 0.68417776 0.49322948 -0.77885824 0.32652044
0.9278003 -0.76719594 -0.6971868 0.12636138 0.33858168 -0.67992514 -0.88820547 0.20715809
00000000: 2fa6 5a3f 66ed 8e3e 8a25 253f a8cd 0fbd
00000010: 0352 12bf 961c 513f 01de 183f 9f90 353f
00000020: 1065 143f 9af4 263f e5eb 10bf 8562 8d3d
00000030: 4626 2f3f 9388 fc3e 4163 47bf b02d a73e
00000040: 5284 6d3f f466 44bf d67a 32bf e164 013e
00000050: 945a ad3e 930f 2ebf 6f61 63bf 4021 543e

pos_encoder.2.weight f4 [48, 24]
-0.25826246 -0.3159759 -0.13306779 -0.34849846 0.3820354 0.25953257 -0.15491599 0.013410343
0.23848283 0.46344563 -0.43638542 0.018991873 -0.15207182 -0.12549385 -0.005060396 -0.029818488
-0.33984393 0.24098784 0.107086875 -0.20384774 0.32384902 -0.24984962 -0.14734651 -0.08878047
-0.108567625 -0.32889995 -0.4361646 0.21594872 -0.11414252 0.38209254 0.35509104 0.15781112
0.115781404 0.0029238085 0.3621784 0.26395464 0.39432257 0.079253726 -0.28131446 -0.34363475
-0.18852934 0.2660998 0.44129074 0.13787279 -0.07527126 -0.17271832 0.15153572 -0.31154034
-0.35529602 0.263592 -0.071317494 -0.46607298 0.45140097 -0.4274488 0.22591034 0.259464
0.023669645 0.20526762 -0.15597074 -0.17182039 -0.20200436 -0.29163072 0.4795721 -0.26026264
-0.35697684 0.42175955 -0.13145205 -0.33417422 0.25950855 -0.3333797 0.11702304 0.38954467
0.06254481 0.04565911 0.11171987 -0.48981902 0.28293934 -0.32876718 0.36933514 -0.0010990312
-0.31783503 -0.5093633 -0.18067981 -0.13527273 -0.15959442 0.09377347 0.3658831 -0.17223105
-0.32825214 0.3077428 -0.17636798 0.039678056 0.09504029 -0.0833612 0.1132897 -0.29836497
-0.11409793 0.17189099 -0.054132495 0.4169458 -0.3122706 0.41186062 -0.33231974 0.057823792
-0.29747623 -0.18251109 -0.07559572 0.15272868 0.256123 -0.29691556 -0.13230495 -0.45725182
-0.26046747 -0.347875 0.05025647 -0.054800842 0.47915334 -0.18586773 -0.24750754 -0.33685288
0.047600497 -0.33117944 0.31540984 0.17822081 0.20574091 0.3173277 0.40631542 0.46005982
-0.18601549 -0.40505818 -0.27926317 0.40412295 -0.09267508 0.20433043 -0.1389706 -0.23143077
-0.36474764 0.38941678 0.1481614 -0.13343364 -0.161212 0.15130408 0.08339537 -0.5073775
0.3870113 -0.11339354 0.23173657 0.18452385 -0.44969374 -0.21605223 0.42801845 -0.31538704
0.39449984 -0.36065984 0.26505926 -0.37050316 0.19325338 0.34699264 0.1704881 -0.13860513
-0.14148252 -0.47789705 0.053284716 0.22881965 -0.044530064 -0.3198147 -0.13672714 -0.22004062
0.103007615 0.3148769 -0.4520784 -0.2443974 0.30392253 -0.14267965 -0.15510894 -0.32513493
-0.2462901 0.3466895 0.3261191 0.24821573 0.32244027 0.18544476 0.22184514 0.4253743
0.47650385 0.21367273 -0.36734807 -0.28398168 0.042361427 0.18742906 -0.13025081 -0.1729854
0.1269293 0.3657399 -0.40894786 0.07502456 0.22992483 -0.035737276 0.2721733 -0.12621804
-0.45952013 -0.16194597 0.41049212 0.26192802 -0.38720745 0.20299238 -0.43216813 -0.4363944
0.4678766 0.24960162 -0.14452334 0.22148347 0.40985912 0.18675445 0.47938675 -0.44363508
0.04031844 -0.4077666 0.46292645 -0.043039467 0.15421732 0.055871308 -0.12070835 0.3703664
-0.42870384 0.17186855 0.20736669 -0.41304862 -0.15176418 -0.025447464 -0.120895624 -0.17414343
0.35912964 -0.3086202 -0.010855756 0.054305136 -0.028140895 -0.395288 0.38351718 -0.35509497
-0.068326496 -0.47239745 0.25393742 0.4406943 -0.4785609 0.16659485 0.38917035 -0.1917654
0.15037642 -0.33211994 -0.016503287 0.1426089 0.2303641 -0.27397054 -0.27611184 0.35549977
00000000: fa3a 84be 98c7 a1be ec42 08be 646e b2be
00000010: 259a c33e 74e1 843e 4ca2 1ebe 0eb7 5b3c
00000020: d834 743e bf48 ed3e e96d dfbe d894 9b3c
00000030: b7b8 1bbe 7681 00be aed1 a5bb e745 f4bc
00000040: 0600 aebe 84c5 763e 5d50 db3d 76bd 50be
00000050: 8acf a53e 94d8 7fbe 01e2 16be 89d2 b5bd
00000060: b458 debd 9365 a8be f750 dfbe a921 5d3e
00000070: 8ec3 e9bd a2a1 c33e 7ece b53e 3d99 213e
00000080: cd1e ed3d 5e9d 3f3b 726f b93e 1025 873e
00000090: a6e4 c93e c74f a23d 7308 90be e5f0 afbe
000000a0: d60d 41be 3c3e 883e dcf0 e13e 862e 0d3e
000000b0: d227 9abd 12dd 30be 2e2c 1b3e 3782 9fbe
000000c0: 5ce9 b5be 88f5 863e e80e 92bd 1ea1 eebe
000000d0: 071e e73e 92da dabe 0a55 673e 77d8 843e
000000e0: d8e6 c13c ad31 523e cbb6 1fbe aff1 2fbe
000000f0: 3bda 4ebe 9f50 95be 798a f53e 2541 85be
00000100: abc5 b6be def0 d73e 5e9b 06be e218 abbe
00000110: 4ede 843e beb0 aabe c7a9 ef3d 6672 c73e
00000120: 7e17 803d 0c05 3b3d 63cd e43d 8fc9 fabe
00000130: 6ddd 903e 2c54 a8be 7f19 bd3e 5e0d 90ba
00000140: 46bb a2be a265 02bf 2104 39be ef84 0abe
00000150: b86c 23be 4e0c c03d 0855 bb3e 565d 30be
00000160: aa10 a8be 7790 9d3e cf99 34be 7585 223d
00000170: 7ca4 c23d 47b9 aabd 6e04 e83d 4bc3 98be
00000180: 2dac e9bd 3104 303e 09ba 5dbd eb79 d53e
00000190: efe1 9fbe 65df d23e d025 aabe a4d8 6c3d
000001a0: ce4e 98be 30e4 3abe eed1 9abd e864 1c3e
000001b0: 8e22 833e 5105 98be f37a 07be e91c eabe
000001c0: fe5b 85be ac1c b2be bad9 4d3d d976 60bd
000001d0: 9653 f53e 1c54 3ebe 9e72 7dbe fb77 acbe
000001e0: bdf8 423d 5a90 a9be 667d a13e 847f 363e
000001f0: bfad 523e c778 a23e 9308 d03e f68c eb3e
00000200: d87a 3ebe c963 cfbe 95fb 8ebe 34e9 ce3e
00000210: 6fcc bdbd ff3b 513e 4f4e 0ebe 30fc 6cbe
00000220: 34c0 babe a361 c73e 9fb7 173e d4a2 08be
00000230: c214 25be 75ef 1a3e 31cb aa3d 7ee3 01bf
00000240: 5826 c63e df3a e8bd 5a4c 6d3e d2f3 3c3e
00000250: 423e e6be cc3c 5dbe 3c25 db3e 697a a1be
00000260: e2fb c93e 68a8 b8be d9b5 873e 97b2 bdbe
00000270: 37e4 453e 05a9 b13e 6f94 2e3e 81ee 0dbe
00000280: cbe0 10be ecae f4be 1341 5a3d b34f 6a3e
00000290: 2865 36bd c1be a3be 3302 0cbe 5452 61be
000002a0: a8f5 d23d 8c37 a13e d276 e7be 5043 7abe
000002b0: bc9b 9b3e 9d1a 12be e1d4 1ebe 1678 a6be
000002c0: 7933 7cbe 4981 b13e 15f9 a63e 442c 7e3e
000002d0: e416 a53e 3be5 3d3e 5f2b 633e a9ca d93e
000002e0: 50f8 f33e 06cd 5a3e 0c15 bcbe 0c66 91be
000002f0: 2d83 2d3d 67ed 3f3e 7860 05be 1623 31be
00000300: c1f9 013e 4342 bb3e 9d61 d1be 7aa6 993d
00000310: 6a71 6b3e 4061 12bd 4c5a 8b3e 4d3f 01be
00000320: 3946 ebbe 2ad5 25be 062c d23e 6e1b 863e
00000330: 0e40 c6be 3cdd 4f3e 2445 ddbe 166f dfbe
00000340: 868d ef3e 9197 7f3e edfd 13be 90cc 623e
00000350: 0ed9 d13e 8f3c 3f3e 2e72 f53e 2324 e3be
00000360: f324 253d c9c6 d0be b204 ed3e 274a 30bd
00000370: 25eb 1d3e 50d9 643d f035 f7bd aaa0 bd3e
00000380: 127f dbbe 4ffe 2f3e ef57 543e 1c7b d3be
00000390: 1268 1bbe 3377 d0bc 2098 f7bd a852 32be
000003a0: d7df b73e 7803 9ebe 57dc 31bc 106f 5e3d
000003b0: bc87 e6bc 3063 cabe 5d5c c43e 02cf b5be
000003c0: c3ee 8bbd 14de f1be 1604 823e afa2 e13e
000003d0: ef05 f5be d797 2a3e 5641 c73e 265e 44be
000003e0: 47fc 193e a00b aabe e731 87bc 1108 123e
000003f0: 91e4 6b3e de45 8cbe 885e 8dbe 1104 b63e

pos_encoder.2.bias f4 [48]
-0.42753357 -0.17536218 -0.046337124 -0.4660448 0.18807985 0.22318657 0.3013111 -0.36888322
0.24155414 -0.15753648 0.099859335 0.056274805 -0.0322151 0.40272108 -0.37584582 -0.23783621
0.15111037 0.4515311 0.48663148 -0.37589288 0.49717912 -0.30642378 -0.18385682 -0.17623243
0.046744935 -0.36402738 0.12671225 0.23271154 0.30582285 0.1923119 -0.45379338 0.26912454
-0.06931259 -0.27610713 0.24426016 -0.2368555 -0.34592563 -0.22760168 -0.39429215 -0.45864186
-0.30392513 -0.11098447 -0.3937485 0.38594493 0.27609974 0.36273596 0.42994884 -0.072205864
00000000: aee5 dabe 2592 33be ffcb 3dbd 6d9d eebe
00000010: 0198 403e 058b 643e 7345 9a3e 43de bcbe
00000020: f859 773e 3e51 21be 0d83 cc3d 6980 663d
00000030: fbf3 03bd 7531 ce3e dd6e c0be 568b 73be
00000040: adbc 1a3e 162f e73e c327 f93e 0875 c0be
00000050: 438e fe3e 94e3 9cbe f644 3cbe 4676 34be
00000060: 9e77 3f3d cc61 babe dbc0 013e ef4b 6e3e
00000070: d094 9c3e 69ed 443e 9b57 e8be b1ca 893e
00000080: c2f3 8dbd ea5d 8dbe 561f 7a3e 408a 72be
00000090: 2a1d b1be 6a10 69be a9e0 c9be 1bd3 eabe
000000a0: 139c 9bbe d34b e3bd 6799 c9be 939a c53e
000000b0: f25c 8d3e 87b8 b93e 4122 dc3e abe0 93bd

pos_encoder.4.weight f4 [96, 48]
0.1785059 -0.10024113 0.1338402 0.12265394 0.16600594 0.23606806 0.17200914 0.032773938
0.03663005 -0.013048133 -0.16744404 -0.33345583 0.10350941 0.02883486 -0.24233735 0.07128748
0.09138619 0.15465349 0.15289275 -0.28860986 0.09251678 0.16199358 0.051144086 0.03700148
-0.18565048 0.32643306 0.101061545 0.12376941 -0.0007877039 -0.04579176 -0.16193418 -0.21429577
-0.17096965 -0.14865148 0.18990013 -0.27529475 0.31299496 0.10210694 -0.2119138 0.16138141
-0.23877017 0.32592243 0.004070191 0.054979574 -0.19845636 -0.12816888 -0.034764305 0.0679381
0.104990155 -0.03903132 -0.003247708 -0.2607 -0.20659119 0.12247434 0.18848884 -0.2829206
0.21652952 0.037287317 -0.20820303 0.068932265 0.15743843 0.055331517 -0.053180624 0.06461678
-0.08238951 -0.25305387 -0.3330498 -0.114823684 -0.12015246 -0.16798247 -0.06516609 0.15520975
-0.07541769 0.2394865 0.27594683 -0.31784588 -0.179809 0.030292477 -0.015340603 0.0045861257
0.049730293 -0.21187688 0.32291427 0.19216797 0.100901894 0.29942453 -0.310745 -0.13735649
-0.34026393 0.097057156 0.16775052 -0.3288354 0.14665353 -0.20719373 0.2930088 -0.3061632
-0.2719636 -0.02263709 -0.23186934 0.27401462 0.17680693 -0.3150011 0.01943092 0.006079374
0.011331006 0.3004722 -0.07789281 -0.28022304 -0.25396988 -0.16134988 0.2727485 0.30562565
0.3059956 -0.09529391 -0.32502383 -0.28863835 0.01790768 0.32534647 -0.2978875 -0.24847774
-0.19435929 -0.1792436 -0.22158615 0.09435578 -0.12323773 -0.22407103 -0.13277122 -0.3312204
-0.2434501 0.12039848 0.14072487 -0.31889337 0.10949023 0.2565052 0.07864865 0.29977554
-0.1160627 0.028073072 -0.13628258 0.2702239 0.01978833 -0.23135032 0.12203867 -0.21582097
0.32813352 -0.09296839 0.0035209756 -0.0401822 0.11661644 -0.2328614 0.19461462 -0.2214521
-0.10116069 -0.1345205 -0.059514508 0.13586585 0.17557888 0.24289115 0.29206118 -0.3367815
-0.34360987 -0.13490589 -0.24203625 -0.29792017 -0.10087773 0.007623868 -0.121798515 0.015819265
-0.19787355 -0.121224955 0.00045098597 0.01430064 0.104739025 -0.11384907 0.049724746 0.2161817
0.31641054 -0.047037743 -0.13512647 0.12802856 0.15675478 -0.31669348 -0.16900894 0.124924034
0.18435419 -0.14008042 -0.26097018 -0.24221654 -0.12688199 0.25792444 -0.33871296 0.31339246
0.20598704 0.2222987 -0.24647474 -0.013319446 -0.33750755 0.26975974 0.02222922 0.26809144
-0.2532484 0.051361658 -0.26222247 0.0040322645 0.19154678 0.31739476 0.015280805 -0.17764822
-0.3256099 0.1239686 0.10770515 0.04831635 0.04499311 0.0628516 0.33074924 -0.0035370237
-0.20871069 -0.0621641 -0.11833759 0.30361193 0.15966992 -0.32706216 0.13702162 0.2632541
0.23278326 0.18229377 -0.18943818 -0.028074209 0.19710545 0.06977902 0.3058054 -0.15462306
-0.34151822 0.30382395 -0.12616706 -0.017174587 -0.21811332 0.27359527 -0.12186473 0.31683326
-0.0640596 -0.20135912 0.14959314 -0.19158986 -0.0940416 0.12302928 -0.11149483 0.24681853
-0.18687397 0.20570058 -0.066739455 0.18194713 0.026352027 -0.34471843 0.32891756 0.12586398
00000000: 40ca 363e 394b cdbd 680d 093e fd31 fb3d
00000010: 76fd 293e d3bb 713e 2a23 303e f73d 063d
00000020: 6409 163d d6c7 55bc 7376 2bbe b9ba aabe
00000030: befc d33d 1637 ec3c 4827 78be 2cff 913d
00000040: af28 bb3d 7c5d 1e3e eb8f 1c3e acc4 93be
00000050: 7079 bd3d a5e1 253e 767c 513d dd8e 173d
00000060: 291b 3ebe 3c22 a73e 5bf9 ce3d d17a fd3d
00000070: ea7d 4eba 2490 3bbd 13d2 25be 5a70 5bbe
00000080: ab12 2fbe 1838 18be 2e75 423e 6ff3 8cbe
00000090: e040 a03e 711d d13d eeff 58be 2b41 253e
000000a0: 2b80 74be 4edf a63e 3d5f 853b 4332 613d
000000b0: 2538 4bbe b43e 03be 0465 0ebd 2123 8b3d
000000c0: 1405 d73d 4edf 1fbd 80d7 54bb 787a 85be
000000d0: a48c 53be d4d3 fa3d 3803 413e f8da 90be
000000e0: eab9 5d3e 96ba 183d 2d33 55be 5c2c 8d3d
000000f0: 8a37 213e 4da3 623d edd3 59bd cd55 843d
00000100: d5bb a8bd 4790 81be 8185 aabe ae28 ebbd
00000110: 7e12 f6bd 9903 2cbe cd75 85bd 4eef 1e3e
00000120: 9774 9abd f33b 753e e748 8d3e b2bc a2be
00000130: da1f 38be ee27 f83c 2757 7bbc 3647 963b
00000140: feb1 4b3d 41f6 58be 0555 a53e aec7 443e
00000150: a7a5 ce3d 2c4e 993e f819 9fbe 2ea7 0cbe
00000160: 1337 aebe e7c5 c63d cbc6 2b3e 1d5d a8be
00000170: 582c 163e 982a 54be 4005 963e 6cc1 9cbe
00000180: d03e 8bbe 6b71 b9bc 286f 6dbe a54b 8c3e
00000190: e00c 353e d347 a1be 982d 9f3c 7c35 c73b
000001a0: afa5 393c 7ed7 993e 4486 9fbd 6579 8fbe
000001b0: 5708 82be e738 25be b1a5 8b3e f77a 9c3e
000001c0: 75ab 9c3e 7429 c3bd 8669 a6be 68c8 93be
000001d0: 20b3 923c d093 a63e b684 98be f370 7ebe
000001e0: 1f06 47be a28b 37be 7be7 62be 9a3d c13d
000001f0: 1064 fcbd e072 65be 2ef5 07be b895 a9be
00000200: fc4a 79be 7a93 f63d 2e1a 103e fe45 a3be
00000210: 6a3c e03d a654 833e 8b12 a13d 2e7c 993e
00000220: 48b2 edbd 80f9 e53c a98d 0bbe c95a 8a3e
00000230: 231b a23c 19e7 6cbe 69ef f93d 2c00 5dbe
00000240: 1e01 a83e 3666 bebd 2bc0 663b 1796 24bd
00000250: 9ad4 ee3d 3873 6ebe 0e49 473e 57c4 62be
00000260: 562d cfbd bebf 09be 7cc5 73bd 6b20 0b3e
00000270: f3ca 333e 75b8 783e 0b89 953e a06e acbe
00000280: a2ed afbe c524 0abe 5ad8 77be fe88 98be
00000290: fc98 cebd a4d1 f93b 8071 f9bd 6797 813c
000002a0: 5d9f 4abe ca44 f8bd 5072 ec39 3b4d 6a3c
000002b0: 6a81 d63d b429 e9bd 2dac 4b3d bc5e 5d3e
000002c0: 9000 a23e a6aa 40bd 985e 0abe eb19 033e
000002d0: 5384 203e a625 a2be ae10 2dbe 2cd8 ff3d
000002e0: 58c7 3c3e 3e71 0fbe e29d 85be 9d07 78be
000002f0: 5aed 01be ac0e 843e c96b adbe fa74 a03e
00000300: 44ee 523e 45a2 633e e063 7cbe ce39 5abc
00000310: cacd acbe f31d 8a3e 0e1a b63c 4843 893e
00000320: c6a9 81be 9a60 523d 0642 86be 1621 843b
00000330: d724 443e 9181 a23e 575c 7a3c 6ae9 35be
00000340: 57b6 a6be 40e3 fd3d 8594 dc3d 5de7 453d
00000350: b24a 383d 57b8 803d f757 a93e 69cd 67bb
00000360: 41b8 55be c99f 7ebd fa5a f2bd 0673 9b3e
00000370: 8380 233e b174 a7be 654f 0c3e 3ec9 863e
00000380: bc5e 6e3e 38ab 3a3e 15fc 41be e2fb e5bc
00000390: 03d6 493e 4ee8 8e3d 8692 9c3e 8255 1ebe
000003a0: 7adb aebe d08e 9b3e f031 01be b8b1 8cbc
000003b0: 1959 5fbe ae14 8c3e 3794 f9bd f837 a23e
000003c0: ae31 83bd 1631 4ebe f22e 193e 2230 44be
000003d0: e298 c0bd c6f6 fb3d 6757 e4bd ffbd 7c3e
000003e0: e45b 3fbe 2ca3 523e b2ae 88bd 5950 3a3e
000003f0: 35e0 d73c ef7e b0be e267 a83e 7de2 003e

pos_encoder.4.bias f4 [96]
-0.1312512 0.13336834 -0.27528077 -0.18476662 0.16405703 -0.33992127 -0.3449038 0.23276041
-0.06920195 0.11556595 -0.34782124 -0.13144177 0.14708965 0.19755913 -0.10353109 -0.1011554
0.0026856929 -0.18069758 0.030270008 -0.1961078 -0.18094184 0.3240308 0.30419663 -0.3169877
0.30698833 0.17698559 -0.15055566 0.30836263 -0.29818308 -0.10553747 0.33275285 -0.32798263
-0.10021533 0.13427702 0.18059957 0.22429095 -0.2029502 -0.0035362532 0.21810745 0.12363615
-0.29535586 0.24078155 -0.09145536 0.2678369 -0.11901811 -0.20641784 0.13086724 -0.009685816
0.11258058 -0.011072686 -0.12147116 -0.07105308 -0.19816896 -0.08012673 -0.28033203 -0.10130771
0.29853237 -0.103899986 -0.31002668 -0.115488976 -0.12341614 0.041772768 0.021602616 0.26370144
0.20255743 0.10007746 -0.12883069 -0.3078599 -0.057749018 -0.26172572 0.23272438 0.10599499
0.26318803 -0.2152073 0.25319 0.09932876 0.27414632 -0.03301483 0.11820987 0.17077996
0.043581367 0.14141916 0.18687509 0.13111626 0.16498768 0.3135947 -0.11943158 -0.27013016
-0.12653807 -0.00852448 -0.29048747 0.13668104 0.25549084 -0.07516736 -0.21796367 0.32671693
00000000: b766 06be b691 083e 9af1 8cbe 7633 3dbe
00000010: 91fe 273e 290a aebe 3b97 b0be bf58 6e3e
00000020: c1b9 8dbd d7ad ec3d a015 b2be ac98 06be
00000030: ab9e 163e f14c 4a3e 1c08 d4bd 902a cfbd
00000040: 7302 303b c908 39be cff8 f73c 7cd0 48be
00000050: d148 39be 5de7 a53e a9bf 9b3e 364c a2be
00000060: 932d 9d3e b63b 353e 432b 1abe b5e1 9d3e
00000070: 74ab 98be 0724 d8bd 955e aa3e 57ed a7be
00000080: b23d cdbd ea7f 093e 18ef 383e 87ac 653e
00000090: 2dd2 4fbe 7cc0 67bb 8f57 5f3e f334 fd3d
000000a0: e238 97be 708f 763e f34c bbbd eb21 893e
000000b0: c4bf f3bd 335f 53be 1002 063e 42b1 1ebc
000000c0: a690 e63d 366a 35bc dfc5 f8bd 4784 91bd
000000d0: ceec 4abe 7c19 a4bd ae87 8fbe 6b7a cfbd
000000e0: 3cd9 983e 84c9 d4bd d1bb 9ebe 7c85 ecbd
000000f0: 9ac1 fcbd ec19 2b3d f8f7 b03c e003 873e
00000100: 376b 4f3e 69f5 cc3d 31ec 03be d09f 9dbe
00000110: 3c8a 6cbd ea00 86be 4d4f 6e3e e713 d93d
00000120: 95c0 863e 4d5f 5cbe 1fa2 813e e06c cb3d
00000130: e85c 8c3e 8f3a 07bd 0418 f23d f1e0 2e3e
00000140: 6082 323d 2fd0 103e 2f5c 3f3e 5743 063e
00000150: 88f2 283e 7c8f a03e 8b98 f4bd 804e 8abe
00000160: 3293 01be 43aa 0bbc c6ba 94be 1df6 0b3e
00000170: b2cf 823e 58f1 99bd de31 5fbe 7147 a73e

fc_encoder.0.weight f4 [8, 14]
-0.019259345 -0.0040731467 -0.020027727 -0.046422284 0.068232134 0.037890512 -0.0018164088 0.053003304
0.0031927747 0.053843893 0.040133208 -0.005497481 -0.0144249005 -0.019793827 0.034628034 -0.008104088
-0.05129894 0.01751826 0.01079478 0.03586404 0.03760033 0.03165815 0.020033553 -0.026482219
0.069148846 0.0031282634 0.017454458 -0.015628673 0.034500673 0.025459789 -0.041030336 -0.043480765
0.0085333865 0.01989726 0.029067498 0.019669667 0.032767262 -0.021422423 -0.00045685 -0.025372276
-0.026808914 0.027410837 -0.00536731 0.005942386 -0.00088550634 0.0043523717 -0.0036025757 0.009087985
-0.076422006 -0.012207764 -0.002952544 0.0031987063 0.0015912362 -0.0097524775 -0.007482616 -0.06513247
-0.002311657 -0.002337052 -0.0023070716 -0.0024157767 -0.0023940213 -0.0023497285 -0.0022078194 -0.002378583
-0.0024472207 -0.0023775424 -0.002195823 -0.0023593067 -0.0023606196 -0.0024409236 -0.046752736 -0.038592722
0.04612863 -0.007669127 -0.0173209 0.040558413 0.0012623811 0.07829978 -0.026882667 0.010443569
0.032938052 -0.05891424 0.02046343 0.01055285 -0.048712872 0.0042587407 -0.02895703 -0.03197919
-0.03918207 0.018797029 0.044491533 -0.04456314 0.03705509 0.04209048 -0.021059947 -0.030668957
-0.02287211 -0.03656999 -0.03150017 0.01180387 0.055404205 -0.011774701 -0.0068546813 -0.03193019
0.053170342 -0.02970725 -0.012190579 0.030144334 -0.06655928 -0.00012963879 -0.012851837 0.018522846
00000000: c6c5 9dbc 0878 85bb 3011 a4bc 4b25 3ebd
00000010: 4abd 8b3d 1533 1b3d 9114 eeba fe19 593d
00000020: df3d 513b 6a8b 5c3d b862 243d 3724 b4bb
00000030: 6b56 6cbc aa26 a2bc 20d6 0d3d 02c7 04bc
00000040: d61e 52bd 7482 8f3c 97dc 303c 2ce6 123d
00000050: ce02 1a3d faab 013d 681d a43c 3df1 d8bc
00000060: e99d 8d3d 8d03 4d3b a7fc 8e3c b407 80bc
00000070: 9450 0d3d 0c91 d03c 6d0f 28bd e318 32bd
00000080: 9ecf 0b3c 94ff a23c f61e ee3c 4822 a13c
00000090: f736 063d 147e afbc 5e85 efb9 85d9 cfbc
000000a0: 5e9e dbbc b18c e03c 42e0 afbb 59b8 c23b
000000b0: 5321 68ba 579e 8e3b 3119 6cbb c6e5 143c
000000c0: 2483 9cbd 1303 48bc 787f 41bb 63a1 513b
000000d0: 0791 d03a dbc8 1fbc bc30 f5bb 2c64 85bd
000000e0: 2b7f 17bb 3a29 19bb 3d32 17bb 0252 1ebb
000000f0: 03e5 1cbb e7fd 19bb 10b1 10bb 00e2 1bbb
00000100: 8d61 20bb 8bd0 1bbb cce7 0fbb 999e 1abb
00000110: a0b4 1abb e7f7 1fbb cc7f 3fbd 6713 1ebd
00000120: 60f1 3c3d 4d4d fbbb 8fe4 8dbc 9420 263d
00000130: 7b76 a53a a35b a03d 0a39 dcbc 811b 2b3c
00000140: 0dea 063d 0f50 71bd eca2 a73c dce5 2c3c
00000150: 2687 47bd e88c 8b3b 4b37 edbc 9cfc 02bd
00000160: 617d 20bd 3afc 993c c13c 363d d787 36bd
00000170: 14c7 173d 1167 2c3d e985 acbc 773d fbbc
00000180: 4b5e bbbc 6aca 15bd 5206 01bd 0565 413c
00000190: 85ef 623d adea 40bc 3c9d e0bb 3bc9 02bd
000001a0: 25c9 593d 9e5c f3bc ffba 47bc 40f1 f63c
000001b0: 3b50 88bd a6ef 07b9 8390 52bc 39bd 973c

fc_encoder.0.bias f4 [8]
0.070698515 0.031205349 -0.06170301 -0.041361593 -0.06468656 0.03941561 0.002548109 0.057640243
00000000: 62ca 903d 5ca2 ff3c 4cbc 7cbd c66a 29bd
00000010: 637a 84bd 4372 213d 2dfe 263b 2d18 6c3d

fc_encoder.2.weight f4 [16, 8]
-0.037728913 0.20788187 0.19881637 0.09818685 0.9580517 -0.15828024 0.076786906 0.024938801
-0.01920416 0.008545343 0.22804175 -0.040730014 0.50921524 0.42309445 0.24633794 0.2944603
-0.27820894 -0.3640871 -0.52202207 0.12308296 0.021619614 0.47049534 0.08805283 0.37323645
0.2514211 0.032360453 0.16835916 -0.10079768 0.020779703 0.32283202 0.5941165 -0.30537003
0.0719036 -0.16844703 -0.20743059 -0.19179872 -0.29855147 0.25622228 -0.63873446 -0.094141
-0.2492213 0.26748803 -0.1256743 0.14353171 0.65703714 -0.2616289 -0.3997081 0.5730373
-0.048938587 -0.5401207 0.17622674 0.05375147 -0.6249235 0.46861783 0.7107447 -0.13072455
-0.32978395 0.07918546 0.3126235 -0.043994397 -0.6320449 0.21742962 0.04591696 0.37988576
0.11808837 0.35624963 -0.0024795642 -0.06418676 -0.5338165 -0.018645773 -0.45974347 0.07053822
-0.076287046 -0.34089723 0.5082977 -0.19807047 0.16932522 0.5994634 0.25365296 0.387688
-0.07629364 -0.2799803 -0.2643144 0.31448892 0.14958802 0.17581166 0.2332941 -0.4151371
-0.009098497 0.4702124 -0.21310833 0.3533006 -0.5040047 -0.13060723 0.24437062 0.07333464
0.30679286 -0.0197818 0.4662337 -0.07101186 -0.63952667 0.32371187 0.21162786 0.23513708
0.48604086 -0.5167773 0.40107703 -0.123941526 0.21486391 0.099230774 0.08941037 -0.679396
0.18188462 -0.4141495 0.32851836 0.27787843 -0.6220867 0.00050026085 0.4849338 -0.39367548
-0.23911428 0.3123477 -0.15937203 0.08207798 -0.6599546 -0.34050933 -0.43184125 0.38495
00000000: a289 1abd fcde 543e 8596 4b3e 3016 c93d
00000010: e042 753f 3714 22be 7442 9d3d 754c cc3c
00000020: 0b52 9dbc c401 0c3c c783 693e 84d4 26bd
00000030: ee5b 023f d69f d83e 0340 7c3e 80c3 963e
00000040: 6771 8ebe a069 babe 3da3 05bf eb12 fc3d
00000050: 9e1b b13c c4e4 f03e 0b55 b43d d918 bf3e
00000060: 44ba 803e 658c 043d 5866 2c3e 046f cebd
00000070: 323a aa3c 3d4a a53e 0518 183f 7659 9cbe
00000080: 3242 933d 617d 2cbe af68 54be e266 44be
00000090: bddb 98be 912f 833e 1a84 23bf ffcc c0bd
000000a0: de33 7fbe 31f4 883e c4b0 00be faf9 123e
000000b0: 9633 283f 39f4 85be 8aa6 ccbe 93b2 123f
000000c0: d473 48bd 5a45 0abf c874 343e 802a 5c3d
000000d0: fdfa 1fbf adee ef3e 5df3 353f a8dc 05be
000000e0: 71d9 a8be fd2b a23d 3010 a03e 7833 34bd
000000f0: b2cd 21bf dfa5 5e3e 6c13 3c3d 6380 c23e
00000100: 51d8 f13d 5a66 b63e 2f80 22bb 5974 83bd
00000110: 33a8 08bf 05bf 98bc 7f63 ebbe 5876 903d
00000120: 623c 9cbd 158a aebe cc1f 023f fcd2 4abe
00000130: 9763 2d3e 6f76 193f cdde 813e 0b7f c63e
00000140: d73f 9cbd 9459 8fbe 3854 87be b104 a13e
00000150: 9a2d 193e f907 343e a6e4 6e3e da8c d4be
00000160: dd11 15bc aebf f03e 1239 5abe d1e3 b43e
00000170: 7406 01bf e7bd 05be 4b3c 7a3e 7930 963d
00000180: f413 9d3e 710d a2bc 2fb6 ee3e ab6e 91bd
00000190: 05b8 23bf 90bd a53e f9b4 583e c6c7 703e
000001a0: 59da f83e 844b 04bf f859 cd3e 0ed5 fdbd
000001b0: 4905 5c3e 8139 cb3d c91c b73d e5ec 2dbf
000001c0: f63f 3a3e 670b d4be 8f33 a83e 1546 8e3e
000001d0: 1341 1fbf f023 033a 3e49 f83e d58f c9be
000001e0: 60da 74be 0aec 9f3e 6c32 23be 8018 a83d
000001f0: c9f2 28bf 3d57 aebe 4c1a ddbe 2b18 c53e

fc_encoder.2.bias f4 [16]
-0.18243726 -0.27950168 -0.5358839 0.78712153 0.56990516 0.3598613 -0.7908728 0.20243667
0.74382734 -0.6829551 -0.12456789 0.3805157 -0.048945103 -0.5670635 0.43594375 -0.49529517
00000000: d5d0 3abe d81a 8fbe b02f 09bf cc80 493f
00000010: 4ee5 113f be3f b83e a476 4abf 8f4b 4f3e
00000020: 786b 3e3f 25d6 2ebf 731d ffbd f4d2 c23e
00000030: a97a 48bd 132b 11bf 0534 df3e 5497 fdbe

fc_encoder.4.weight f4 [32, 16]
0.26019633 0.40585393 0.20501839 0.1502292 -0.112908624 -0.122080944 0.33041593 -0.21982975
0.46891788 -0.34114277 0.28330752 0.34726554 -0.28042287 0.57534605 0.061366245 0.20394695
0.050840985 -0.015330165 -0.33115277 0.16561812 0.15727991 -0.25136772 -0.25184017 0.33460054
0.5424738 0.11269798 0.42540526 -0.16621387 -0.5528352 0.26866233 -0.52860713 -0.30176306
0.30755588 0.17686781 0.35372284 0.3703776 0.22044998 0.3104739 -0.28367046 -0.39075467
-0.094580084 0.1359843 -0.40654376 -0.45942652 -0.41119105 -0.48358572 0.43370095 0.0149734905
0.25671697 0.26194352 0.19850224 0.010906577 -0.24182722 -0.2837105 -0.32974163 -0.5079578
-0.35279882 -0.5492695 0.0711375 -0.09041243 0.26846814 -0.56438875 -0.1481408 -0.37137374
0.43002898 -0.24438308 0.40739176 -0.08831697 -0.39166883 -0.09711766 0.42946082 -0.039318837
0.46190542 0.09203347 -0.14802375 -0.21916781 -0.08878931 -0.35225737 -0.18108727 -0.03175854
-0.31031898 -0.30002972 -0.05463143 0.16442248 0.482504 0.4385022 -0.08300279 0.018408222
-0.46504635 -0.055971283 0.40303835 0.16194925 0.5754292 0.49451575 0.10365129 0.20503213
-0.14887503 -0.59614426 0.473665 -0.06438127 0.35842478 0.23932143 -0.34410027 0.3655028
-0.55495733 0.51396406 -0.39578983 0.09925892 -0.10321986 0.16149293 0.36104783 0.28290558
0.31692445 0.2538936 0.2157287 0.34567636 -0.283738 -0.4760864 0.32274118 0.27111965
-0.5659674 0.2227995 0.10054264 0.38503587 0.4725343 -0.028592294 -0.45070183 0.27565363
-0.44410482 0.2510358 0.072288774 -0.17294851 -0.29711044 0.3065641 0.54150254 -0.34066877
0.5120059 -0.5647083 -0.3950324 -0.37088993 0.5154228 -0.25719568 -0.16197377 0.25089604
0.44654799 -0.2625517 -0.13994274 -0.3264488 0.12789485 0.3940138 0.60002184 -0.13407254
0.2247766 -0.09485003 -0.15004906 0.083398946 -0.15279266 -0.21616398 -0.2603279 0.0025945322
0.07647252 -0.37804607 0.12787779 -0.44261646 0.5474293 -0.37834942 0.21262084 0.012969253
-0.2588176 -0.53324705 -0.16228873 -0.46694112 -0.1441249 -0.1629946 0.58602417 -0.44300112
-0.23153813 0.12778942 0.3949994 0.10445302 -0.43653813 0.5488554 -0.3453346 0.39945033
-0.44116068 -0.15711236 0.23315234 -0.47230595 -0.10842552 0.4246366 0.11799718 -0.11920661
0.58868104 -0.4662008 0.2453854 0.10124897 -0.38022256 0.24740265 -0.09698561 0.4520137
-0.55942005 -0.4799831 -0.008011436 -0.06387236 0.34855556 0.19173478 0.40206194 0.4093241
0.12619889 -0.52801526 -0.3502719 -0.08672639 0.1931827 0.08101142 0.11110366 -0.52309406
0.37121582 0.27999827 -0.39527524 0.23403671 -0.3912296 -0.46183065 0.36292136 0.35636148
0.04168144 0.24947171 -0.3419582 0.064502835 -0.060927354 0.4811661 -0.06896179 -0.3726858
-0.216026 0.20272084 -0.36090955 -0.29058024 -0.18967952 0.04572097 0.2895582 -0.2664232
-0.323186 -0.064600855 -0.3452652 -0.068214715 -0.28145897 -0.2697147 -0.275696 0.17362207
-0.43475014 0.021376474 0.46864632 0.47085306 0.37271655 -0.2696633 -0.063838 0.08125512
00000000: 7438 853e 16cc cf3e 57f0 513e afd5 193e
00000010: a33c e7bd 9305 fabd 472c a93e 0d1b 61be
00000020: 0116 f03e 44aa aebe af0d 913e cacc b13e
00000030: 9693 8fbe e149 133f 2c5b 7b3d 78d7 503e
00000040: a33e 503d 5f2b 7bbc db8c a9be cc97 293e
00000050: fc0d 213e 45b3 80be 32f1 80be c350 ab3e
00000060: 90df 0a3f 33ce e63d b8ce d93e f833 2abe
00000070: 9c86 0dbf 1c8e 893e cc52 07bf b080 9abe
00000080: f777 9d3e d61c 353e 291b b53e 22a2 bd3e
00000090: a4bd 613e 6ff6 9e3e 413d 91be ff10 c8be
000000a0: 34b3 c1bd 783f 0b3e 8126 d0be f439 ebbe
000000b0: a287 d2be 8c98 f7be 0d0e de3e 5f53 753c
000000c0: 6870 833e 761d 863e 2c44 4b3e 80b1 323c
000000d0: 8ea1 77be 8142 91be e5d3 a8be 8609 02bf
000000e0: 0ca2 b4be ed9c 0cbf 8ab0 913d 272a b9bd
000000f0: a874 893e c87b 10bf 39b2 17be b324 bebe
00000100: c22c dc3e 8f3f 7abe a795 d03e 87df b4bd
00000110: d188 c8be a0e5 c6bd 4ae2 db3e ca0c 21bd
00000120: de7e ec3e 0b7c bc3d 8a93 17be 876d 60be
00000130: 2bd7 b5bd 145b b4be f16e 39be 3e15 02bd
00000140: 21e2 9ebe 7f9d 99be 35c5 5fbd 5e5e 283e
00000150: c40a f73e 5c83 e03e 5efd a9bd d7cc 963c
00000160: 8e1a eebe 2542 65bd 0b5b ce3e 06d6 253e
00000170: 544f 133f 2b31 fd3e 2147 d43d f1f3 513e
00000180: b272 18be e99c 18bf 3884 f23e 54da 83bd
00000190: 7483 b73e ad10 753e e92d b0be 2f23 bb3e
000001a0: af11 0ebf 2693 033f f7a4 cabe 4348 cb3d
000001b0: ef64 d3bd 675e 253e 43db b83e 00d9 903e
000001c0: ec43 a23e 58fe 813e fce7 5c3e 7efc b03e
000001d0: 1b46 91be 99c1 f3be 553e a53e 32d0 8a3e
000001e0: 3de3 10bf 8d25 643e 4de9 cd3d 6c23 c53e
000001f0: 04f0 f13e 633a eabc 64c2 e6be 7922 8d3e
00000200: b561 e3be c487 803e 230c 943d 6a19 31be
00000210: dc1e 98be f8f5 9c3e e99f 0a3f 236c aebe
00000220: d212 033f b990 10bf b041 cabe 49e5 bdbe
00000230: c0f2 033f 27af 83be 74dc 25be 7275 803e
00000240: f0a1 e43e 2d6d 86be 264d 0fbe 4c24 a7be
00000250: def6 023e 2dbc c93e 089b 193f 504a 09be
00000260: d62b 663e bc40 c2bd 76a6 19be 11cd aa3d
00000270: ae75 1cbe 175a 5dbe b349 85be 0709 2a3b
00000280: a09d 9c3d 418f c1be 65f2 023e a09e e2be
00000290: 5424 0c3f 04b7 c1be 47b9 593e fd7c 543c
000002a0: be83 84be e182 08bf 042f 26be e812 efbe
000002b0: 7a95 13be 0ee8 26be ae05 163f 0bd1 e2be
000002c0: 5518 6dbe 3bdb 023e 5d3d ca3e 77eb d53d
000002d0: ed81 dfbe ca81 0c3f b2cf b0be c184 cc3e
000002e0: d0df e1be 10e2 20be 7dbf 6e3e 16d2 f1be
000002f0: 330e debd f869 d93e 81a8 f13d 9822 f4bd
00000300: cdb3 163f dfb1 eebe 4f46 7b3e 9f5b cf3d
00000310: 88ac c2be 1f57 7d3e 64a0 c6bd 576e e73e
00000320: 2736 0fbf 58c0 f5be 6642 03bc 83cf 82bd
00000330: e075 b23e 1f56 443e 10db cd3e ee92 d13e
00000340: 483a 013e 022c 07bf d756 b3be 9b9d b1bd
00000350: b0d1 453e 51e9 a53d 518a e33d 7ee9 05bf
00000360: 0010 be3e ef5b 8f3e 8461 cabe 52a7 6f3e
00000370: 3f4f c8be 1175 ecbe d4d0 b93e 0375 b63e
00000380: 28ba 2a3d 8375 7f3e 2515 afbe 101a 843d
00000390: f68e 79bd 675b f63e d73b 8dbd acd0 bebe
000003a0: eb35 5dbe 0d96 4f3e 23c9 b8be efc6 94be
000003b0: 593b 42be e945 3b3d f940 943e 9f68 88be
000003c0: a378 a5be 744d 84bd 9ac6 b0be 28b4 8bbd
000003d0: 641b 90be 0c18 8abe 0728 8dbe fcc9 313e
000003e0: 9297 debe b71d af3c 69f2 ef3e a713 f13e
000003f0: b4d4 be3e 4f11 8abe 7fbd 82bd 1669 a63d

fc_encoder.4.bias f4 [32]
0.42807007 -0.3856221 0.34691834 0.28006583 0.25862646 0.36000702 -0.3720309 0.34860054
-0.48801604 -0.2819719 0.40863642 0.40218934 0.37109727 -0.19921981 0.10625531 0.30591866
-0.45739016 -0.4075012 0.32278943 0.43349686 -0.41830724 -0.078533165 0.18590915 -0.31308845
-0.3252112 0.46442905 0.29144394 -0.18286736 0.029755263 -0.29347858 0.474872 -0.5274715
00000000: 002c db3e 4370 c5be 489f b13e ca64 8f3e
00000010: b06a 843e d752 b83e d67a bebe c57b b23e
00000020: 3ddd f9be 9f5e 90be cb38 d13e c3eb cd3e
00000030: 7600 be3e 4700 4cbe 629c d93d 5fa1 9c3e
00000040: 0b2f eabe ffa3 d0be a844 a53e 4df3 dd3e
00000050: 5e2c d6be ffd5 a0bd f85e 3e3e 214d a0be
00000060: 1582 a6be a5c9 ed3e 2438 953e 9541 3bbe
00000070: 4fc1 f33c d342 96be 6c22 f33e 5f08 07bf

decoder.0.weight f4 [128, 128]
0.0062733963 0.009372159 0.004185137 0.0054208436 0.0064989533 0.005102481 -0.0055865007 0.0013005276
-0.0032292013 0.004724519 -0.005761857 -0.006481441 0.0011018781 -0.0060771266 -0.0016173046 0.008679419
-0.005460531 0.0015959251 -0.00021267496 -0.0056210514 0.0026039265 -0.0037989286 0.0009759556 -0.001186988
0.006476932 0.005734099 -0.0028668276 0.0037192425 0.007985865 0.0018834377 0.00608619 0.0106021585
0.0006435586 0.0118987085 -0.0037689689 0.0002735151 0.001209131 -0.00092152064 -0.00234033 -0.0037382182
-0.003105387 0.00054906093 0.0106484 -0.0015606923 -0.0051290644 -0.00033595978 0.0013339312 0.0075578904
0.008027977 0.0009931687 0.0012004008 0.0040018684 -0.00059263315 -0.004021338 0.0070644068 -0.0037040815
-0.0015725238 -0.0047198823 0.0026037963 0.007626482 0.0020468556 -0.002701893 0.004070378 0.0016726615
-0.0014749377 0.001585728 -0.006856792 -0.0031464077 -0.0048292447 -0.001867284 0.0012547706 0.012705122
0.0017198591 0.0036946365 0.010659473 -0.0001791432 0.012874179 0.0029239035 0.0040741977 -0.002604374
0.008114599 -0.0013825202 0.0058905184 0.003738256 -0.0082616825 -0.010426783 -0.0013225642 -0.0069509377
-0.0011791271 0.005139351 0.0061336467 -0.0016112268 0.004546228 0.0055834185 -0.009198536 0.0019007232
-0.0029214628 0.002414968 0.0029832553 -0.005031391 -0.009426629 -0.0072340528 -0.0038257556 0.0031216228
0.005799961 -0.0014562749 -0.00533988 0.0016131732 0.0028287845 0.00045524526 0.0018871223 0.000100650046
0.00042686105 0.0019925334 -0.004974038 -0.0009088259 -0.005596364 0.004453765 0.006059549 0.0006289581
-0.0015549094 -0.0013256695 0.003254312 -0.006058657 0.0006151836 -0.005332006 -0.0033363595 0.011015092
0.0020216657 -0.0007145565 -0.009508236 -0.0034380488 -0.0028611585 -0.00859162 0.0007669441 -0.0020214587
1.2536009e-05 -0.011240303 0.0056773745 -0.006794039 0.0023602468 -0.011910986 0.003670194 -0.0044981716
-0.004583634 -0.0035997746 -0.014173146 -0.0050882515 0.0040718275 0.0055747186 0.010386662 -0.0009527398
-0.010811515 0.0044222157 0.0139283305 0.0015368885 -0.003425801 -0.01271612 0.009755563 -0.007587282
0.005875409 -0.0016871038 -0.0066027837 0.004130809 0.012468405 -0.011960887 0.0053404924 0.010235037
-0.002115152 0.0038261116 0.0063814106 0.009211675 0.0015574759 0.0025592821 0.005558508 -0.0029887287
-0.000680251 0.004034067 -0.0015325841 -0.0023435953 0.008921354 0.00026958843 -0.0031363766 0.0039789695
-0.0065295324 0.006223514 -0.0026314745 -0.003351051 -0.0024458307 0.00070120645 0.008035818 0.0022194139
-0.0019123411 0.009980394 0.005117155 -0.0037509867 -0.0031245914 -0.0067451047 -0.005982782 -0.0019372356
-0.0055076457 -0.0059451573 0.0084271645 0.001050713 -0.01725856 -0.009678251 -0.0022307641 0.0040093367
-0.007823715 -0.00024046491 -0.008352478 -0.0029966945 0.012991178 6.379868e-05 0.006449421 0.0005360704
-0.009826101 -0.0026360818 -0.008710852 0.010108741 -0.011858511 -0.00042689889 0.004709483 -0.0012258473
-0.0040283655 0.0022426562 0.002199204 0.0032350826 -0.002986268 -0.0023510908 -0.005548649 -0.0015993938
-0.00047287258 0.0013864542 0.0018342228 0.0017184464 0.0025792029 0.0013672465 -0.003058896 -0.0031673429
0.00024389962 0.0019264984 -0.0062492597 1.1375375e-05 -0.0013180989 0.0020961568 0.0050136736 0.0043005287
0.0031105985 0.00079368026 -0.0013462955 0.0022051714 -0.001983868 3.6855978e-05 -0.00080120785 -0.0010771011
00000000: 1091 cd3b af8d 193c 7923 893b 55a1 b13b
00000010: 2cf5 d43b b732 a73b f70e b7bb 7776 aa3a
00000020: 02a1 53bb 23d0 9a3b f6cd bcbb 4562 d4bb
00000030: e56c 903a a222 c7bb bdfb d3ba 1f34 0e3c
00000040: 41ee b2bb 5c2e d13a 8001 5fb9 cc30 b8bb
00000050: a3a6 2a3b 72f7 78bb 46d7 7f3a b594 9bba
00000060: 723c d43b 1ce5 bb3b 63e1 3bbb 89be 733b
00000070: 25d7 023c afdd f63a aa6e c73b adb4 2d3c
00000080: 7db4 283a cdf2 423c ce00 77bb 9366 8f39
00000090: b47b 9e3a 3492 71ba 3960 19bb e5fc 74bb
000000a0: c083 4bbb dbee 0f3a a076 2e3c 2590 ccba
000000b0: b611 a8bb c223 b0b9 4ed7 ae3a 2ea8 f73b
000000c0: c787 033c 362d 823a c456 9d3a 1b22 833b
000000d0: f05a 1bba 6ec5 83bb 8a7c e73b 2dc0 72bb
000000e0: 251d ceba 3ea9 9abb 74a4 2a3b 91e7 f93b
000000f0: 8a24 063b 3e12 31bb ce60 853b 353d db3a
00000100: b252 c1ba 34d8 cf3a f1ae e0bb f633 4ebb
00000110: a43e 9ebb a7bf f4ba 1d77 a43a 2529 503c
00000120: e56c e13a b721 723b 12a5 2e3c 63d8 3bb9
00000130: 38ee 523c f69e 3f3b d980 853b 25ae 2abb
00000140: 18f3 043c ae35 b5ba 4005 c13b 87fd 743b
00000150: 025c 07bc 19d5 2abc e459 adba b1c4 e3bb
00000160: f18c 9aba 0068 a83b c2fc c83b cd2f d3ba
00000170: 86f8 943b 1cf5 b63b 75b5 16bc b021 f93a
00000180: 0376 3fbb 7144 1e3b b882 433b 5ede a4bb
00000190: 2672 1abc a20b edbb 87b9 7abb 2494 4c3b
000001a0: 990d be3b 7ae0 beba 29fa aebb 1c71 d33a
000001b0: 2163 393b fcad ee39 5159 f73a 1514 d338
000001c0: 52cc df39 2a95 023b 41fd a2bb 463e 6eba
000001d0: b461 b7bb e4f0 913b 2e8f c63b aae0 243a
000001e0: 1ace cbba 16c2 adba 4c46 553b b387 c6bb
000001f0: 4644 213a 1cb8 aebb d3a6 5abb a578 343c
00000200: ec7d 043b 1351 3bba 6fc8 1bbc e350 61bb
00000210: 4682 3bbb dec3 0cbc bf0c 493a 737a 04bb
00000220: c051 5237 3f29 38bc 4509 ba3b 88a0 debb
00000230: 5fae 1a3b 4c26 43bc a387 703b 6665 93bb
00000240: 4f32 96bb 32ea 6bbb 7c36 68bc 59bb a6bb
00000250: f76c 853b 21ac b63b d12c 2a3c 49c1 79ba
00000260: c822 31bc 3ce8 903b a733 643c 6c71 c93a
00000270: 6783 60bb 4657 50bc ccd5 1f3c bc9e f8bb
00000280: 8186 c03b cf21 ddba 2a5c d8bb bd5b 873b
00000290: 4848 4c3c 99f7 43bc 4cff ae3b dbb0 273c
000002a0: 5d9e 0abb 80bf 7a3b 271b d13b 91ec 163c
000002b0: 3824 cc3a a1b9 273b 2524 b63b 8cde 43bb
000002c0: df52 32ba 3530 843b fde0 c8ba 0197 19bb
000002d0: df2a 123c 8c57 8d39 ab8b 4dbb 0462 823b
000002e0: b0f5 d5bb 9fee cb3b d174 2cbb 4e9d 5bbb
000002f0: 3b4a 20bb 2bd1 373a aaa8 033c 9673 113b
00000300: 85a7 faba ce84 233c cfad a73b 1dd3 75bb
00000310: f2c5 4cbb 0a06 ddbb 370b c4bb d7ea fdba
00000320: 7b79 b4bb 98cf c2bb 1712 0a3c 14b8 893a
00000330: d361 8dbc 8791 1ebc 0332 12bb c160 833b
00000340: 0a2f 00bc 4f25 7cb9 d5d8 08bc 3164 44bb
00000350: f3d8 543c a8cb 8538 aa55 d33b 1387 0c3a
00000360: a8fd 20bc 1dc2 2cbb f6b7 0ebc 229f 253c
00000370: 334a 42bc 66d1 dfb9 0252 9a3b 9cac a0ba
00000380: 6100 84bb 87f9 123b 8520 103b ae03 543b
00000390: 43b5 43bb c214 1abb 71d1 b5bb c0a2 d1ba
000003a0: e2eb f7b9 afb9 b53a 4e6a f03a 7e3d e13a
000003b0: d807 293b 2e35 b33a c277 48bb 3293 4fbb
000003c0: 4ebf 7f39 8f82 fc3a 97c6 ccbb ddd8 3e37
000003d0: 0fc4 acba ad5f 093b be49 a43b 73eb 8c3b
000003e0: 2fdb 4b3b fb0e 503a 2e76 b0ba a384 103b
000003f0: c803 02bb ce95 1a38 2608 52ba 842d 8dba

decoder.0.bias f4 [128]
0.00092944707 -0.0024769106 0.0011260824 -0.004684481 0.009078877 -0.007292182 -0.005329242 -0.0073315874
-0.00104043 0.00012245378 0.0062256674 -0.0067027514 -0.003363419 0.008521555 0.0031286844 -0.0057858704
0.0030127708 0.002233168 0.0011973473 0.0053035845 -0.0071844636 0.0010664935 -0.00112296 -0.0035921764
0.004288418 -0.0058902833 0.004000221 0.0024896176 0.0011880064 -0.0023886475 -0.0051350403 -0.00930763
0.002204343 0.0071551604 0.008637154 0.0031266806 0.009903838 0.010981037 -0.0056199636 0.0036958884
0.005031624 0.0010702331 -0.009726404 -0.005833759 -0.0026764777 0.0028044332 -0.007335051 -0.0068699853
-0.00916469 0.0027782295 0.006230611 0.003333055 0.006241807 0.0068541914 0.00059417135 0.001701724
-0.009450105 -0.0024038525 -0.0008076587 -0.0039406954 -0.0057979124 -0.005729857 0.0033737554 0.0031521695
0.0005129446 -0.0018227198 0.0017991441 -0.0076382454 -0.0045360504 0.004637512 -0.0072160074 0.007120013
0.00080890063 0.0064548254 -0.006594126 -0.003749439 -0.0053798235 0.0046954225 -0.0060414607 -0.0043338533
-0.0038923158 -0.006127928 0.004255416 0.0010947452 0.0043914146 -0.008959727 -0.008828041 -0.005756729
0.0072102193 0.0029142306 0.00664372 -0.009233102 -0.013662808 -0.0066056903 -0.001909608 -0.00047857154
-0.0027732237 0.0036118934 -0.0053079943 0.0021702708 -0.0027356946 -0.0027860696 0.00278679 -0.0036434184
-0.0009885689 -0.0023316587 -0.00026764045 0.0018219373 0.0068200026 0.0055444166 0.005187124 -0.011302367
0.0038503362 0.007166674 0.005519433 0.008838439 -2.5452719e-05 0.00428941 -0.0043031 0.00042766085
0.005980107 -0.0023159923 0.0066138706 -0.005479718 -0.00820874 0.0037629264 0.0056796283 0.005921753
00000000: 23a6 733a aa53 22bb 0e99 933a 4680 99bb
00000010: 92bf 143c 42f3 eebb eca0 aebb d03d f0bb
00000020: 0a5f 88ba f066 0039 af00 cc3b c1a2 dbbb
00000030: cf6c 5cbb fe9d 0b3c 9d0a 4d3b 6697 bdbb
00000040: e871 453b 585a 123b 4ff0 9c3a b1c9 ad3b
00000050: a66b ebbb 95c9 8b3a 4930 93ba b86a 6bbb
00000060: dc85 8c3b 4703 c1bb 4914 833b da28 233b
00000070: e1b6 9b3a db8a 1cbb d743 a8bb 087f 18bc
00000080: bd76 103b d675 ea3b d982 0d3c ffe8 4c3b
00000090: b543 223c cfe9 333c ac27 b8bb b836 723b
000000a0: 52e0 a43b 1047 8c3a 7f5b 1fbc 1e29 bfbb
000000b0: d867 2fbb 95ca 373b de5a f0bb 9d1d e1bb
000000c0: 7f27 16bc f512 363b 272a cc3b 626f 5a3b
000000d0: 1288 cc3b 2099 e03b 2ac2 1b3a 620c df3a
000000e0: 9dd4 1abc f489 1dbb 0fb9 53ba f320 81bb
000000f0: 6afc bdbb 86c1 bbbb 391a 5d3b a194 4e3b
00000100: 2177 063a 54e8 eeba 42d1 eb3a 3f4a fabb
00000110: 26a3 94bb 45f6 973b 4274 ecbb ff4e e93b
00000120: 670c 543a 0083 d33b 8a13 d8bb 26b9 75bb
00000130: 3b49 b0bb 0fdc 993b 72f7 c5bb ff02 8ebb
00000140: 3916 7fbb c9cc c8bb 0471 8b3b 8e7d 8f3a
00000150: dbe5 8f3b d2cb 12bc 7da3 10bc f1a2 bcbb
00000160: b443 ec3b adfc 3e3b 90b3 d93b 7046 17bc
00000170: f8d9 5fbc 8c74 d8bb d04b faba c9e8 fab9
00000180: f9be 35bb 84b5 6c3b afee adbb 1a3b 0e3b
00000190: 5749 33bb 7e96 36bb 94a2 363b 6bc6 6ebb
000001a0: de92 81ba bece 18bb 1852 8cb9 12ce ee3a
000001b0: 547a df3b f0ad b53b c0f8 a93b 902d 39bc
000001c0: ec55 7c3b 6bd6 ea3b 5cdc b43b 1acf 103c
000001d0: 4c83 d5b7 2e8e 8c3b 0501 8dbb ab37 e039
000001e0: c6f4 c33b e7c7 17bb 2bb9 d83b 358f b3bb
000001f0: f37d 06bc 6e9b 763b 2d1c ba3b 440b c23b

decoder.2.weight f4 [64, 128]
-0.075412795 -0.11717012 -0.09398858 -0.18385394 0.10016692 -0.08037872 -0.12296475 0.081306934
-0.17331585 -0.014801758 0.2125373 0.13537885 0.13518924 -0.08086359 -0.12726086 0.1833683
-0.01628373 -0.09965612 -0.16105624 -0.18021388 0.031190835 0.007616617 -0.022521378 0.113835216
0.11869362 0.08892218 0.17928089 -0.05928727 -0.13340342 -0.06956657 0.12831752 -0.024248708
0.108047575 -0.1607886 0.11296313 0.01051485 0.11087815 -0.12500706 0.07145315 -0.08852232
-0.014163102 0.17336588 -0.004704003 -0.10582883 -0.08722109 0.060765162 -0.025132092 0.051557306
-0.17245734 0.08147528 -0.18884812 -0.06584031 0.07532552 0.15768991 0.12084804 0.12928247
-0.18959938 -0.0048220856 -0.03782009 0.18497615 -0.15003236 0.01652159 -0.15629593 0.08748047
0.008044623 -0.10451334 0.03757425 0.18291926 0.20369174 -0.003252062 0.03327344 -0.2213562
0.25561905 -0.022623012 0.014958033 0.04324855 -0.17367733 -0.15624495 0.01686041 0.14834154
0.16801557 -0.20830944 -0.2259348 -0.052258424 0.023245553 0.18035641 0.0637536 -0.14505498
0.07074398 0.06129874 -0.059891514 0.034989294 0.035091896 -0.15958714 -0.048000798 0.051600117
-0.11859905 -0.17716223 -0.13907875 -0.020118942 -0.16730617 0.15033972 -0.16148178 -0.07734692
-0.085264206 0.1389016 -0.03166859 -0.18603237 0.17888035 0.1454406 -0.07190612 -0.01169807
-0.18612061 -0.020696528 -0.0033437514 0.16716494 -0.09456751 -0.051000774 -0.0806569 -0.01109144
0.06652334 0.009301615 -0.14838369 -0.0004436138 -0.0062795957 -0.18589826 -0.1581851 -0.050695855
-0.05109798 0.044646904 0.20161319 -0.057777733 -0.076300375 0.2063895 -0.103008226 -0.053159233
0.08713179 0.09863284 0.1797172 -0.09491906 -0.15192331 0.06976447 0.008966386 0.07559384
0.017609272 -0.024659863 -0.03375741 0.11162107 -0.030615263 -0.05630419 0.079036385 -0.13773975
-0.16573139 0.17120516 0.05971187 0.16464044 -0.09464084 -0.118840635 -0.16102457 -0.15585871
0.15398052 -0.13470347 0.028574103 -0.041903585 0.19387433 0.15859655 -0.10679725 0.16733943
-0.13242793 -0.18214405 0.15210888 -0.11805054 0.13388231 -0.04029299 0.16388449 -0.07199088
0.18098313 -0.08256295 0.14386357 0.17309862 -0.054568823 0.020862518 0.18472794 0.04351813
-0.0029574796 0.09244467 0.16758847 -0.048701376 0.022373244 0.07948917 -0.19402042 -0.11662808
-0.09213047 0.102703474 -0.16050488 0.20589252 -0.14288948 0.18158847 -0.08697994 -0.16585502
-0.007192219 -0.19337831 0.03788323 -0.12366293 -0.043446567 0.19752091 -0.051543944 -0.16489236
0.121254 -0.13248351 0.12941332 -0.14950734 -0.053533275 0.06881031 -0.087477446 -0.05766394
0.118360355 -0.15607783 -0.010927089 0.17467624 0.056189544 -0.16144753 0.034221362 -0.008951821
0.11260077 -0.062062092 0.2215585 -0.16378641 0.06171964 -0.054652307 0.017751744 0.019579059
-0.13801178 -0.21168451 0.011483517 0.051081244 0.16128011 0.065633066 -0.16712719 -0.024182264
0.17349467 0.11537665 0.17465796 -0.0140898805 0.1265136 0.0719003 0.0023170065 0.06714457
-0.1055868 0.19794627 0.16152756 -0.108257756 0.07847033 -0.100351445 0.052170247 0.049604543
00000000: 0672 9abd e3f6 efbd 167d c0bd 3544 3cbe
00000010: 5024 cd3d 999d a4bd f1d4 fbbd 4084 a63d
00000020: b679 31be 1383 72bc 61a3 593e c1a0 0a3e
00000030: 0c6f 0a3e cf9b a5bd ac50 02be e6c4 3b3e
00000040: 7565 85bc 8218 ccbd edeb 24be fd89 38be
00000050: ec83 ff3c d094 f93b c17e b8bc 7022 e93d
00000060: a415 f33d d51c b63d 6995 373e 35d7 72bd
00000070: e89a 08be eb78 8ebd ab65 033e 3aa5 c6bc
00000080: 0c48 dd3d c4a5 24be 3759 e73d 7a46 2c3c
00000090: 1514 e33d da01 00be 0756 923d 314b b5bd
000000a0: 5b0c 68bc d386 313e 0a24 9abb c9bc d8bd
000000b0: f9a0 b2bd e4e4 783d d1e1 cdbc c12d 533d
000000c0: a898 30be 83dc a63d 6761 41be 49d7 86bd
000000d0: 4444 9a3d 7779 213e 2d7f f73d a062 043e
000000e0: 5726 42be 9602 9ebb 3de9 1abd 636a 3d3e
000000f0: 15a2 19be 4958 873c 0a0c 20be f628 b33d
00000100: 98cd 033c 170b d6bd 75e7 193d 304f 3b3e
00000110: 9194 503e 8c20 55bb bb49 083d 33ab 62be
00000120: 80e0 823e e553 b9bc 8a12 753c 6425 313d
00000130: 78d8 31be adfe 1fbe d81e 8a3c d8e6 173e
00000140: 460c 2c3e 124f 55be 745b 67be ee0c 56bd
00000150: 756d be3c 5aaf 383e 3f91 823d 4b89 14be
00000160: 38e2 903d 6314 7b3d ce50 75bd ef50 0f3d
00000170: 85bc 0f3d d06a 23be 7c9c 44bd a55a 533d
00000180: 0fe4 f2bd 046a 35be a96a 0ebe 7bd0 a4bc
00000190: 4f52 2bbe a8f2 193e 7b5b 25be 1068 9ebd
000001a0: 009f aebd 393c 0e3e ecb6 01bd 457f 3ebe
000001b0: 692c 373e 61ee 143e 8443 93bd 43a9 3fbc
000001c0: 6796 3ebe c48b a9bc d722 5bbb 492d 2b3e
000001d0: 9cac c1bd 30e6 50bd 722f a5bd dfb8 35bc
000001e0: 643d 883d cd65 183c e5f1 17be d694 e8b9
000001f0: 11c5 cdbb 1d5c 3ebe 46fb 21be 75a6 4fbd
00000200: 1e4c 51bd acdf 363d b073 4e3e 58a8 6cbd
00000210: 5f43 9cbd c557 533e faf5 d2bd 7fbd 59bd
00000220: 2772 b23d 0400 ca3d c907 383e ed64 c2bd
00000230: c991 1bbe ade0 8e3d c0e7 123c f1d0 9a3d
00000240: 5241 903c 7b03 cabc 3645 0abd 9699 e43d
00000250: dccc fabc 399f 66bd d4dd a13d a60b 0dbe
00000260: 7db5 29be 6850 2f3e 6f94 743d 8197 283e
00000270: 0fd3 c1bd b862 f3bd a0e3 24be 6d99 1fbe
00000280: 12ad 1d3e b5ef 09be 3d14 ea3c 18a3 2bbd
00000290: fe86 463e 2267 223e 84b8 dabd 075b 2b3e
000002a0: 309b 07be f883 3abe 6ec2 1b3e 7bc4 f1bd
000002b0: 7218 093e 430a 25bd 56d1 273e f46f 93bd
000002c0: a453 393e c416 a9bd f950 133e c440 313e
000002d0: 8f83 5fbd dfe7 aa3c 5229 3d3e 1140 323d
000002e0: 46d2 41bb a253 bd3d 509c 2b3e 187b 47bd
000002f0: 1848 b73c 38cb a23d 4aad 46be b4da eebd
00000300: e6ae bcbd 3356 d23d 645b 24be 7dd5 523e
00000310: 9f51 12be 54f2 393e 8a22 b2bd e6d5 29be
00000320: b5ac ebbb f704 46be 722b 1b3d fe42 fdbd
00000330: 07f5 31bd ec42 4a3e be1f 53bd 8bd9 28be
00000340: 0454 f83d c2a9 07be ed84 043e 7418 19be
00000350: b545 5bbd 6bec 8c3d 6027 b3bd 0631 6cbd
00000360: ea66 f23d ded2 1fbe 8807 33bc 54de 323e
00000370: 0227 663d 8052 25be b32b 0c3d a9aa 12bc
00000380: 3c9b e63d d234 7ebd 3be0 623e a0b7 27be
00000390: bccd 7c3d 19db 5fbd 1b6c 913c 4364 a03c
000003a0: f652 0dbe d3c3 58be 5c25 3c3c 913a 513d
000003b0: 9d26 253e a16a 863d 6423 2bbe e219 c6bc
000003c0: 96a8 313e 984a ec3d 89d9 323e 3ed9 66bc
000003d0: c88c 013e 7740 933d ebd8 173b 1883 893d
000003e0: e43d d8bd 6db2 4a3e 7b67 253e 3eb6 ddbd
000003f0: 0db5 a03d 0f85 cdbd 78b0 553d 222e 4b3d

decoder.2.bias f4 [64]
0.15653835 0.187092 -0.12901296 -0.18637832 0.1525585 0.06485574 0.17449836 -0.1675236
-0.08301411 -0.18125015 -0.13430092 0.02698798 0.1888032 0.013791699 0.12267049 0.17194702
-0.037325162 0.07875571 -0.039766435 0.15703207 0.08367843 0.16570796 0.10896204 0.19379765
-0.13202828 -0.18007065 -0.10536624 0.083220065 -0.018571991 -0.107852764 0.18434028 -0.085878775
0.019129382 0.08759241 0.0722945 0.066580564 0.12480818 -0.08711947 0.0024593356 -0.17970788
0.13342683 0.09172284 0.048575677 0.038929053 -0.13279463 0.1912958 0.09083028 0.1428746
-0.17228898 -0.014653896 0.20223834 -0.003435677 0.18814565 -0.1011291 -0.17149216 0.055210628
-0.19282489 0.13049886 0.19424675 -0.09007072 0.0711026 0.055914216 -0.1670355 0.19423977
00000000: 974b 203e 0c95 3f3e f91b 04be f5d9 3ebe
00000010: 4c38 1c3e 16d3 843d b3af 323e 4e8b 2bbe
00000020: 4d03 aabd a499 39be 2e86 09be e515 dd3c
00000030: a055 413e 94f6 613c aa3a fb3d e112 303e
00000040: 45e2 18bd ac4a a13d 21e2 22bd 04cd 203e
00000050: 995f ab3d 59af 293e 7d27 df3d e472 463e
00000060: 6c32 07be 7164 38be 41ca d7bd 486f aa3d
00000070: 4a24 98bc e9e1 dcbd b3c3 3c3e 36e1 afbd
00000080: 39b5 9c3c a663 b33d 240f 943d 645b 883d
00000090: 6e9b ff3d b16b b2bd ce2c 213b 5805 38be
000000a0: 0ba1 083e 2fd9 bb3d 4af7 463d 1274 1f3d
000000b0: 51fb 07be 0ce3 433e 3a05 ba3d b84d 123e
000000c0: 866c 30be e516 70bc 9117 4f3e 1829 61bb
000000d0: 41a9 403e c61c cfbd a49b 2fbe 8a24 623d
000000e0: e373 45be 7ea1 053e 9fe8 463e ff76 b8bd
000000f0: 3d9e 913d 4e06 653d 5b0b 2bbe cae6 463e

decoder.4.weight f4 [1, 64]
-0.01913197 0.026839888 0.06015921 -0.088145904 0.13089202 0.1657008 -0.24762845 3.2842607e-05
0.13048819 0.11176066 -0.17267282 0.09828328 -0.23253728 0.060276173 -0.16192354 0.01818059
0.035084873 -0.20294614 0.009874281 0.05166241 0.018835476 -0.1632559 0.18375461 0.172634
-0.01995288 0.094197534 0.051840782 -0.14295007 0.19842602 -0.0679768 0.16027404 0.08145193
0.11759104 -0.22278772 0.037802972 -0.018752903 0.059056032 -0.14952333 -0.021442883 -0.113280535
0.015270683 0.09553064 0.016226511 -0.23482612 0.25685924 0.07758172 -0.070184335 -0.051657155
-0.070349775 -0.1989289 -0.23028606 -0.2599736 -0.03173706 -0.07046458 0.07720289 0.16239625
-0.011413179 0.22853331 -0.120016485 -0.13885768 0.102579445 0.24757195 0.0014585492 0.20602566
00000000: a6ba 9cbc 53df db3c 8169 763d d785 b4bd
00000010: 8f08 063e 78ad 293e 5092 7dbe 7bc0 0938
00000020: b29e 053e c6e2 e43d 25d1 30be bf48 c93d
00000030: 411e 6ebe 26e4 763d 49cf 25be 76ef 943c
00000040: 28b5 0f3d 1dd1 4fbe bcc7 213c f79b 533d
00000050: db4c 9a3c 8e2c 27be 2b2a 3c3e f8c6 303e
00000060: 3974 a3bc a3ea c03d 0057 543d 8161 12be
00000070: 3130 4b3e 6c37 8bbd e11e 243e 45d0 a63d
00000080: 92d3 f03d 7722 64be 4ad7 1a3d b09f 99bc
00000090: bde4 713d a51c 19be fca8 afbc a0ff e7bd
000000a0: e331 7a3c 91a5 c33d 76ed 843c 4276 70be
000000b0: 0e83 833e 2ae3 9e3d cebc 8fbd 7496 53bd
000000c0: 8b13 90bd 04b4 4bbe 1cd0 6bbe 421b 85be
000000d0: b8fe 01bd bc4f 90bd 8c1c 9e3d 344b 263e
000000e0: 58fe 3abc a304 6a3e 34cb f5bd b530 0ebe
000000f0: 2c15 d23d 8083 7d3e ca2c bf3a 64f8 523e
