Training/checkpoints/wind_pressure_200_5/mlp/model_70.pth (torch, 132355 bytes, 17 tensors)

pos_encoder.0.weight f4 [24, 1]
0.19659005 0.0042074155 -0.8959973 -0.7859796 -0.20699605 -0.94686264 0.44330284 -0.530088
0.21399707 -0.84633356 -0.09378461 -0.24131094 -0.101387665 0.048904743 -0.6207527 0.14988188
0.27771923 0.16338956 0.20544794 -0.9572197 -0.14360884 -0.7658212 -0.70183057 -0.054694444
00000000: e74e 493e 5cde 893b 1460 65bf f635 49bf
00000010: c6f6 53be 9765 72bf 97f8 e23e d9b3 07bf
00000020: 0c22 5b3e 51a9 58bf 2512 c0bd 371a 77be
00000030: 56a4 cfbd 5750 483d a6e9 1ebf a37a 193e
00000040: 3731 8e3e 984f 273e f260 523e 5a0c 75bf
00000050: 320e 13be dc0c 44bf 2bab 33bf 4807 60bd

pos_encoder.0.bias f4 [24]
0.854315 0.27908668 0.6451815 -0.035071168 -0.5714355 0.81689805 0.5971838 0.7092935
0.5796152 0.65225935 -0.5661159 0.06904926 0.6842146 0.49327028 -0.7787146 0.32664105
0.92777264 -0.76739174 -0.6971582 0.12635815 0.3387642 -0.67997706 -0.8882015 0.20718145
00000000: 63b4 5a3f 73e4 8e3e 9d2a 253f c9a6 0fbd
00000010: 9949 12bf 3b20 513f 0ae1 183f 4294 353f
00000020: a961 143f 78fa 263f f9ec 10bf b369 8d3d
00000030: b028 2f3f ec8d fc3e d759 47bf 7f3d a73e
00000040: 8282 6d3f c973 44bf f678 32bf 0864 013e
00000050: 8072 ad3e fa12 2ebf 2c61 63bf 6027 543e

pos_encoder.2.weight f4 [48, 24]
-0.25879848 -0.31600997 -0.13381462 -0.34669405 0.38154867 0.25990605 -0.15562582 0.014513203
0.23894557 0.46344006 -0.43677065 0.018234976 -0.15242659 -0.12572953 -0.004260664 -0.03003709
-0.3400121 0.24165088 0.107752904 -0.20388898 0.32478383 -0.24931322 -0.14759997 -0.08962515
-0.10923818 -0.32922357 -0.4359009 0.2156653 -0.114196844 0.38168746 0.35472342 0.1572017
0.115680836 0.0035449448 0.36216852 0.26442668 0.39419124 0.078670114 -0.28156608 -0.34337276
-0.18871944 0.26571774 0.44166565 0.13817339 -0.07487205 -0.17157964 0.15100095 -0.31234565
-0.35559088 0.263498 -0.071198136 -0.4658356 0.4516406 -0.4272112 0.22485779 0.25876856
0.02331541 0.2054214 -0.15641806 -0.17204803 -0.20255098 -0.29092532 0.47949064 -0.2603529
-0.35730463 0.42201674 -0.13145629 -0.3342453 0.25962016 -0.3331584 0.11788415 0.39001626
0.06268521 0.04612819 0.112504 -0.48971993 0.28250983 -0.32840067 0.3698867 -0.0018725944
-0.31747338 -0.5094857 -0.18064713 -0.13576783 -0.1592649 0.09249381 0.36554974 -0.17237152
-0.3281739 0.3075327 -0.17596668 0.03938781 0.094542496 -0.08338108 0.112791486 -0.29915985
-0.11400917 0.17138964 -0.053586897 0.41634202 -0.31202015 0.41210482 -0.33213788 0.056965243
-0.29750958 -0.181373 -0.07568943 0.15266933 0.25604972 -0.29690942 -0.13243467 -0.45747274
-0.26018137 -0.34776855 0.04990821 -0.055069406 0.47902805 -0.18603691 -0.24783844 -0.33680826
0.048358083 -0.33114624 0.31597307 0.17822415 0.20581163 0.31724223 0.40627545 0.45985353
-0.18599986 -0.40494117 -0.2796026 0.40447992 -0.09287062 0.20369023 -0.13937354 -0.23121198
-0.36480612 0.38976422 0.14772509 -0.13352771 -0.1610204 0.15100148 0.08308377 -0.50770396
0.38727027 -0.11310957 0.2316785 0.1844488 -0.44912294 -0.21529704 0.4285577 -0.31565976
0.3940193 -0.3604716 0.26523712 -0.37117344 0.19360058 0.3467156 0.16899587 -0.1390838
-0.14125302 -0.47728688 0.052764356 0.22837503 -0.04458494 -0.31961516 -0.13644542 -0.22011688
0.10266964 0.31539646 -0.45086345 -0.24379979 0.30405778 -0.14267409 -0.15435813 -0.32546696
-0.2466089 0.34739685 0.32628685 0.24832234 0.32262078 0.18559994 0.22141463 0.4253611
0.47614142 0.21354946 -0.36720675 -0.28397813 0.04228235 0.18784717 -0.13045767 -0.17312035
0.12716824 0.3655082 -0.40861678 0.07544048 0.23010704 -0.036035646 0.2726433 -0.12650459
-0.4596837 -0.16054462 0.4106644 0.26213413 -0.3867741 0.20291285 -0.43169588 -0.4363462
0.46807718 0.24972907 -0.14477797 0.22179961 0.40984812 0.1879345 0.48036996 -0.44390056
0.039999343 -0.40740573 0.4620266 -0.043390702 0.15454382 0.056089804 -0.120132156 0.36983198
-0.42900282 0.17153928 0.20683187 -0.4129946 -0.15202059 -0.026223995 -0.12161213 -0.1746716
0.35885406 -0.3087311 -0.011019353 0.054197583 -0.02865268 -0.3954131 0.38355252 -0.3558845
-0.06808008 -0.4718724 0.25428736 0.43965477 -0.47846746 0.16666849 0.38887042 -0.1921255
0.15017584 -0.33165902 -0.016663902 0.14212888 0.23000666 -0.2739286 -0.2759461 0.35565755
00000000: 3c81 84be 0fcc a1be b306 09be e281 b1be
00000010: 595a c33e 6812 853e 605c 1fbe c9c8 6d3c
00000020: 26ae 743e 0448 ed3e 67a0 dfbe 8461 953c
00000030: b715 1cbe 3ebf 00be 0a9d 8bbb 5810 f6bc
00000040: 1116 aebe 5473 773e 8ead dc3d 46c8 50be
00000050: 114a a63e f74b 7fbe 7224 17be 648d b7bd
00000060: 44b8 dfbd fe8f a8be 672e dfbe 5dd7 5c3e
00000070: 09e0 e9bd 8a6c c33e 4f9e b53e 7cf9 203e
00000080: 13ea ec3d 4e52 683b 276e b93e ef62 873e
00000090: 6fd3 c93e cc1d a13d 6e29 90be 8ece afbe
000000a0: ab3f 41be 280c 883e 0022 e23e 537d 0d3e
000000b0: 8456 99bd 93b2 2fbe fe9f 1a3e c5eb 9fbe
000000c0: 0210 b6be 36e9 863e 54d0 91bd 0182 eebe
000000d0: 703d e73e 6dbb dabe 1f41 663e 507d 843e
000000e0: f5ff be3c fd59 523e 0e2c 20be 5c2d 30be
000000f0: 8669 4fbe 2af4 94be cc7f f53e fa4c 85be
00000100: a2f0 b6be 9412 d83e 7a9c 06be 3322 abbe
00000110: efec 843e bd93 aabe 3f6d f13d 36b0 c73e
00000120: 1a61 803d eaf0 3c3d 7f68 e63d 92bc fabe
00000130: 21a5 903e 2224 a8be ca61 bd3e d771 f5ba
00000140: df8b a2be a86d 02bf 90fb 38be b906 0bbe
00000150: 5716 23be 656d bd3d 5629 bb3e 2982 30be
00000160: 6906 a8be ed74 9d3e 9c30 34be 1d55 213d
00000170: 7f9f c13d b3c3 aabd 39ff e63d 7b2b 99be
00000180: a47d e9bd c480 2f3e ef7d 5bbd c82a d53e
00000190: 1bc1 9fbe 67ff d23e fa0d aabe 6354 693d
000001a0: 2d53 98be d8b9 39be 0f03 9bbd 5955 1c3e
000001b0: f318 833e 8304 98be f49c 07be de39 eabe
000001c0: 7e36 85be b80e b2be 8d6c 4c3d 7590 61bd
000001d0: 2a43 f53e 7680 3ebe 5cc9 7dbe 2272 acbe
000001e0: 2013 463d 008c a9be 39c7 a13e 6480 363e
000001f0: 49c0 523e 936d a23e 5603 d03e ec71 eb3e
00000200: bf76 3ebe 7354 cfbe 1228 8fbe fe17 cf3e
00000210: f432 bebd 2c94 503e f0b7 0ebe d5c2 6cbe
00000220: dec7 babe 2d8f c73e 3f45 173e 7dbb 08be
00000230: 88e2 24be 22a0 1a3e d327 aa3d e3f8 01bf
00000240: 4a48 c63e fea5 e7bd 213d 6d3e 25e0 3c3e
00000250: 71f3 e5be d476 5cbe ea6b db3e 289e a1be
00000260: e6bc c93e bc8f b8be 29cd 873e 720a bebe
00000270: 3b3f 463e b584 b13e 410d 2d3e fc6b 0ebe
00000280: a2a4 10be f25e f4be 701f 583d 25db 693e
00000290: b39e 36bd 99a4 a3be 59b8 0bbe 5266 61be
000002a0: 7644 d23d a57b a13e 93d7 e6be a7a6 79be
000002b0: 76ad 9b3e 2819 12be 0f10 1ebe 9ba3 a6be
000002c0: 0b87 7cbe 00de b13e 120f a73e 3648 7e3e
000002d0: 8d2e a53e e90d 3e3e 84ba 623e eec8 d93e
000002e0: cfc8 f33e b6ac 5a3e 8602 bcbe 9565 91be
000002f0: 4230 2d3d 025b 403e b296 05be 7646 31be
00000300: 6438 023e e423 bb3e 3836 d1be 8a80 9a3d
00000310: 2ea1 6b3e 1d9a 13bd e797 8b3e 6b8a 01be
00000320: a95b ebbe cf65 24be 9b42 d23e 7236 863e
00000330: 4107 c6be 63c8 4f3e 3e07 ddbe c568 dfbe
00000340: d0a7 ef3e fab8 7f3e ad40 14be 701f 633e
00000350: 9dd7 d13e e771 403e 0df3 f53e ef46 e3be
00000360: 5ad6 233d 7c97 d0be c08e ec3e 73ba 31bd
00000370: bc40 1e3e 6cbe 653d d907 f6bd 9e5a bd3e
00000380: 42a6 dbbe fea7 2f3e bccb 533e 0774 d3be
00000390: 49ab 1bbe b4d3 d6bc c80f f9bd 1ddd 32be
000003a0: b8bb b73e 0112 9ebe 848a 34bc 49fe 5d3d
000003b0: 06b9 eabc 9673 cabe ff60 c43e 7e36 b6be
000003c0: 926d 8bbd 4299 f1be f431 823e 6e1a e13e
000003d0: b0f9 f4be 25ab 2a3e 061a c73e 8cbc 44be
000003e0: b2c7 193e 36cf a9be bc82 88bc 3c8a 113e
000003f0: de86 6b3e 5f40 8cbe cf48 8dbe bf18 b63e

pos_encoder.2.bias f4 [48]
-0.42759308 -0.17568652 -0.04645148 -0.46553496 0.18757738 0.22323929 0.3016062 -0.36837235
0.24132279 -0.15716738 0.10039457 0.05646186 -0.032146677 0.40294978 -0.3752443 -0.23787567
0.15082423 0.4513684 0.48580912 -0.3754248 0.49748027 -0.30630332 -0.18366304 -0.17614035
0.04675419 -0.36423174 0.1270717 0.23248442 0.3060825 0.19176453 -0.45372158 0.26888424
-0.06936328 -0.27621078 0.24408074 -0.2362605 -0.3457771 -0.22762106 -0.39445502 -0.45817426
-0.30342156 -0.11102288 -0.39292875 0.3861757 0.2760579 0.3620809 0.4296032 -0.07222918
00000000: 7bed dabe 2be7 33be e843 3ebd 995a eebe
00000010: 4914 403e d798 643e 216c 9a3e 4d9b bcbe
00000020: 521d 773e 7cf0 20be ab9b cd3d 8d44 673d
00000030: 3cac 03bd 6f4f ce3e 0520 c0be ae95 73be
00000040: ab71 1a3e c219 e73e f9bb f83e ae37 c0be
00000050: bcb5 fe3e cad3 9cbe 2a12 3cbe 235e 34be
00000060: 5281 3f3d 957c babe 151f 023e 6510 6e3e
00000070: d8b6 9c3e ec5d 443e 324e e8be 32ab 893e
00000080: 560e 8ebd 806b 8dbe 4df0 793e 46ee 71be
00000090: b209 b1be 7f15 69be 02f6 c9be d195 eabe
000000a0: 125a 9bbe f75f e3bd f52d c9be d2b8 c53e
000000b0: 7657 8d3e ab62 b93e f3f4 db3e e4ec 93bd

pos_encoder.4.weight f4 [96, 48]
0.17794608 -0.1006609 0.1331673 0.12218003 0.16613926 0.23640706 0.17243713 0.032334816
0.036250986 -0.013206788 -0.16680567 -0.33359432 0.1030626 0.029269319 -0.24183466 0.07039954
0.09101732 0.15462695 0.15264146 -0.28868464 0.092155725 0.16165368 0.051220156 0.037104305
-0.18559857 0.32610485 0.100927666 0.123904064 -0.0009962386 -0.04520279 -0.16216725 -0.21355197
-0.17070876 -0.14864977 0.19036825 -0.27579856 0.31276238 0.10143615 -0.21222736 0.16161315
-0.23875763 0.32603893 0.0041701538 0.05549488 -0.19853272 -0.12777443 -0.034792535 0.06766395
0.10467125 -0.039111223 -0.0037408478 -0.26109108 -0.20667845 0.12175304 0.18858391 -0.28235525
0.21698263 0.037410077 -0.2083142 0.068448894 0.15805356 0.055361375 -0.05276337 0.0644565
-0.08185455 -0.25279167 -0.33317053 -0.114792764 -0.120585464 -0.16743402 -0.06511502 0.15477148
-0.07454857 0.23959923 0.27549002 -0.3175748 -0.1801208 0.030478515 -0.0151023 0.004653841
0.050491784 -0.21143305 0.32286277 0.19209416 0.10079867 0.29912513 -0.30976602 -0.13754356
-0.34003615 0.097811475 0.16697861 -0.32922357 0.14709765 -0.20730183 0.29209164 -0.30615908
-0.27125904 -0.022150954 -0.23194024 0.27414915 0.17749928 -0.31550494 0.019335175 0.0068547833
0.011588895 0.30035973 -0.077728644 -0.2798283 -0.2542326 -0.161637 0.27119696 0.30615854
0.3055914 -0.09543143 -0.32487628 -0.28812203 0.017895736 0.32582793 -0.29755563 -0.24857156
-0.19446681 -0.1798289 -0.22197515 0.0946099 -0.12324917 -0.22459373 -0.13269915 -0.33088976
-0.24401414 0.1204073 0.14108932 -0.31904897 0.10951116 0.2571304 0.07855811 0.29993305
-0.11596775 0.02736116 -0.1361299 0.2702664 0.019177636 -0.23114824 0.12319245 -0.2168376
0.3281624 -0.09352688 0.0034827492 -0.040793266 0.116813555 -0.23250929 0.19436753 -0.22176185
-0.101413384 -0.13433568 -0.05979265 0.13546035 0.17541772 0.24344023 0.29236406 -0.33652183
-0.3434264 -0.13454956 -0.24225894 -0.2982942 -0.10094364 0.007878051 -0.12190149 0.01584959
-0.19733335 -0.12163342 0.00077097624 0.013637926 0.104757935 -0.11384873 0.049389925 0.21616077
0.31603658 -0.04693864 -0.13507557 0.12727056 0.15627965 -0.3165944 -0.16842453 0.124402896
0.18456352 -0.14002159 -0.26063934 -0.24160424 -0.12653813 0.25796893 -0.33876905 0.31354684
0.20594975 0.22252607 -0.24667618 -0.013267046 -0.3370356 0.27013895 0.022323363 0.2680946
-0.25357726 0.051307566 -0.26194787 0.0040966864 0.19150892 0.3169374 0.014828775 -0.17774287
-0.32618964 0.12397508 0.10742095 0.04807323 0.045059 0.06300077 0.33047247 -0.0038879458
-0.20920275 -0.06219822 -0.11748388 0.30336243 0.15922332 -0.3262003 0.13716872 0.26297563
0.23282398 0.18195029 -0.18894826 -0.028313281 0.19685906 0.07000144 0.3057043 -0.15449397
-0.3415068 0.30354 -0.12523417 -0.016994007 -0.21810597 0.2738524 -0.1211185 0.31700614
-0.06407944 -0.20131241 0.14929575 -0.19164622 -0.09419275 0.12294183 -0.111613825 0.24661908
-0.18694407 0.2055834 -0.0669047 0.18190809 0.025994392 -0.3447774 0.32941404 0.12489555
00000000: 7f37 363e 4d27 cebd 025d 083e 8639 fa3d
00000010: 6920 2a3e b114 723e 5c93 303e 8371 043d
00000020: ea7b 143d 4961 58bc 1bcf 2abe e0cc aabe
00000030: 7c12 d33d 36c6 ef3c 81a3 77be a22d 903d
00000040: 4a67 ba3d 8756 1e3e 0b4e 1c3e 79ce 93be
00000050: 24bc bc3d 8b88 253e 3acc 513d affa 173d
00000060: 8d0d 3ebe 37f7 a63e 2ab3 ce3d 6ac1 fd3d
00000070: 3894 82ba 9026 39bd 2c0f 26be 5ead 5abe
00000080: 47ce 2ebe a537 18be e5ef 423e 7835 8dbe
00000090: 6422 a03e c2bd cf3d 2152 59be eb7d 253e
000000a0: e17c 74be 93ee a63e c9a5 883b 994e 633d
000000b0: 294c 4bbe 4dd7 02be 9e82 0ebd 6693 8a3d
000000c0: e15d d63d 1733 20bd 0329 75bb bbad 85be
000000d0: 84a3 53be a859 f93d 241c 413e de90 90be
000000e0: b230 5e3e 4f3b 193d 5150 55be ef2e 8c3d
000000f0: cbd8 213e 9cc2 623d 671e 58bd c501 843d
00000100: 5ca3 a7bd e96d 81be 5495 aabe 7818 ebbd
00000110: 83f5 f6bd d373 2bbe 065b 85bd 6a7c 1e3e
00000120: ecac 98bd 8059 753e 070d 8d3e 2a99 a2be
00000130: 9671 38be 14ae f93c a36f 77bc 3f7f 983b
00000140: 79d0 4e3d e881 58be 454e a53e 55b4 443e
00000150: 886f ce3d ee26 993e a799 9ebe 38d8 0cbe
00000160: 3819 aebe 6251 c83d 71fc 2a3e fe8f a8be
00000170: c4a0 163e ee46 54be 098d 953e e2c0 9cbe
00000180: 77e2 8abe eb75 b5bc be81 6dbe 475d 8c3e
00000190: 5fc2 353e dd89 a1be cd64 9e3c 179e e03b
000001a0: 59df 3d3c c0c8 993e 3230 9fbd a845 8fbe
000001b0: c62a 82be 2b84 25be 54da 8a3e d0c0 9c3e
000001c0: 7a76 9c3e 8e71 c3bd 2f56 a6be bb84 93be
000001d0: 149a 923c ebd2 a63e 3659 98be 8b89 7ebe
000001e0: 4f22 47be 1125 38be 744d 63be d6c2 c13d
000001f0: 106a fcbd e6fb 65be 49e2 07be 626a a9be
00000200: d8de 79be 1a98 f63d b879 103e 635a a3be
00000210: 6347 e03d 99a6 833e 13e3 a03d d390 993e
00000220: 8080 edbd 8324 e03c a365 0bbe 5c60 8a3e
00000230: 6b1a 9d3c 20b2 6cbe 534c fc3d ad0a 5ebe
00000240: e704 a83e 058b bfbd d63e 643b d716 27bd
00000250: f23b ef3d ea16 6ebe 4808 473e 8a15 63be
00000260: d2b1 cfbd 4b8f 09be 23e9 74bd 1eb6 0a3e
00000270: b4a0 333e 6548 793e beb0 953e 974c acbe
00000280: 96d5 afbe 5cc7 09be ba12 78be 04ba 98be
00000290: 8abb cebd f112 013c 7da7 f9bd 00d7 813c
000002a0: c111 4abe f11a f9bd 571b 4a3a 9c71 5f3c
000002b0: 548b d63d 8629 e9bd 174d 4a3d 4059 5d3e
000002c0: 8ccf a13e bb42 40bd 4051 0abe 3753 023e
000002d0: c607 203e a918 a2be 7b77 2cbe f2c6 fe3d
000002e0: 38fe 3c3e d261 0fbe 8572 85be 1a67 77be
000002f0: 3693 01be 8114 843e 2373 adbe 3689 a03e
00000300: 7ee4 523e e0dd 633e ae98 7cbe 065e 59bc
00000310: ee8f acbe a74f 8a3e 7cdf b63c b243 893e
00000320: e1d4 81be e227 523d 081e 86be 7f3d 863b
00000330: ea1a 443e 9e45 a23e 64f4 723c 3a02 36be
00000340: 5402 a7be a6e6 fd3d 84ff db3d 6fe8 443d
00000350: c98f 383d 8c06 813d b033 a93e e8cc 7ebb
00000360: 3f39 56be 90c3 7ebd 639b f0bd 5252 9b3e
00000370: 700b 233e ba03 a7be f575 0c3e bea4 863e
00000380: 6969 6e3e 2d51 3a3e a77b 41be 41f1 e7bc
00000390: 6c95 493e ea5c 8f3d 4685 9c3e ab33 1ebe
000003a0: fbd9 aebe 9869 9b3e 633d 00be 0437 8bbc
000003b0: 2c57 5fbe 6236 8c3e fa0c f8bd a14e a23e
000003c0: 153c 83bd d724 4ebe fce0 183e e83e 44be
000003d0: 21e8 c0bd edc8 fb3d ca95 e4bd b689 7c3e
000003e0: 446e 3fbe 7484 523e 5505 89bd 1d46 3a3e
000003f0: 31f2 d43c aa86 b0be f5a8 a83e 3dc9 ff3d

pos_encoder.4.bias f4 [96]
-0.13110864 0.1332478 -0.27528477 -0.18461454 0.16391572 -0.34033662 -0.34501356 0.2331324
-0.06936551 0.11468898 -0.34775153 -0.13125712 0.1475529 0.1970989 -0.10395116 -0.10126142
0.0025800723 -0.18092336 0.02972278 -0.19587688 -0.18075056 0.323481 0.30416462 -0.31687078
0.30683625 0.1776221 -0.15057117 0.3085691 -0.29816502 -0.105225876 0.33286873 -0.32788426
-0.10058566 0.13401377 0.18040231 0.22429632 -0.20265181 -0.0030981924 0.21786019 0.12336224
-0.2955591 0.2405829 -0.09137278 0.26776108 -0.119094886 -0.20661315 0.13091314 -0.009695917
0.11287479 -0.01090721 -0.12171505 -0.07087414 -0.19798917 -0.08015015 -0.28016925 -0.101269774
0.29905322 -0.10375872 -0.3099649 -0.11571829 -0.12308342 0.04139319 0.021411696 0.26345426
0.20255224 0.100102074 -0.12874337 -0.30773827 -0.057842776 -0.26147056 0.23305695 0.105976924
0.26323214 -0.21509889 0.25353858 0.09947426 0.27435496 -0.032925192 0.11815592 0.17084247
0.043528892 0.14153992 0.18708354 0.13102712 0.16498424 0.3127776 -0.119355224 -0.2703801
-0.12604155 -0.008086531 -0.29045868 0.13672993 0.2557394 -0.07553281 -0.2179972 0.326327
00000000: 5841 06be 1c72 083e 20f2 8cbe 980b 3dbe
00000010: 86d9 273e 9a40 aebe 9ea5 b0be 43ba 6e3e
00000020: 810f 8ebd 0ee2 ea3d 7d0c b2be 4468 06be
00000030: 1b18 173e 4bd4 493e 59e4 d4bd 2662 cfbd
00000040: 6e16 293b f943 39be 307d f33c f393 48be
00000050: ad16 39be 4d9f a53e 77bb 9b3e e33c a2be
00000060: a419 9d3e 91e2 353e 542f 1abe c5fc 9d3e
00000070: 16a9 98be aa80 d7bd c56d aa3e 72e0 a7be
00000080: dbff cdbd e83a 093e 62bb 383e efad 653e
00000090: f583 4fbe 0b0b 4bbb be16 5f3e 58a5 fc3d
000000a0: 8653 97be 5d5b 763e a721 bbbd fb17 893e
000000b0: 05e8 f3bd 6692 53be 180e 063e a0db 1ebc
000000c0: e62a e73d 28b4 32bc bd45 f9bd 7626 91bd
000000d0: acbd 4abe c325 a4bd 5872 8fbe 8766 cfbd
000000e0: 811d 993e 747f d4bd b8b3 9ebe b6fd ecbd
000000f0: 2913 fcbd e88b 293d 9567 af3c 7ae3 863e
00000100: db69 4f3e 5102 cd3d 4dd5 03be df8f 9dbe
00000110: 8cec 6cbd 78df 85be 7ba6 6e3e 6e0a d93d
00000120: 5dc6 863e e242 5cbe cfcf 813e 29b9 cb3d
00000130: 4178 8c3e 91dc 06bd bbfb f13d 54f1 2e3e
00000140: 5a4b 323d d7ef 103e d492 3f3e f92b 063e
00000150: a1f1 283e 6324 a03e 8370 f4bd 436f 8abe
00000160: 0911 01be 5f7d 04bc 00b7 94be ee02 0c3e
00000170: 46f0 823e f2b0 9abd a83a 5fbe 5514 a73e

fc_encoder.0.weight f4 [8, 14]
-0.018874398 -0.0042268485 -0.020092245 -0.0459777 0.06876665 0.037397698 -0.0017327749 0.05306533
0.0036034053 0.05225876 0.04144677 -0.0058187647 -0.014678687 -0.019593727 0.034760952 -0.0080609005
-0.050935604 0.01749499 0.010359699 0.035187885 0.037942242 0.031722147 0.020388322 -0.026622437
0.06895596 0.0034525434 0.017165259 -0.015363148 0.03343575 0.024691347 -0.040811732 -0.043812007
0.008156876 0.019900665 0.029278176 0.01978598 0.03246482 -0.02187027 -0.0011514965 -0.024669198
-0.026714692 0.02756935 -0.003609512 0.0044996208 -0.0015697512 0.0017763859 -0.002092983 0.007586094
-0.0767761 -0.0096489675 -0.0032703294 0.0022301832 0.0011356147 -0.008308486 -0.005927777 -0.06621971
-0.0022916298 -0.0022746935 -0.0022601013 -0.002431175 -0.0023400697 -0.0023658627 -0.002163523 -0.002289454
-0.0024215614 -0.0023937118 -0.0022716837 -0.0023763746 -0.0024019189 -0.0023734185 -0.047153752 -0.03810527
0.04592933 -0.007499676 -0.017198125 0.03996308 0.0013866886 0.07880096 -0.026572436 0.0107110515
0.032278664 -0.058915265 0.020722495 0.010375346 -0.04842015 0.0045958734 -0.02936801 -0.031849872
-0.039274666 0.018656606 0.044705145 -0.045154974 0.037838347 0.041948885 -0.021384792 -0.030554788
-0.022945369 -0.036561344 -0.031836502 0.011366803 0.05518034 -0.011931034 -0.0066407416 -0.031847373
0.052150894 -0.02956629 -0.0127036525 0.029980209 -0.06634897 -0.00038290714 -0.012531826 0.018023878
00000000: 7b9e 9abc 6081 8abb 7e98 a4bc 1d53 3cbd
00000010: 88d5 8c3d 542e 193d 471e e3ba 085b 593d
00000020: 1c27 6c3b 480d 563d 17c4 293d 56ab bebb
00000030: e07e 70bc 0683 a0bc 8061 0e3d de11 04bc
00000040: daa1 50bd a751 8f3c babb 293c 2c21 103d
00000050: 5369 1b3d 15ef 013d 6905 a73c 4c17 dabc
00000060: c838 8d3d 1144 623b 289e 8c3c b7b5 7bbc
00000070: edf3 083d 8245 ca3c 342a 27bd 3874 33bd
00000080: 6ba4 053c b806 a33c c9d8 ef3c 3516 a23c
00000090: d5f9 043d 4829 b3bc d0ed 96ba 0f17 cabc
000000a0: c5d8 dabc 1ed9 e13c 908d 6cbb 8e71 933b
000000b0: 1cc0 cdba 9fd5 e83a 6e2a 09bb c594 f83b
000000c0: ca3c 9dbd b416 1ebc 0653 56bb 4428 123b
000000d0: e8d8 943a 5120 08bc cc3d c2bb 339e 87bd
000000e0: 2b2f 16bb 0613 15bb 351e 14bb 5954 1fbb
000000f0: db5b 19bb 970c 1bbb e5c9 0dbb aa0a 16bb
00000100: 0fb3 1ebb d2df 1cbb 87e0 14bb f3bc 1bbb
00000110: 8369 1dbb 5b8b 1bbb 4b24 41bd 4614 1cbd
00000120: 6520 3c3d d8bf f5bb 15e3 8cbc 54b0 233d
00000130: 8cc1 b53a 6662 a13d 70ae d9bc 687d 2f3c
00000140: a236 043d 2251 71bd 39c2 a93c 5bfd 293c
00000150: 3554 46bd fb98 963b 2e95 f0bc 0375 02bd
00000160: 79de 20bd bdd5 983c be1c 373d 6cf4 38bd
00000170: 62fc 1a3d 98d2 2b3d 292f afbc 094e fabc
00000180: edf7 bbbc 59c1 15bd fe66 02bd d43b 3a3c
00000190: c804 623d 627a 43bc 949a d9bb 6472 02bd
000001a0: 2d9c 553d 0135 f2bc fb22 50bc 0e99 f53c
000001b0: f8e1 87bd edc0 c8b9 4a52 4dbc d0a6 933c

fc_encoder.0.bias f4 [8]
0.071277484 0.03039974 -0.06235772 -0.043020718 -0.064716816 0.039460093 0.0024913044 0.056729663
00000000: eef9 913d e008 f93c cf6a 7fbd 7e36 30bd
00000010: 408a 84bd e8a0 213d 2745 233b 5d5d 683d

fc_encoder.2.weight f4 [16, 8]
-0.03799803 0.20478643 0.19618003 0.09730796 0.9595622 -0.15550196 0.07410962 0.024273222
-0.018120239 0.0071835564 0.22620678 -0.04098657 0.51095253 0.42042887 0.24424502 0.2940374
-0.2742912 -0.36101034 -0.5153573 0.12671229 0.01853487 0.45951438 0.09143781 0.37170592
0.24950266 0.030940203 0.17038265 -0.09804237 0.02057637 0.32043996 0.5911377 -0.30325243
0.06684505 -0.1711652 -0.20199692 -0.18327622 -0.30007675 0.25221202 -0.6385339 -0.09303889
-0.24412242 0.27004224 -0.12726626 0.14296027 0.65768605 -0.25849757 -0.39395297 0.57043946
-0.050080277 -0.5401863 0.17740987 0.053772513 -0.6252143 0.4653266 0.70357865 -0.13261564
-0.32564068 0.078572445 0.31154034 -0.043211006 -0.6337543 0.2153067 0.045755457 0.37727234
0.11784811 0.35555238 -0.0046464424 -0.06397239 -0.5360495 -0.019915111 -0.4568038 0.07006278
-0.07555072 -0.33744553 0.50075835 -0.19215994 0.168763 0.5922345 0.2536598 0.3836248
-0.075550444 -0.28552258 -0.26219264 0.31844094 0.15514342 0.17148231 0.22915919 -0.41667026
-0.0075687226 0.46858323 -0.20912474 0.34715396 -0.50611603 -0.12732266 0.24193507 0.07303205
0.3044114 -0.016684994 0.46207988 -0.072246924 -0.6377608 0.32068914 0.21068524 0.2340708
0.4785378 -0.51796997 0.39738154 -0.11369457 0.21671955 0.10879345 0.093232356 -0.67839235
0.17602564 -0.41315067 0.32464322 0.2761789 -0.62382823 0.0024869826 0.4773002 -0.3912384
-0.2351817 0.31103814 -0.15885219 0.08302603 -0.66027766 -0.3374558 -0.4300979 0.3849976
00000000: d3a3 1bbd 89b3 513e 6be3 483e 6549 c73d
00000010: dea5 753f e83b 1fbe c9c6 973d a3d8 c63c
00000020: e570 94bc 0a64 eb3b c0a2 673e 89e1 27bd
00000030: c9cd 023f 7442 d73e 5e1b 7a3e 128c 963e
00000040: e56f 8cbe 59d6 b8be 75ee 03bf dec0 013e
00000050: 71d6 973c 7845 eb3e bf43 bb3d 3d50 be3e
00000060: a07d 7f3e 4f76 fd3c ca78 2e3e 70ca c8bd
00000070: c78f a83c b510 a43e cd54 173f e743 9bbe
00000080: 0fe6 883d ee45 2fbe 48d8 4ebe c3ac 3bbe
00000090: a9a3 99be ef21 813e f576 23bf 2c8b bebd
000000a0: 3afb 79be fa42 8a3e 1652 02be 2d64 123e
000000b0: 1d5e 283f cb59 84be 34b4 c9be 5208 123f
000000c0: fa20 4dbd a649 0abf efaa 353e 9140 5c3d
000000d0: 0b0e 20bf 4a3f ee3e bb1d 343f 65cc 07be
000000e0: 60ba a6be 97ea a03d 3782 9f3e 06fe 30bd
000000f0: b93d 22bf 5c79 5c3e 136a 3b3d d729 c13e
00000100: 5a5a f13d f60a b63e 2f41 98bb f503 83bd
00000110: 8a3a 09bf 0425 a3bc 30e2 e9be 137d 8f3d
00000120: 56ba 9abd a9c5 acbe b331 003f 93c5 44be
00000130: 35d0 2c3e ae9c 173f b3df 813e 786a c43e
00000140: 31ba 9abd 0430 92be 1d3e 86be b10a a33e
00000150: ebdd 1e3e 0f99 2f3e b5a8 6a3e ce55 d5be
00000160: 0c03 f8bb 24ea ef3e cc24 56be 2abe b13e
00000170: d290 01bf df60 02be d4bd 773e d491 953d
00000180: d0db 9b3e f8ae 88bc bc95 ec3e 32f6 93bd
00000190: 4b44 23bf 5e31 a43e dfbd 573e 41b0 6f3e
000001a0: e802 f53e ae99 04bf 9875 cb3e b3d8 e8bd
000001b0: bbeb 5d3e 1acf de3d 9bf0 be3d 1fab 2dbf
000001c0: 1140 343e 7c88 d3be a337 a63e 5267 8d3e
000001d0: 35b3 1fbf a5fc 223b b160 f43e 6650 c8be
000001e0: 79d3 70be 6440 9f3e 26aa 22be 8d09 aa3d
000001f0: f507 29bf 02c7 acbe cb35 dcbe 681e c53e

fc_encoder.2.bias f4 [16]
-0.1822717 -0.2794968 -0.54270923 0.7866469 0.56837654 0.35761657 -0.79074436 0.20194699
0.74342793 -0.6831156 -0.12529252 0.3782192 -0.04709575 -0.5721432 0.43491194 -0.49473256
00000000: 6fa5 3abe 341a 8fbe feee 0abf b161 493f
00000010: 2081 113f 8519 b73e 396e 4abf 31cb 4e3e
00000020: 4b51 3e3f aae0 2ebf af4c 00be f2a5 c13e
00000030: 79e7 40bd fa77 12bf c7ac de3e 964d fdbe

fc_encoder.4.weight f4 [32, 16]
0.2578456 0.40553176 0.20511669 0.14899603 -0.11030939 -0.12291343 0.33047456 -0.22037174
0.46970952 -0.3410874 0.28327164 0.34513867 -0.28026107 0.5765909 0.060554937 0.20446375
0.05048002 -0.014588614 -0.32879192 0.16506319 0.1575701 -0.25174263 -0.25154084 0.33326095
0.5415176 0.11227502 0.42870176 -0.16559497 -0.55400455 0.27011546 -0.5271361 -0.30199492
0.30845144 0.17715259 0.35130784 0.37027323 0.22149739 0.31062955 -0.28349116 -0.39085603
-0.09384389 0.13612568 -0.40571648 -0.4609142 -0.41133174 -0.4827912 0.4334826 0.01438168
0.25719455 0.2623655 0.1973973 0.010743215 -0.24232069 -0.28386542 -0.33005723 -0.50833905
-0.35232317 -0.54876626 0.06900035 -0.09115078 0.26949212 -0.5639588 -0.14862917 -0.37050638
0.4316778 -0.24550934 0.40580255 -0.087908484 -0.3927889 -0.0968957 0.42834318 -0.03945775
0.46275422 0.0915164 -0.1485361 -0.21846358 -0.087939 -0.35153893 -0.17876679 -0.032641087
-0.3098651 -0.2992678 -0.05497949 0.16401012 0.48337543 0.43918553 -0.08394599 0.019632196
-0.46344745 -0.056054763 0.40248105 0.16202526 0.57583445 0.4945798 0.103305236 0.20491025
-0.14916945 -0.5974195 0.47535437 -0.064308204 0.355851 0.23910145 -0.34273782 0.3644888
-0.55636597 0.512891 -0.39686838 0.100696184 -0.103241324 0.16104223 0.3612453 0.28314242
0.31770894 0.2538574 0.22003071 0.34363472 -0.28163087 -0.47466573 0.320919 0.27127627
-0.565055 0.22281285 0.102401875 0.3848814 0.47063154 -0.027590772 -0.45227885 0.27678487
-0.4441158 0.25196204 0.07137053 -0.17052035 -0.29720944 0.30551767 0.5422491 -0.34013417
0.5132075 -0.5649028 -0.39412397 -0.3676039 0.5184619 -0.25768897 -0.1614483 0.24969946
0.4469685 -0.261552 -0.13971074 -0.32671344 0.1273745 0.3935673 0.5997539 -0.13434635
0.22462644 -0.0944598 -0.1499021 0.08357016 -0.1519438 -0.21647248 -0.25992075 0.0026694832
0.077105 -0.37857005 0.12879418 -0.4413381 0.5476172 -0.37652883 0.21270393 0.015964914
-0.2585534 -0.53142077 -0.15820657 -0.46653894 -0.1469056 -0.16433387 0.5908934 -0.4456344
-0.2310715 0.12899685 0.39476302 0.10383897 -0.43664417 0.5491144 -0.3448048 0.39955336
-0.44171304 -0.15654159 0.23420186 -0.4720198 -0.10837036 0.42448112 0.11829711 -0.11879282
0.5887609 -0.4663919 0.24528705 0.10068874 -0.37995288 0.247581 -0.09714897 0.45185378
-0.5590321 -0.47980356 -0.0062857214 -0.06372027 0.34874323 0.19195971 0.40298453 0.41019455
0.12508602 -0.5279348 -0.35012227 -0.086240254 0.19309612 0.08045841 0.111383505 -0.52352166
0.37065935 0.27959892 -0.39433286 0.23448123 -0.38989922 -0.4623264 0.36324635 0.35681167
0.0398776 0.2486959 -0.34042373 0.063941084 -0.058919534 0.48049977 -0.068637855 -0.37149143
-0.21521516 0.20191264 -0.3595221 -0.290394 -0.19048333 0.044226505 0.28878656 -0.26523775
-0.32447287 -0.06513722 -0.34479478 -0.06870485 -0.28004068 -0.2707486 -0.2757193 0.17331699
-0.43498066 0.021035422 0.46827924 0.46868557 0.37122756 -0.26831675 -0.06554978 0.08115416
00000000: 5704 843e dca1 cf3e 1c0a 523e 6a92 183e
00000010: e4e9 e1bd 09ba fbbd f633 a93e 21a9 61be
00000020: c47d f03e 02a3 aebe fb08 913e 04b6 b03e
00000030: 617e 8fbe 769b 133f 7408 783d f25e 513e
00000040: 23c4 4e3d 1505 6fbc 6a57 a8be 5306 293e
00000050: 0e5a 213e 69e4 80be f6c9 80be 2ea1 aa3e
00000060: e6a0 0a3f 72f0 e53d cc7e db3e ba91 29be
00000070: 3ed3 0dbf 934c 8a3e 64f2 06bf 149f 9abe
00000080: 59ed 9d3e 7d67 353e 9fde b33e 7494 bd3e
00000090: 36d0 623e d60a 9f3e c125 91be 481e c8be
000000a0: 3a31 c0bd 8864 0b3e 12ba cfbe f2fc ebbe
000000b0: 139a d2be 6830 f7be 6ef1 dd3e 23a1 6b3c
000000c0: 01af 833e c554 863e 8522 4a3e 4f04 303c
000000d0: ea22 78be cf56 91be 43fd a8be 8222 02bf
000000e0: b463 b4be f27b 0cbf 0e50 8d3d 43ad babd
000000f0: dffa 893e 9b5f 10bf 3f32 18be 03b3 bdbe
00000100: df04 dd3e cd66 7bbe 5ac5 cf3e 5d09 b4bd
00000110: a01b c9be 4171 c6bd cc4f db3e 739e 21bd
00000120: 1fee ec3e f36c bb3d d919 18be ebb4 5fbe
00000130: 5d19 b4bd e9fc b3be a40e 37be a9b2 05bd
00000140: a3a6 9ebe a139 99be 2c32 61bd 45f2 273e
00000150: fc7c f73e eddc e03e e0eb abbd b3d3 a03c
00000160: fc48 edbe ae99 65bd ff11 ce3e f3e9 253e
00000170: e369 133f 9039 fd3e b291 d33d fed3 513e
00000180: e0bf 18be 7cf0 18bf a661 f33e 05b4 83bd
00000190: 1a32 b63e 03d7 743e 557b afbe 479e ba3e
000001a0: 006e 0ebf d34c 033f 5532 cbbe cd39 ce3d
000001b0: 3070 d3bd 41e8 243e 25f5 b83e 0bf8 903e
000001c0: bfaa a23e 99f9 813e bb4f 613e e4f0 af3e
000001d0: ec31 90be 6307 f3be 7f4f a43e b9e4 8a3e
000001e0: 72a7 10bf 0d29 643e 13b8 d13d 2d0f c53e
000001f0: 9ef6 f03e 0b06 e2bc 1891 e7be bfb6 8d3e
00000200: 2563 e3be 2b01 813e b62a 923d e39c 2ebe
00000210: d62b 98be d06c 9c3e d6d0 0a3f 1126 aebe
00000220: 9161 033f 789d 10bf 9eca c9be 9436 bcbe
00000230: ebb9 043f cfef 83be b452 25be 37b1 7f3e
00000240: 0ed9 e43e 25ea 85be 5510 0fbe fc46 a7be
00000250: 766e 023e a781 c93e 7989 193f 1792 09be
00000260: 7904 663e 2474 c1bd f07f 19be d526 ab3d
00000270: 2897 1bbe f6aa 5dbe 5514 85be 7ff2 2e3b
00000280: 3ae9 9d3d efd3 c1be 9fe2 033e 11f7 e1be
00000290: a430 0c3f 63c8 c0be 0fcf 593e dac8 823c
000002a0: 1c61 84be 310b 08bf e700 22be 31de eebe
000002b0: 6c6e 16be 2347 28be ca44 173f 312a e4be
000002c0: 029e 6cbe c017 043e 611e ca3e 87a9 d43d
000002d0: d38f dfbe c392 0c3f 418a b0be 4292 cc3e
000002e0: 3628 e2be 704c 20be 9dd2 6f3e 94ac f1be
000002f0: 48f1 ddbd 9755 d93e c145 f23d a649 f3bd
00000300: 09b9 163f ebca eebe 872c 7b3e e635 ce3d
00000310: 2f89 c2be e085 7d3e 0af6 c6bd 6159 e73e
00000320: ba1c 0fbf d0a8 f5be 74f8 cdbb c67f 82bd
00000330: 798e b23e 1691 443e fd53 ce3e 0505 d23e
00000340: 8d16 003e bc26 07bf 3a43 b3be bb9e b0bd
00000350: fdba 453e 61c7 a43d 091d e43d 8405 06bf
00000360: 10c7 bd3e 9727 8f3e ffe5 c9be d91b 703e
00000370: dfa0 c7be 0cb6 ecbe 6dfb b93e 05b0 b63e
00000380: b256 233d 23aa 7e3e 054c aebe 8bf3 823d
00000390: 9c55 71bd 1104 f63e 0192 8cbd 2034 bebe
000003a0: 5d61 5cbe 30c2 4e3e 4813 b8be 86ae 94be
000003b0: 100e 43be da26 353d d5db 933e 3ecd 87be
000003c0: 4f21 a6be aa66 85bd f188 b0be 21b5 8cbd
000003d0: 7e61 8fbe 8f9f 8abe 152b 8dbe 027a 313e
000003e0: c9b5 debe 7a52 ac3c 4cc2 ef3e 8ef7 ef3e
000003f0: 8a11 be3e d060 89be f73e 86bd 2734 a63d

fc_encoder.4.bias f4 [32]
0.42757612 -0.38554 0.34684125 0.27991623 0.25911525 0.36031494 -0.37276196 0.34810278
-0.48751596 -0.28245923 0.41089758 0.40229326 0.3708997 -0.1997436 0.1059997 0.30549285
-0.4561454 -0.4086116 0.32239103 0.43323815 -0.41829062 -0.078863025 0.1858297 -0.31373885
-0.32494763 0.464419 0.29299632 -0.18317346 0.02973679 -0.2935565 0.47533163 -0.5278209
00000000: 42eb da3e 8065 c5be 2d95 b13e 2e51 8f3e
00000010: c1aa 843e 337b b83e a8da bebe 873a b23e
00000020: b19b f9be 7f9e 90be 2b61 d23e 62f9 cd3e
00000030: 91e6 bd3e 9689 4cbe 5f16 d93d 8f69 9c3e
00000040: e48b e9be 8a35 d1be 7010 a53e 64d1 dd3e
00000050: 302a d6be f082 a1bd 244a 3e3e 61a2 a0be
00000060: 895f a6be 54c8 ed3e 9d03 963e d391 3bbe
00000070: 929a f33c 0a4d 96be ab5e f33e 451f 07bf

decoder.0.weight f4 [128, 128]
0.006332998 0.009971401 0.0037756665 0.0053953063 0.0062654023 0.0053929496 -0.0058189984 0.0009900082
-0.0030026548 0.004747264 -0.0059472667 -0.006680089 0.00090562244 -0.0064439117 -0.0014495114 0.008635206
-0.0052099633 0.001564703 -0.00038303778 -0.0057778144 0.0022022158 -0.0034640466 0.00072783465 -0.0012184924
0.0067781196 0.00568395 -0.002423054 0.0038019025 0.008186856 0.0017975674 0.006177716 0.010625686
0.0004489938 0.011883376 -0.0034894343 0.00037773384 0.0014909267 -0.0013587573 -0.0023275197 -0.0035686584
-0.0032139625 0.0003802435 0.010149252 -0.0018733417 -0.005431772 -5.9878883e-05 0.0014814032 0.007672462
0.008196854 0.0007996637 0.0013040574 0.0037396073 -0.0003644452 -0.004253914 0.007171924 -0.0035624322
-0.0013774636 -0.0047732247 0.0025768094 0.007854928 0.002156693 -0.0032091273 0.0040666186 0.001331409
-0.0012382928 0.0013838232 -0.0067007216 -0.003162648 -0.0048775612 -0.0018667297 0.0016560799 0.013111655
0.001904832 0.0035026849 0.011008349 0.00016576872 0.012949243 0.0028821705 0.0040111053 -0.0023957472
0.008604987 -0.0013268181 0.006266185 0.0041899155 -0.0084456215 -0.010431356 -0.0016081403 -0.00718235
-0.001342336 0.0048580775 0.005960447 -0.0016568081 0.0050558387 0.0056015532 -0.009143604 0.0020370875
-0.0029055253 0.0022289986 0.003159175 -0.005263993 -0.0091337245 -0.0073064426 -0.0038268564 0.0027847965
0.0056670047 -0.0020092118 -0.0051136487 0.0017840525 0.0028555533 0.000991554 0.0020827 0.00050073443
0.00012920293 0.0024818764 -0.005424585 -0.00061016437 -0.0061465157 0.004700523 0.0062926337 0.00072977564
-0.0010969827 -0.0013555107 0.003204716 -0.006079756 0.0005750063 -0.0050313035 -0.003126781 0.010481744
0.0020512044 -0.00087428006 -0.009493464 -0.0031546908 -0.002573167 -0.008846516 0.00057347113 -0.0017707875
-8.132862e-05 -0.011481105 0.0057769814 -0.006663625 0.0024583223 -0.011418515 0.003537768 -0.004380772
-0.004627359 -0.003486077 -0.013944379 -0.004995983 0.0041313083 0.005589886 0.010569233 -0.0008855877
-0.010815961 0.004674776 0.014045289 0.0016052497 -0.0033561988 -0.013158195 0.009419421 -0.0075501385
0.006157308 -0.0016370391 -0.006338041 0.004040333 0.01242184 -0.011870805 0.0055419127 0.010468052
-0.0021991727 0.0035359864 0.0063310643 0.0091459835 0.0017032219 0.0023476244 0.0060224477 -0.0032757476
-0.0003549115 0.003782437 -0.0013898459 -0.0020135085 0.009098736 0.0003629625 -0.0031023873 0.0044559524
-0.006164581 0.005999623 -0.0024609698 -0.003667064 -0.002537662 0.0005636176 0.0076699224 0.0020312155
-0.0017913395 0.010197855 0.005430984 -0.0037917837 -0.0030948864 -0.0069987956 -0.006187197 -0.0020860047
-0.005658749 -0.0058549456 0.008464626 0.0010491112 -0.01756253 -0.009709636 -0.0021468233 0.0039529125
-0.007622177 -0.0004130761 -0.008212798 -0.00284193 0.012913842 -0.00020191396 0.00666418 0.00018738734
-0.009876661 -0.0023577488 -0.008777359 0.010071486 -0.011860421 -0.0003471309 0.0045292745 -0.0012157087
-0.0044320873 0.0022975467 0.0022544449 0.0031459085 -0.0028747479 -0.0023521702 -0.00500572 -0.00155425
-0.0005975148 0.0012643758 0.0024191092 0.0015608094 0.0023926934 0.0012324753 -0.0031650504 -0.0026832842
0.0002638042 0.0015589007 -0.006325841 -0.00016842016 -0.0015276071 0.0025700678 0.0045084716 0.0038375824
0.0031539428 0.0009885516 -0.0012707255 0.0021582295 -0.0019908755 -6.0934203e-06 -0.00013522341 -0.0007809827
00000000: 0a85 cf3b 165f 233c 2c71 773b 1ccb b03b
00000010: 014e cd3b 57b7 b03b 4cad bebb 2ac3 813a
00000020: 30c8 44bb f08e 9b3b 4ae1 c2bb a6e4 dabb
00000030: 4b67 6d3a 7327 d3bb 88fd bdba ae7a 0d3c
00000040: 57b8 aabb b816 cd3a 76d2 c8b9 d253 bdbb
00000050: 0d53 103b 0f05 63bb 28cc 3e3a d2b5 9fba
00000060: fd1a de3b 6e40 ba3b 1acc 1ebb 5729 793b
00000070: 2a22 063c 5a9c eb3a 706e ca3b 5b17 2e3c
00000080: ed66 eb39 7eb2 423c feae 64bb 940a c639
00000090: 336b c33a 5418 b2ba 4d89 18bb 27e0 69bb
000000a0: 58a1 52bb 6b5b c739 0c49 263c eb8a f5ba
000000b0: 02fd b1bb 7626 7bb8 a52b c23a 4769 fb3b
000000c0: 194c 063c 86a0 513a e8ec aa3a 3314 753b
000000d0: 0213 bfb9 6b64 8bbb 7602 eb3b b277 69bb
000000e0: 028c b4ba b668 9cbb b0df 283b f5b1 003c
000000f0: 4e57 0d3b 3950 52bb 4541 853b ac82 ae3a
00000100: 364e a2ba 6761 b53a ba91 dbbb 6e44 4fbb
00000110: f3d3 9fbb 0ead f4ba d210 d93a 44d2 563c
00000120: 8eab f93a 4d8d 653b 5d5c 343c 34d2 2d39
00000130: 1029 543c cce2 3c3b 976f 833b f801 1dbb
00000140: eefb 0c3c a1e8 adba 9254 cd3b 8f4b 893b
00000150: 815f 0abc 47e8 2abc 3cc8 d2ba eb59 ebbb
00000160: 52f1 afba 8230 9f3b da4f c33b 4129 d9ba
00000170: 73ab a53b 3c8d b73b 0ecf 15bc a880 053b
00000180: a06a 3ebb 6414 123b 290a 4f3b 937d acbb
00000190: 9ea5 15bc e26a efbb ffcb 7abb 2281 363b
000001a0: 48b2 b93b fbac 03bb 6590 a7bb ded6 e93a
000001b0: 3c24 3b3b 08f7 813a e87d 083b b843 033a
000001c0: a67a 0739 faa6 223b b8c0 b1bb 70f3 1fba
000001d0: b668 c9bb d806 9a3b 7032 ce3b 6a4e 3f3a
000001e0: a2c8 8fba 64ab b1ba 3606 523b b138 c7bb
000001f0: 05bc 163a a2dd a4bb aeea 4cbb 9fbb 2b3c
00000200: 806d 063b f12f 65ba 798a 1bbc eebe 4ebb
00000210: 94a2 28bb faf0 10bc ff54 163a c519 e8ba
00000220: f88e aab8 3f1b 3cbc d54c bd3b 8a5a dabb
00000230: ce1b 213b b914 3bbc e6d9 673b 948c 8fbb
00000240: 1aa1 97bb ab76 64bb f776 64bc 58b5 a3bb
00000250: ed5f 873b 5d2b b73b 942a 2d3c c926 68ba
00000260: 6e35 31bc dd2e 993b 361e 663c 3e67 d23a
00000270: acf3 5bbb 7895 57bc ea53 1a3c 2767 f7bb
00000280: 3ec3 c93b eb91 d6ba 57af cfbb c564 843b
00000290: f984 4b3c c47d 42bc ef98 b53b 3182 2b3c
000002a0: ff1f 10bb 02bc 673b d174 cf3b 09d9 153c
000002b0: a53e df3a 9ada 193b f457 c53b edad 56bb
000002c0: 6a13 bab9 c3e2 773b 7d2b b6ba 11f5 03bb
000002d0: dd12 153c 014c be39 6c51 4bbb 3d03 923b
000002e0: 4100 cabb 7c98 c43b 3948 21bb 2053 70bb
000002f0: e74e 26bb bdbf 133a f953 fb3b 241e 053b
00000300: 61cb eaba e714 273c 65f6 b13b 937f 78bb
00000310: 94d3 4abb 2756 e5bb f8bd cabb 5ab5 08bb
00000320: 076d b9bb d8da bfbb 37af 0a3c 5582 893a
00000330: 4bdf 8fbc 2a15 1fbc b8b1 0cbb 6f87 813b
00000340: 74c3 f9bb 2392 d8b9 f98e 06bc ac3f 3abb
00000350: 9494 533c deb8 53b9 325f da3b 687d 4439
00000360: b8d1 21bc 7684 1abb e9ce 0fbc e002 253c
00000370: 3652 42bc 1fff b5b9 4f6a 943b 6a58 9fba
00000380: 0b3b 91bb 7092 163b 4fbf 133b 962b 4e3b
00000390: 4466 3cbb de26 1abb 0607 a4bb fab7 cbba
000003a0: 8aa2 1cba 69b9 a53a eb89 1e3b 1394 cc3a
000003b0: bcce 1c3b 028b a13a bc6c 4fbb 0ada 2fbb
000003c0: 334f 8a39 0754 cc3a 0049 cfbb f199 30b9
000003d0: fd39 c8ba 956e 283b cdbb 933b f37f 7b3b
000003e0: 61b2 4e3b 4a92 813a 798e a6ba 1571 0d3b
000003f0: 5979 02bb 1576 ccb6 c2ca 0db9 ddba 4cba

decoder.0.bias f4 [128]
0.00085562904 -0.0024406617 0.0009829847 -0.004537305 0.009152281 -0.007326239 -0.005356867 -0.007744363
-0.0010914095 0.00014226418 0.0061913487 -0.0066179167 -0.0032985134 0.008691041 0.0031220394 -0.0057226596
0.0028757916 0.002248889 0.0012526239 0.005564875 -0.007142444 0.0011455286 -0.0011501703 -0.0037141128
0.0044670333 -0.005973311 0.004081914 0.0026917239 0.0012334939 -0.002439091 -0.005068067 -0.009365769
0.002051507 0.0070643453 0.008466443 0.0031154363 0.009803175 0.011006361 -0.0057227667 0.003932035
0.004960456 0.0011003127 -0.009557063 -0.0058337413 -0.0026056247 0.0026569131 -0.007270929 -0.0069285114
-0.009204883 0.0027671636 0.006361649 0.0031989722 0.006153495 0.0070572114 0.00074995164 0.0016116229
-0.009568167 -0.0024219619 -0.001018073 -0.0037499182 -0.0058244495 -0.005735165 0.0034018548 0.0031066448
0.00040249072 -0.0018605383 0.0016827487 -0.007864849 -0.0045977477 0.0047609396 -0.0073501896 0.0071753925
0.0011820738 0.0064409706 -0.0067286245 -0.0037859206 -0.0054548704 0.0047856984 -0.00601657 -0.0043508117
-0.004019386 -0.0061596967 0.004217717 0.0010038592 0.004631681 -0.009017575 -0.008772437 -0.005624229
0.007011473 0.0028674486 0.006749952 -0.00932398 -0.013996378 -0.0063723526 -0.0020007398 -0.00035831766
-0.0027639214 0.0036999292 -0.00511215 0.0020161422 -0.0028710926 -0.002715687 0.0025770932 -0.0034800968
-0.0010699522 -0.0022871038 -0.00045367677 0.001953887 0.0067830035 0.0055534104 0.0052713486 -0.011446302
0.0038103883 0.0073041036 0.00563618 0.00879236 -0.00019988875 0.004462558 -0.0042936667 0.00045466737
0.0060857045 -0.0021854667 0.006584208 -0.005378651 -0.008260054 0.003797589 0.005737015 0.0060015004
00000000: 4b4c 603a 82f3 1fbb 7ed7 803a acad 94bb
00000010: 73f3 153c f210 f0bb a888 afbb 6dc4 fdbb
00000020: a00d 8fba c02c 1539 cce0 ca3b 1cdb d8bb
00000030: df2b 58bb de64 0e3c 219b 4c3b 2685 bbbb
00000040: c777 3c3b 1962 133b 152f a43a 8e59 b63b
00000050: 2a0b eabb 9025 963a 50c1 96ba 7968 73bb
00000060: 3160 923b c4bb c3bb 94c1 853b a267 303b
00000070: 30ad a13a 28d9 1fbb 0712 a6bb e272 19bc
00000080: 9372 063b 067c e73b d6b6 0a3c 592c 4c3b
00000090: 7f9d 203c 0654 343c 0c86 bbbb 4dd8 803b
000000a0: 528b a23b 5e38 903a 3a95 1cbc f828 bfbb
000000b0: 21c3 2abb 9b1f 2e3b f940 eebb 9108 e3bb
000000c0: 14d0 16bc 4d59 353b 6175 d03b d9a5 513b
000000d0: 42a3 c93b 2e40 e73b 6798 443a 173d d33a
000000e0: cdc3 1cbc c7b9 1ebb dc70 85ba 30c1 75bb
000000f0: 06db bebb 0dee bbbb a7f1 5e3b da98 4b3b
00000100: 6405 d339 4edd f3ba ad8f dc3a 91db 00bc
00000110: b4a8 96bb a801 9c3b dcd9 f0bb 8e1f eb3b
00000120: d1ef 9a3a c70e d33b cb7b dcbb 351d 78bb
00000130: c5be b2bb 59d1 9c3b a626 c5bb 4191 8ebb
00000140: 0eb5 83bb 48d7 c9bb c634 8a3b ed93 833a
00000150: 5bc5 973b 73be 13bc 45ba 0fbc 744b b8bb
00000160: 80c0 e53b ceeb 3b3b b42e dd3b 9bc3 18bc
00000170: 1051 65bc 2bcf d0bb d81e 03bb 95dc bbb9
00000180: e822 35bb 837a 723b d383 a7bb 4121 043b
00000190: f128 3cbb abf9 31bb 73e4 283b 5612 64bb
000001a0: a33d 8cba 3ce3 15bb 77db edb9 c90c 003b
000001b0: f543 de3b 62f9 b53b 47bb ac3b 4589 3bbc
000001c0: b5b7 793b 4357 ef3b b4af b83b d50d 103c
000001d0: 3a99 51b9 a63a 923b e3b1 8cbb 6c60 ee39
000001e0: 976a c73b 0c3a 0fbb 57c0 d73b 653f b0bb
000001f0: 2d55 07bc f9e0 783b 92fd bb3b 3ca8 c43b

decoder.2.weight f4 [64, 128]
-0.07490277 -0.117715724 -0.09356893 -0.18378668 0.10086863 -0.080068626 -0.12300055 0.08137251
-0.17287941 -0.01456037 0.21288349 0.13580988 0.13553546 -0.08087176 -0.12769021 0.18422593
-0.016335767 -0.100298494 -0.16116406 -0.18007061 0.03159825 0.007819341 -0.022622816 0.1134484
0.120609105 0.087750055 0.17928076 -0.060081005 -0.13352396 -0.0699085 0.12837578 -0.024698038
0.107380874 -0.1605656 0.11302515 0.011336102 0.11030637 -0.12531959 0.07121499 -0.08799282
-0.014599287 0.17274222 -0.0049550296 -0.104190335 -0.085982725 0.060871653 -0.025002189 0.052428193
-0.17234297 0.08157589 -0.18894956 -0.06700776 0.07638585 0.1577561 0.12151836 0.12879708
-0.18915674 -0.0046205483 -0.03801986 0.18460275 -0.150537 0.01534166 -0.15702906 0.08817469
0.0073520914 -0.10420866 0.037088066 0.1829962 0.2043499 -0.0049470295 0.0331459 -0.22180818
0.25803107 -0.022167154 0.01350099 0.04176787 -0.17341045 -0.15606675 0.01716675 0.14874285
0.16774854 -0.20820944 -0.22608013 -0.052396484 0.023602264 0.18090503 0.06376189 -0.14464961
0.07164453 0.060820896 -0.05980946 0.035230607 0.034359995 -0.15896411 -0.047507264 0.050532114
-0.118702166 -0.17744295 -0.13899142 -0.019430025 -0.16779388 0.14948355 -0.16144468 -0.07716397
-0.085053466 0.13857661 -0.03165103 -0.18563807 0.17867905 0.14618419 -0.07232965 -0.013286783
-0.18549713 -0.020954829 -0.004213075 0.16658352 -0.09388291 -0.050189074 -0.081305236 -0.010954406
0.06591686 0.009289365 -0.14899576 -0.0025280742 -0.006646305 -0.18677084 -0.15896802 -0.051273473
-0.05133879 0.044849128 0.20172475 -0.057765756 -0.07645016 0.20677494 -0.10250367 -0.053290885
0.08664721 0.09827364 0.17975576 -0.0946099 -0.15187511 0.06935411 0.008911136 0.07549706
0.017648617 -0.025188461 -0.033429284 0.111675955 -0.030641213 -0.056015 0.07910928 -0.1373276
-0.16536796 0.17109644 0.060278844 0.16483872 -0.09451291 -0.1192845 -0.16050516 -0.15588239
0.15406296 -0.13490428 0.028637618 -0.041757073 0.19375229 0.15839647 -0.10662841 0.16690922
-0.13267717 -0.18187416 0.15186258 -0.11759858 0.13418481 -0.040295526 0.16396542 -0.07256541
0.18082054 -0.08341975 0.14337528 0.1732239 -0.055036735 0.021058338 0.18507753 0.04388311
-0.0028770855 0.0925035 0.16804713 -0.048387606 0.022347353 0.07962876 -0.19376387 -0.116639994
-0.09258604 0.10270246 -0.1602776 0.20587763 -0.14274842 0.18148252 -0.08691895 -0.16616823
-0.008146073 -0.19302838 0.03778653 -0.123689406 -0.04365117 0.1971228 -0.051455326 -0.16450386
0.12153163 -0.13268748 0.12922715 -0.1491719 -0.053556316 0.06855415 -0.08711175 -0.05744359
0.118355624 -0.15604712 -0.011201879 0.17450282 0.056367923 -0.1616067 0.03448372 -0.008884623
0.11251635 -0.06234143 0.22128193 -0.16349898 0.061830815 -0.054473016 0.017890524 0.018809108
-0.13823494 -0.21147735 0.011905313 0.050558213 0.16094416 0.06585287 -0.16746211 -0.024148017
0.17338127 0.11531135 0.17433688 -0.01325277 0.12668478 0.071656026 0.001959962 0.066646494
-0.105669364 0.19802465 0.16098104 -0.10850499 0.07877865 -0.10061569 0.052346744 0.049401775
00000000: a066 99bd f114 f1bd 11a1 bfbd 9332 3cbe
00000010: 3694 ce3d 05fb a3bd b6e7 fbbd a1a6 a63d
00000020: 4d07 31be 9e8e 6ebc 21fe 593e bf11 0b3e
00000030: cfc9 0a3e 18a0 a5bd 39c1 02be b9a5 3c3e
00000040: 96d2 85bc 4c69 cdbd 3108 25be 6e64 38be
00000050: 2b6d 013d b11c 003c 7c53 b9bc a257 e83d
00000060: e801 f73d 4db6 b33d 6095 373e 8017 76bd
00000070: 81ba 08be 302c 8fbd f174 033e 8a53 cabc
00000080: 81ea db3d 4f6b 24be bb79 e73d 0fbb 393c
00000090: 4ee8 e13d c753 00be 2ad9 913d 9435 b4bd
000000a0: d931 6fbc 56e3 303e cd5d a2bb be61 d5bd
000000b0: b617 b0bd 8e54 793d 64d1 ccbc f2be 563d
000000c0: ad7a 30be 4311 a73d fe7b 41be 5d3b 89bd
000000d0: 2f70 9c3d d18a 213e 9ede f83d 62e3 033e
000000e0: 4eb2 41be f867 97bb b6ba 1bbd 8108 3d3e
000000f0: 5f26 1abe 965b 7b3c 3acc 20be ef94 b43d
00000100: d0e9 f03b 5a6b d5bd a8e9 173d 5b63 3b3e
00000110: 1a41 513e b11a a2bb ffc3 073d af21 63be
00000120: a61c 843e e497 b5bc 4233 5d3c c914 2b3d
00000130: 8292 31be f6cf 1fbe 49a1 8c3c 0c50 183e
00000140: 46c6 2b3e db34 55be 8d81 67be b29d 56bd
00000150: 8959 c13c 2b3f 393e 9895 823d 071f 14be
00000160: 5eba 923d 551f 793d c4fa 74bd f84d 103d
00000170: 11bd 0c3d 7dc7 22be fa96 42bd c3fa 4e3d
00000180: 1f1a f3bd 9bb3 35be c453 0ebe b72b 9fbc
00000190: 29d2 2bbe 3712 193e c151 25be 2508 9ebd
000001a0: 8330 aebd 07e7 0d3e 83a4 01bd e817 3ebe
000001b0: a4f7 363e 4fb1 153e 9121 94bd cfb0 59bc
000001c0: f6f2 3dbe 76a9 abbc d60d 8abb df94 2a3e
000001d0: af45 c0bd 0f93 4dbd 5c83 a6bd 1c7a 33bc
000001e0: 6bff 863d 6c32 183c 5892 18be 0cae 25bb
000001f0: 3fc9 d9bb db40 3fbe 83c8 22be 2204 52bd
00000200: a048 52bd b8b3 373d ef90 4e3e c99b 6cbd
00000210: e791 9cbd cfbc 533e 72ed d1bd 8b47 5abd
00000220: 1874 b13d b143 c93d e511 383e d6c2 c1bd
00000230: 2685 1bbe 8709 8e3d 0300 123c 349e 9a3d
00000240: d593 903c 0858 cebc 25ed 08bd 5db6 e43d
00000250: 4803 fbbc fc6f 65bd 0c04 a23d 9b9f 0cbe
00000260: 3856 29be e833 2f3e f3e6 763d 7bcb 283e
00000270: fc8f c1bd 6f4b f4bd 775b 24be a29f 1fbe
00000280: aec2 1d3e 5924 0abe 7099 ea3c 7709 2bbd
00000290: 0067 463e af32 223e ff5f dabd 40ea 2a3e
000002a0: 86dc 07be 383d 3abe dd81 1b3e 86d7 f0bd
000002b0: be67 093e ec0c 25bd 8de6 273e 2c9d 94bd
000002c0: 0529 393e f9d7 aabd f8d0 123e 9b61 313e
000002d0: 336e 61bd 8982 ac3c f784 3d3e c7be 333d
000002e0: 7c8d 3cbb 7a72 bd3d 8c14 2c3e 1532 46bd
000002f0: cc11 b73c 6714 a33d 096a 46be f3e0 eebd
00000300: c09d bdbd ab55 d23d d01f 24be 96d1 523e
00000310: a42c 12be 8ed6 393e 9002 b2bd 0128 2abe
00000320: 1b77 05bc 3ba9 45be 0cc6 1a3d df50 fdbd
00000330: 92cb 32bd 8fda 493e d2c2 52bd b373 28be
00000340: 93e5 f83d 3adf 07be 1f54 043e 85c0 18be
00000350: de5d 5bbd 1e66 8c3d a567 b2bd f849 6bbd
00000360: 6f64 f23d d1ca 1fbe 1688 37bc deb0 323e
00000370: 0de2 663d 3a7c 25be cd3e 0d3d cf90 11bc
00000380: f96e e63d ba59 7fbd bb97 623e 476c 27be
00000390: 4f42 7d3d 191f 5fbd 268f 923c 8f15 9a3c
000003a0: 768d 0dbe 858d 58be 800e 433c 2116 4f3d
000003b0: 8cce 243e dfdd 863d 307b 2bbe 10d2 c5bc
000003c0: dc8a 313e 5b28 ec3d 5e85 323e 2522 59bc
000003d0: a8b9 013e 65c0 923d b572 003b f57d 883d
000003e0: 2e69 d8bd f9c6 4a3e 37d8 243e dd37 debd
000003f0: b356 a13d 990f cebd 8a69 563d 8459 4a3d

decoder.2.bias f4 [64]
0.1567201 0.18656611 -0.12921487 -0.18569201 0.15272115 0.064717755 0.17453702 -0.16825941
-0.083262555 -0.18151547 -0.13405378 0.0266731 0.18895075 0.013944116 0.12247592 0.1712363
-0.037540037 0.07907017 -0.039787352 0.15691379 0.08363036 0.16589487 0.108701706 0.19344927
-0.13192968 -0.18026163 -0.105459645 0.08330496 -0.01872705 -0.107997514 0.18413554 -0.08601718
0.019048244 0.087670475 0.07207996 0.06666679 0.124513485 -0.08709228 0.0030806672 -0.1796415
0.1327649 0.09129398 0.04833053 0.039063994 -0.13279313 0.19120945 0.09078006 0.14284049
-0.17212234 -0.014496064 0.20248169 -0.0032778706 0.18805495 -0.100858785 -0.17134587 0.055388488
-0.19294262 0.13014038 0.19418447 -0.090491 0.07094354 0.055772185 -0.16745818 0.1941105
00000000: 3c7b 203e 300b 3f3e e750 04be 0c26 3ebe
00000010: ef62 1c3e be8a 843d d5b9 323e 324c 2cbe
00000020: 8f85 aabd 31df 39be 6545 09be 8c81 da3c
00000030: 4e7c 413e dd75 643c a8d4 fa3d 9258 2f3e
00000040: 95c3 19bd 8bef a13d 10f8 22bd 02ae 203e
00000050: 6546 ab3d 58e0 293e 009f de3d 9117 463e
00000060: 9318 07be 8196 38be 3afb d7bd ca9b aa3d
00000070: 7869 99bc cd2d ddbd 078e 3c3e c629 b0bd
00000080: 100b 9c3c 948c b33d a89e 933d 9988 883d
00000090: ed00 ff3d 705d b2bd 05e5 493b f1f3 37be
000000a0: 86f3 073e 57f8 ba3d 3cf6 453d 9101 203d
000000b0: ecfa 07be 69cc 433e e5ea b93d c744 123e
000000c0: d740 30be e680 6dbc 5c57 4f3e 8bd1 56bb
000000d0: 7a91 403e 0d8f cebd 4b75 2fbe 0adf 623d
000000e0: c092 45be 8543 053e 4bd8 463e 5853 b9bd
000000f0: d94a 913d 6071 643d 287a 2bbe e7c4 463e

decoder.4.weight f4 [1, 64]
-0.01859767 0.02648514 0.059728343 -0.08747304 0.13166434 0.16481403 -0.24704765 -1.42506e-06
0.13034055 0.11110817 -0.17248613 0.09811344 -0.23193623 0.05998919 -0.16136697 0.017759133
0.035047553 -0.20251276 0.009617216 0.051139865 0.018933797 -0.16269399 0.18396974 0.17227098
-0.019063815 0.09388489 0.051391408 -0.14334784 0.19804335 -0.06733503 0.16017553 0.0810944
0.11760912 -0.22174235 0.03739126 -0.018726537 0.058902808 -0.14943859 -0.020978643 -0.11233822
0.0152961295 0.094570585 0.016186893 -0.23355551 0.2571738 0.07700089 -0.07005578 -0.05199622
-0.069744624 -0.19876614 -0.22943337 -0.26091474 -0.03173585 -0.07002741 0.07690999 0.16113481
-0.0109322425 0.2277233 -0.118419535 -0.13750234 0.103079386 0.24597335 0.0013439978 0.20535342
00000000: 245a 98bc 5df7 d83c b5a5 743d 1125 b3bd
00000010: 04d3 063e 02c5 283e 0ffa 7cbe b044 bfb5
00000020: fe77 053e ae8c e33d 34a0 30be b3ef c83d
00000030: b180 6dbe 3ab7 753d 623d 25be 9a7b 913c
00000040: 068e 0f3d 815f 4fbe 8791 1d3c 0978 513d
00000050: 0d1b 9b3c 4199 26be 9062 3c3e ce67 303e
00000060: b82b 9cbc b946 c03d cc7f 523d c7c9 12be
00000070: e0cb 4a3e f3e6 89bd 0e05 243e d214 a63d
00000080: 0ddd f03d 6d10 63be 9427 193d 6568 99bc
00000090: 1244 713d 6e06 19be 67db abbc 9511 e6bd
000000a0: 9e9c 7a3c 39ae c13d 609a 843c 2d29 6fbe
000000b0: 49ac 833e a5b2 9d3d 6879 8fbd fdf9 54bd
000000c0: 45d6 8ebd 5a89 4bbe 95f0 6abe 9e96 85be
000000d0: 73fd 01bd 886a 8fbd fc82 9d3d 8600 253e
000000e0: 261d 33bc 4c30 693e f185 f2bd 6acd 0cbe
000000f0: 491b d33d 70e0 7b3e 1529 b03a 2b48 523e
