Training/checkpoints/wind_pressure_200_5/mlp/model_30.pth (torch, 132355 bytes, 17 tensors)

pos_encoder.0.weight f4 [24, 1]
0.19675484 0.0045652213 -0.89617 -0.7860597 -0.20758648 -0.94757396 0.4426403 -0.53008735
0.21355389 -0.84624165 -0.09378208 -0.24143896 -0.102011174 0.047629587 -0.6210658 0.14975178
0.27734736 0.16291237 0.20547526 -0.9578282 -0.14390855 -0.76647425 -0.702066 -0.05444954
00000000: 1a7a 493e da97 953b 666b 65bf 353b 49bf
00000010: 8d91 54be 3594 72bf c0a1 e23e ceb3 07bf
00000020: dfad 5a3e 4ba3 58bf d210 c0bd c63b 77be
00000030: 3ceb d0bd 3e17 433d 2bfe 1ebf 8858 193e
00000040: 7900 8e3e 80d2 263e 1b68 523e 3b34 75bf
00000050: c35c 13be a837 44bf 99ba 33bf 7b06 5fbd

pos_encoder.0.bias f4 [24]
0.85323966 0.2788863 0.6448177 -0.035154007 -0.57193077 0.8168376 0.59700245 0.70905674
0.57980335 0.6518273 -0.5660538 0.06898953 0.6842447 0.49307936 -0.7790014 0.32636666
0.9279748 -0.76707727 -0.6975128 0.12633234 0.33833963 -0.68010014 -0.8882992 0.20712444
00000000: ea6d 5a3f 2fca 8e3e c612 253f a6fd 0fbd
00000010: 0e6a 12bf 451c 513f 27d5 183f be84 353f
00000020: fe6d 143f 27de 263f e7e8 10bf 624a 8d3d
00000030: a92a 2f3f e674 fc3e a36c 47bf 8819 a73e
00000040: c28f 6d3f 2d5f 44bf 3390 32bf 445d 013e
00000050: da3a ad3e 0b1b 2ebf 9467 63bf 6e18 543e

pos_encoder.2.weight f4 [48, 24]
-0.25595063 -0.31552008 -0.13125974 -0.35331613 0.38301444 0.25869173 -0.15328075 0.011664468
0.23802637 0.46368057 -0.43491954 0.02111951 -0.15101843 -0.12429484 -0.0071417554 -0.028696142
-0.3393617 0.23979102 0.10497062 -0.20415306 0.32228026 -0.250232 -0.14641167 -0.086206354
-0.10752374 -0.32884973 -0.43718946 0.21674016 -0.11283941 0.38411462 0.35541216 0.15890515
0.114856385 0.0007264166 0.36191884 0.26268357 0.39446414 0.079856224 -0.280894 -0.3442605
-0.18772152 0.2664973 0.43978193 0.13595556 -0.076815344 -0.17646432 0.15269195 -0.30977473
-0.3544349 0.26302814 -0.071096584 -0.46720243 0.45146883 -0.4277955 0.22766155 0.26275572
0.023645462 0.20528029 -0.15444395 -0.16956164 -0.20019849 -0.29290107 0.4809619 -0.26013938
-0.35689592 0.42106372 -0.13199194 -0.3347071 0.25910673 -0.3350863 0.11417715 0.38913357
0.061808787 0.043931562 0.11064801 -0.4903923 0.28414437 -0.3289663 0.36782885 0.0008261866
-0.31907958 -0.50795364 -0.18148981 -0.13354266 -0.16134241 0.097107954 0.36722964 -0.17064987
-0.32932356 0.30769214 -0.17720425 0.03986663 0.09637264 -0.083919935 0.113378845 -0.29664227
-0.11427839 0.17203908 -0.05632312 0.41753486 -0.3135899 0.41221905 -0.3342031 0.05926373
-0.29675677 -0.18454161 -0.07659218 0.15154843 0.25553134 -0.29867595 -0.1321116 -0.45648935
-0.25970727 -0.3485715 0.051803224 -0.05495341 0.47889447 -0.18581794 -0.24693204 -0.33807972
0.044920966 -0.33099604 0.3140959 0.17792988 0.20481163 0.3191936 0.40658283 0.4606799
-0.18581328 -0.4047056 -0.2784642 0.40227073 -0.09225664 0.20553708 -0.13780503 -0.23184477
-0.36495098 0.38834527 0.15044388 -0.1343533 -0.16143987 0.15185219 0.08314823 -0.5069008
0.38687322 -0.11509655 0.22935808 0.18435901 -0.44950965 -0.21815346 0.42789122 -0.31410348
0.3943504 -0.36245105 0.2644613 -0.36709297 0.19182238 0.34871992 0.17421995 -0.13677756
-0.1422493 -0.47903395 0.05295474 0.23059654 -0.04371526 -0.32122254 -0.13719463 -0.21882707
0.10435359 0.3139966 -0.45597303 -0.24753615 0.30351272 -0.14293747 -0.15714078 -0.3258512
-0.24539551 0.34539285 0.32494318 0.24840723 0.32135066 0.18392746 0.22283 0.4259727
0.47728 0.21430357 -0.36796656 -0.2831143 0.043095533 0.18440399 -0.12980933 -0.17363095
0.12624551 0.36601064 -0.4109865 0.07334157 0.22974437 -0.03320253 0.2711751 -0.1276797
-0.45929748 -0.16487028 0.4107815 0.26098865 -0.38741067 0.20307392 -0.43568885 -0.43746993
0.46752828 0.24940974 -0.14410003 0.21977383 0.4094693 0.18366876 0.47520906 -0.44268525
0.040730722 -0.4085849 0.46558568 -0.041113865 0.1537098 0.05508916 -0.122077435 0.3701576
-0.4280871 0.17440875 0.20792325 -0.41420218 -0.15164207 -0.023849899 -0.11897681 -0.1739782
0.36052057 -0.30797055 -0.010562674 0.055282652 -0.027312852 -0.39384592 0.38343605 -0.3536527
-0.0690439 -0.4727579 0.25343305 0.44415465 -0.47998112 0.16418563 0.38941684 -0.19068286
0.15196657 -0.33261925 -0.016017126 0.14349528 0.23099375 -0.27276286 -0.27507523 0.35624605
00000000: f60b 83be d98b a1be f468 06be dae5 b4be
00000010: 781a c43e 3e73 843e a1f5 1cbe 531c 3f3c
00000020: 2fbd 733e 8a67 ed3e c6ad debe d302 ad3c
00000030: 93a4 1abe 4b8e febd 6305 eabb 2c14 ebbc
00000040: d1c0 adbe c78b 753e d6fa d63d 800d 51be
00000050: eb01 a53e 691e 80be f1ec 15be f58c b0bd
00000060: 6835 dcbd fe5e a8be 4cd7 dfbe 22f1 5d3e
00000070: 5918 e7bd acaa c43e 95f8 b53e 08b8 223e
00000080: d339 eb3d fe6c 3e3a 6d4d b93e 767e 863e
00000090: 34f7 c93e a98b a33d 57d1 8fbe ea42 b0be
000000a0: 123a 40be 5672 883e 192b e13e ef37 0b3e
000000b0: 5d51 9dbd 10b3 34be 475b 1c3e cb9a 9ebe
000000c0: 7e78 b5be a0ab 863e 169b 91bd 2835 efbe
000000d0: ec26 e73e 0308 dbbe 1c20 693e eb87 863e
000000e0: 21b4 c13c ff34 523e 8e26 1ebe 91a1 2dbe
000000f0: d500 4dbe 21f7 95be a340 f63e fd30 85be
00000100: 10bb b6be aa95 d73e e528 07be bb5e abbe
00000110: a3a9 843e 6e90 abbe b6d5 e93d 843c c73e
00000120: 362b 7d3d 95f1 333d 6d9b e23d b314 fbbe
00000130: 5f7b 913e 456e a8be 1054 bc3e 7294 583a
00000140: 665e a3be 4009 02bf 77d8 39be 68bf 08be
00000150: f236 25be 89e0 c63d 8605 bc3e d7be 2ebe
00000160: 199d a8be d389 9d3e 0875 35be 314b 233d
00000170: 055f c53d 37de abbd 2b33 e83d 7fe1 97be
00000180: ca0a eabd 032b 303e 12b3 66bd 21c7 d53e
00000190: db8e a0be 600e d33e ab1c abbe 86be 723d
000001a0: 81f0 97be 7af8 3cbe 5cdc 9cbd 832f 1b3e
000001b0: 01d5 823e 0eec 98be 4348 07be f9b8 e9be
000001c0: 5af8 84be f777 b2be 9e2f 543d d416 61bd
000001d0: a831 f53e 0f47 3ebe c1db 7cbe c918 adbe
000001e0: 0cff 373d 5078 a9be 2ed1 a03e 4033 363e
000001f0: 24ba 513e 586d a33e a02b d03e 3cde eb3e
00000200: d645 3ebe 9335 cfbe dc92 8ebe 6ef6 cd3e
00000210: 0df1 bcbd 5078 523e c31c 0dbe b768 6dbe
00000220: dbda babe 31d5 c63e f60d 1a3e e993 09be
00000230: 7e50 25be 247f 1b3e 9f49 aa3d 40c4 01bf
00000240: 3f14 c63e bdb7 ebbd d8dc 6a3e 9cc8 3c3e
00000250: 2126 e6be 9f63 5fbe 8f14 db3e 2cd2 a0be
00000260: 4ce8 c93e 2f93 b9be 7967 873e 9cf3 bbbe
00000270: 166d 443e 6b8b b23e b766 323e 6b0f 0cbe
00000280: cda9 11be f043 f5be 12e7 583d 8021 6c3e
00000290: c60e 33bd 4877 a4be c07c 0cbe 3414 60be
000002a0: 56b7 d53d 2ac4 a03e 4c75 e9be 1e7a 7dbe
000002b0: 0566 9b3e 335e 12be 83e9 20be f8d5 a6be
000002c0: f648 7bbe 55d7 b03e f45e a63e 775e 7e3e
000002d0: 1388 a43e 7b57 3c3e 8c2d 643e 1819 da3e
000002e0: 0b5e f43e 6572 5b3e 1d66 bcbe 5cf4 90be
000002f0: f184 303d 66d4 3c3e bdec 04be 50cc 31be
00000300: 8146 013e bf65 bb3e d36c d2be 1b34 963d
00000310: 1c42 6b3e 60ff 07bd 76d7 8a3e 78be 02be
00000320: 0a29 ebbe c1d3 28be f451 d23e 4ea0 853e
00000330: b15a c6be 9cf2 4f3e 9c12 dfbe 0ffc dfbe
00000340: de5f ef3e 4465 7f3e f58e 13be 640c 613e
00000350: f6a5 d13e aa13 3c3e 9a4e f33e a4a7 e2be
00000360: 42d5 263d 0a32 d1be 3f61 ee3e 0367 28bd
00000370: 1a66 1d3e 2ca5 613d bc03 fabd 4c85 bd3e
00000380: 3b2e dbbe 3598 323e d5e9 543e 4f12 d4be
00000390: 0f48 1bbe dd60 c3bc 1daa f3bd 5727 32be
000003a0: 2796 b83e 51ae 9dbe 110f 2dbc 1070 623d
000003b0: 34bf dfbc 2ca6 c9be bb51 c43e f711 b5be
000003c0: e366 8dbd 530d f2be fac1 813e 3d68 e33e
000003d0: 16c0 f5be 4720 283e a561 c73e 5e42 43be
000003e0: 209d 1b3e 124d aabe 5936 83bc 6df0 123e
000003f0: a089 6c3e 93a7 8bbe a9d6 8cbe e265 b63e

pos_encoder.2.bias f4 [48]
-0.42702284 -0.1752725 -0.04685398 -0.46790922 0.18826349 0.22331995 0.29956153 -0.36972418
0.24184237 -0.15837851 0.09941845 0.05627533 -0.032008853 0.40242103 -0.3771418 -0.23788388
0.15105414 0.45207945 0.4890429 -0.37790036 0.49665034 -0.30689022 -0.18395554 -0.17716785
0.048325416 -0.36360657 0.12592728 0.23311114 0.30530053 0.1937461 -0.453223 0.2696067
-0.06970566 -0.2744306 0.24483773 -0.23735157 -0.34549782 -0.22829618 -0.39427638 -0.4595912
-0.30555874 -0.110305056 -0.39566746 0.38586196 0.2759985 0.36443225 0.43148172 -0.071778744
00000000: bda2 dabe a27a 33be f5e9 3fbd cc91 efbe
00000010: 25c8 403e fcad 643e 2160 993e 7d4c bdbe
00000020: 87a5 773e fa2d 22be e69b cb3d f680 663d
00000030: b71b 03bd 210a ce3e bb18 c1be d597 73be
00000040: f0ad 1a3e f576 e73e d563 fa3e 287c c1be
00000050: f448 fe3e b720 9dbe d75e 3cbe 7d6b 35be
00000060: dff0 453d a42a babe 15f3 003e b0b4 6e3e
00000070: 5a50 9c3e 6165 463e d80c e8be e409 8a3e
00000080: d7c1 8ebd 2b82 8cbe beb6 7a3e 4a0c 73be
00000090: 17e5 b0be 79c6 69be 98de c9be 8a4f ebbe
000000a0: 3272 9cbe 9ee7 e1bd ed94 cabe b38f c53e
000000b0: ad4f 8d3e dd96 ba3e 2ceb dc3e bc00 93bd

pos_encoder.4.weight f4 [96, 48]
0.18050104 -0.09906861 0.13606083 0.12482064 0.16505699 0.2348771 0.17115745 0.034039117
0.036694665 -0.0129579455 -0.16947109 -0.33376113 0.10482651 0.027418965 -0.24355572 0.0727875
0.09255217 0.15462065 0.1524525 -0.28783807 0.09320376 0.16313812 0.051932607 0.03672494
-0.18574256 0.32667696 0.10253718 0.123711176 -0.00035989276 -0.047822293 -0.16129096 -0.21630317
-0.17171109 -0.14884755 0.18785787 -0.27370572 0.3129081 0.10365266 -0.21127486 0.16062126
-0.2383107 0.32514313 0.002260741 0.052890852 -0.19764455 -0.12867425 -0.034904905 0.067843534
0.10442352 -0.038835593 -0.001991257 -0.25958917 -0.20754562 0.1252055 0.18852836 -0.28410885
0.21702659 0.036000744 -0.20855351 0.06946694 0.15528049 0.056195542 -0.053559087 0.06531321
-0.082069196 -0.25350952 -0.3313249 -0.114684485 -0.1191509 -0.16941708 -0.06515754 0.15618166
-0.07777081 0.23919839 0.27765372 -0.31929642 -0.17853191 0.029763738 -0.01582889 0.005127108
0.047954645 -0.21255262 0.32383174 0.19308846 0.10149728 0.29919153 -0.31389827 -0.13723601
-0.34124362 0.0948966 0.16971326 -0.32707217 0.14487995 -0.20620178 0.29588196 -0.3050907
-0.27375066 -0.024690457 -0.23180206 0.2744146 0.17406961 -0.31475124 0.020419136 0.0051135137
0.010127904 0.30125913 -0.07883444 -0.280988 -0.25338545 -0.16088158 0.27741116 0.30413494
0.30702296 -0.09487473 -0.32533863 -0.29091296 0.01789185 0.32400033 -0.29814097 -0.24800216
-0.19337119 -0.17643908 -0.21948092 0.09417273 -0.124338575 -0.22361247 -0.13298827 -0.33224234
-0.24170658 0.12011711 0.13987055 -0.31630945 0.10934317 0.25419283 0.08012144 0.2995196
-0.11649886 0.030582938 -0.1380188 0.26874182 0.020751944 -0.23152764 0.118972555 -0.2136179
0.32720044 -0.092671216 0.0027777886 -0.039138254 0.116211 -0.23278412 0.19459814 -0.22031803
-0.09935223 -0.13505904 -0.05953149 0.13884264 0.17485666 0.24133542 0.29133177 -0.33804563
-0.34390983 -0.13530245 -0.24133912 -0.2982167 -0.0997369 0.006449471 -0.120961845 0.015674368
-0.19858654 -0.119310796 -0.000108662585 0.015925253 0.10547542 -0.113161646 0.05164467 0.21733862
0.3175006 -0.047535826 -0.1345237 0.13001025 0.15905532 -0.3175077 -0.1708433 0.12733518
0.1837524 -0.1410466 -0.26073867 -0.24383959 -0.12857045 0.2579685 -0.33835438 0.31336048
0.2065757 0.22197099 -0.24577425 -0.012942197 -0.33882537 0.26869768 0.021193648 0.2679479
-0.25205767 0.050859395 -0.26224035 0.0033962002 0.19169328 0.31807047 0.016838158 -0.17784572
-0.3248172 0.12487975 0.108422935 0.04845322 0.045229856 0.062379893 0.33137265 -0.002883306
-0.20716229 -0.06260547 -0.11989406 0.30506945 0.16123222 -0.32863203 0.13653773 0.2645341
0.2327717 0.18275122 -0.19120224 -0.0269352 0.19693778 0.06934722 0.30559388 -0.15492444
-0.34219462 0.30369553 -0.1283724 -0.017227184 -0.21845505 0.2732476 -0.12457574 0.31683534
-0.06331036 -0.19998714 0.15003377 -0.19092977 -0.093903735 0.12259047 -0.110421516 0.2466994
-0.18707302 0.20539173 -0.06566871 0.18157819 0.028313743 -0.34459347 0.3278185 0.12836133
00000000: 44d5 383e 7ce4 cabd 8853 0b3e f7a1 ff3d
00000010: b304 293e 9f83 703e e643 2f3e 9a6c 0b3d
00000020: 254d 163d 904d 54bc d489 2dbe bde2 aabe
00000030: 48af d63d bd9d e03c ac66 79be 9d11 953d
00000040: fe8b bd3d e054 1e3e 821c 1c3e 835f 93be
00000050: 9de1 be3d ae0d 273e 49b7 543d e46c 163d
00000060: 4c33 3ebe 3442 a73e 03ff d13d 495c fd3d
00000070: fdaf bcb9 4fe1 43bd 7529 25be 947e 5dbe
00000080: 08d5 2fbe 7e6b 18be d05d 403e 2823 8cbe
00000090: 7e35 a03e d947 d43d 7058 58be e679 243e
000000a0: b807 74be 2979 a63e f128 143b 14a4 583d
000000b0: 5563 4abe 2fc3 03be 72f8 0ebd 8df1 8a3d
000000c0: 00dc d53d 1212 1fbd c07f 02bb dfe8 84be
000000d0: d786 54be df35 003e 940d 413e b776 91be
000000e0: 383c 5e3e 8475 133d 0d8f 55be af44 8e3d
000000f0: d901 1f3e 4c2d 663d c660 5bbd efc2 853d
00000100: e513 a8bd 00cc 81be 6ba3 a9be b3df eabd
00000110: 6305 f4bd ac7b 2dbe 5171 85bd 16ee 1f3e
00000120: 4d46 9fbd 6cf0 743e a128 8e3e d27a a3be
00000130: 12d1 36be 15d3 f33c 97ab 81bc 4d01 a83b
00000140: 176c 443d 65a7 59be 46cd a53e fbb8 453e
00000150: cedd cf3d a22f 993e 46b7 a0be 9987 0cbe
00000160: 7cb7 aebe 2659 c23d 50c9 2d3e 0176 a7be
00000170: 695b 143e 8f26 53be d77d 973e d934 9cbe
00000180: 0c29 8cbe a443 cabc 855d 6dbe 1280 8c3e
00000190: 4e3f 323e 1327 a1be 0846 a73c 438f a73b
000001a0: 82ef 253c a33e 9a3e f373 a1bd a9dd 8fbe
000001b0: bdbb 81be 24be 24be d608 8e3e 93b7 9b3e
000001c0: 1d32 9d3e af4d c2bd c992 a6be 8bf2 94be
000001d0: ee91 923c 5fe3 a53e efa5 98be 47f4 7dbe
000001e0: 1903 46be 72ac 34be 9bbf 60be a2dd c03d
000001f0: 39a5 febd abfa 64be 142e 08be ab1b aabe
00000200: ee81 77be f6ff f53d 3a3a 0f3e 50f3 a1be
00000210: 50ef df3d 9025 823e b616 a43d a25a 993e
00000220: f496 eebd 1289 fa3c cd54 0dbe 8798 893e
00000230: fbff a93c 9515 6dbe e2a7 f33d a7be 5abe
00000240: d186 a73e 68ca bdbd 8f0b 363b 6f4f 20bd
00000250: 0800 ee3d f65e 6ebe bc44 473e 0d9b 61be
00000260: 2f79 cbbd eb4c 0abe 4bd7 73bd c42c 0e3e
00000270: a00d 333e a220 773e 7029 953e 5114 adbe
00000280: f314 b0be ba8c 0abe 9a21 77be dcaf 98be
00000290: dc42 ccbd 1656 d33b d8ba f7bd 8867 803c
000002a0: 455a 4bbe 3859 f4bd c8e1 e3b8 ad75 823c
000002b0: 7f03 d83d 4bc1 e7bd 5d89 533d 048e 5e3e
000002c0: 708f a23e edb4 42bd 95c0 09be 6821 053e
000002d0: 66df 223e 5f90 a2be 8cf1 2ebe 2764 023e
000002e0: 9729 3c3e 856e 10be 8a7f 85be 16b1 79be
000002f0: f9a7 03be 7214 843e c93c adbe c970 a03e
00000300: 9588 533e 5d4c 633e 3fac 7bbe 820b 54bc
00000310: 857a adbe be92 893e 4d9e ad3c 7830 893e
00000320: b40d 81be f151 503d 5e44 86be c992 5e3b
00000330: 3e4b 443e 22da a23e 2df0 893c 301d 36be
00000340: 714e a6be f4c0 ff3d d80c de3d e276 463d
00000350: f142 393d 0f82 7f3d ada9 a93e d9f5 3cbb
00000360: 5a22 54be 4c37 80bd 048b f5bd 1032 9c3e
00000370: 0f1a 253e 7542 a8be 8cd0 0b3e 0371 873e
00000380: b45b 6e3e 2323 3b3e 85ca 43be 35a7 dcbc
00000390: 0faa 493e ea05 8e3d cd76 9c3e 83a4 1ebe
000003a0: 2234 afbe fb7d 9b3e 0e74 03be 0620 8dbc
000003b0: aeb2 5fbe 1ce7 8b3e 9121 ffbd 3e38 a23e
000003c0: dda8 81bd 6ec9 4cbe 74a2 193e 1883 43be
000003d0: 9a50 c0bd b610 fb3d ad24 e2bd c49e 7c3e
000003e0: 1290 3fbe 3652 523e 517d 86bd a2ef 393e
000003f0: 39f2 e73c 8e6e b0be d4d7 a73e 2771 033e

pos_encoder.4.bias f4 [96]
-0.13174054 0.13460217 -0.27580792 -0.18481867 0.1649735 -0.33950305 -0.34479183 0.23142716
-0.06935883 0.11676289 -0.348033 -0.13194317 0.14561974 0.19859868 -0.10300011 -0.10108176
0.0021707893 -0.18028043 0.032125875 -0.19627947 -0.1809334 0.3254295 0.3043902 -0.3179289
0.30796418 0.17537609 -0.15036102 0.30793428 -0.2974869 -0.106528446 0.33223683 -0.32798544
-0.09933428 0.13607876 0.18099956 0.22381821 -0.2035221 -0.005102706 0.21890323 0.12456501
-0.29435304 0.24231718 -0.09122436 0.2677393 -0.11834138 -0.20550925 0.13048308 -0.009900922
0.11272347 -0.011906754 -0.12075288 -0.071874276 -0.19861329 -0.079913944 -0.28185648 -0.10125075
0.29766008 -0.103772454 -0.3099837 -0.115137495 -0.12380538 0.042412292 0.022568041 0.2645065
0.20282201 0.100524075 -0.12891309 -0.30887496 -0.057344522 -0.26309454 0.23130737 0.10669348
0.26214796 -0.21576433 0.25236553 0.09868812 0.27356303 -0.033784073 0.11872254 0.17088023
0.04368 0.14142272 0.18602167 0.13141 0.16459553 0.3159876 -0.120013356 -0.26988584
-0.1281126 -0.009398091 -0.28990158 0.13712631 0.25497702 -0.07336054 -0.21771242 0.32784414
00000000: fee6 06be 27d5 093e b236 8dbe 1b41 3dbe
00000010: d0ee 283e 58d3 adbe 8e88 b0be 3efb 6c3e
00000020: 010c 8ebd 6221 ef3d 6231 b2be 1c1c 07be
00000030: 571d 153e 745d 4b3e b9f1 d2bd f403 cfbd
00000040: cd43 0e3b 6f9b 38be 6c96 033d 7cfd 48be
00000050: 9b46 39be b29e a63e 08d9 9b3e 94c7 a2be
00000060: 7bad 9d3e ca95 333e 3df8 19be 90a9 9d3e
00000070: 3450 98be 962b dabd f21a aa3e b5ed a7be
00000080: c56f cbbd 3b58 0b3e f357 393e 9a30 653e
00000090: 1968 50be 9a34 a7bb 2b28 603e f11b ff3d
000000a0: 71b5 96be ff21 783e d6d3 babd 2015 893e
000000b0: f75c f2bd 0471 52be 5b9d 053e 7a37 22bc
000000c0: 90db e63d 8c14 43bc 494d f7bd d232 93bd
000000d0: 4861 4bbe eca9 a3bd 7e4f 90be 8e5c cfbd
000000e0: e766 983e a786 d4bd 2fb6 9ebe 35cd ebbd
000000f0: ad8d fdbd 83b8 2d3d 9de0 b83c 656d 873e
00000100: 93b0 4f3e 91df cd3d cb01 04be dc24 9ebe
00000110: 17e2 6abd 54b4 86be d7db 6c3e 1c82 da3d
00000120: 4238 863e 53f1 5cbe 0e36 813e ff1c ca3d
00000130: 7410 8c3e 2b61 0abd ce24 f33d 3afb 2e3e
00000140: cde9 323d 1ed1 103e 777c 3e3e 5890 063e
00000150: bb8b 283e 20c9 a13e 90c9 f5bd 7a2e 8abe
00000160: f32f 03be 73fa 19bc fb6d 94be d76a 0c3e
00000170: 598c 823e 0d3e 96bd 01f0 5ebe 30db a73e

fc_encoder.0.weight f4 [8, 14]
-0.020681228 -0.0039218306 -0.019733515 -0.049807243 0.0697125 0.03924425 -0.0016100415 0.05364796
0.0016549807 0.056741934 0.036424123 -0.0049870303 -0.013298183 -0.019125856 0.033775415 -0.008684006
-0.05217951 0.015683172 0.013176252 0.037343908 0.036941357 0.032383278 0.017918576 -0.02707342
0.06864002 0.00383567 0.016844489 -0.017949922 0.039591134 0.027206797 -0.04238471 -0.04388935
0.008504602 0.016518584 0.027852632 0.018289704 0.03381945 -0.022106018 0.0041442094 -0.027033921
-0.029482335 0.025828732 -0.007929041 0.010734976 0.0029798038 0.009704511 -0.009488578 0.013522858
-0.0767665 -0.018352294 -0.0007585626 0.008219103 0.005599539 -0.011601922 -0.0107245045 -0.061706603
-0.0023620094 -0.002407726 -0.0022615178 -0.0024343121 -0.0023988988 -0.0023948634 -0.0022235906 -0.0023989491
-0.0024727336 -0.002429881 -0.00232114 -0.00241547 -0.002441065 -0.002447663 -0.04436935 -0.04032956
0.045631714 -0.007885611 -0.01705232 0.04124367 -0.00053159834 0.07693595 -0.026578622 0.010547028
0.034924727 -0.059004225 0.019309554 0.011133426 -0.04730972 0.0026249054 -0.027878616 -0.031534046
-0.039356686 0.021266192 0.04004862 -0.043956622 0.036375195 0.041920945 -0.019125469 -0.02899394
-0.022767494 -0.037862938 -0.031084906 0.0128858285 0.055913486 -0.009564935 -0.009381043 -0.03242614
0.05347416 -0.03122565 -0.010529258 0.030640336 -0.06590919 -0.0017513299 -0.013472009 0.020022994
00000000: ae6b a9bc b382 80bb 2ea8 a1bc ae02 4cbd
00000010: 6dc5 8e3d 94be 203d 0708 d3ba f7bd 5b3d
00000020: f0eb d83a 3b6a 683d 7631 153d 3e6a a3bb
00000030: 9fe0 59bc d4ad 9cbc 1758 0a3d 5c47 0ebc
00000040: 2fba 55bd ff79 803c 35e1 573c edf5 183d
00000050: d24f 173d 54a4 043d fac9 923c 14c9 ddbc
00000060: 2493 8c3d dd5f 7b3b 74fd 893c b70b 93bc
00000070: 502a 223d cae0 de3c 979b 2dbd 52c5 33bd
00000080: e356 0b3c fb51 873c 342b e43c 4ad4 953c
00000090: 4386 0a3d ae17 b5bc 26cc 873b 3e76 ddbc
000000a0: f084 f1bc c796 d33c cfe8 01bc c1e1 2f3c
000000b0: d048 433b abff 1e3c fb75 1bbc fa8e 5d3c
000000c0: c137 9dbd 8d57 96bc 46da 46ba 6ba9 063c
000000d0: 567c b73b fd15 3ebc d5b5 2fbc 10c0 7cbd
000000e0: f1cb 1abb f0ca 1dbb f935 14bb fb88 1fbb
000000f0: d836 1dbb 24f3 1cbb a9b9 11bb b037 1dbb
00000100: 960d 22bb a33e 1fbb 441e 18bb dd4c 1ebb
00000110: 46fa 1fbb f968 20bb a3bc 35bd 9c30 25bd
00000120: 52e8 3a3d a632 01bc 4fb1 8bbc 1fef 283d
00000130: f65a 0bba 9890 9d3d 69bb d9bc 71cd 2c3c
00000140: 3b0d 0f3d 6aae 71bd 122f 9e3c f968 363c
00000150: d6c7 41bd 9b06 2c3b b261 e4bc d829 01bd
00000160: 7a34 21bd 7036 ae3c 060a 243d dc0b 34bd
00000170: 28fe 143d 4cb5 2b3d 04ad 9cbc b384 edbc
00000180: e582 babc 2b16 1bbd c6a5 febc 151f 533c
00000190: 8a05 653d 3fb6 1cbc f2b2 19bc 46d1 04bd
000001a0: b907 5b3d efcc ffbc e982 2cbc 7101 fb3c
000001b0: 66fb 86bd e18c e5ba b4b9 5cbc 4307 a43c

fc_encoder.0.bias f4 [8]
0.07047624 0.03313449 -0.05983478 -0.037591502 -0.06456378 0.03939004 0.0024765977 0.058735397
00000000: d955 903d 08b8 073d 5015 75bd 8cf9 19bd
00000010: 043a 84bd 7357 213d 6a4e 223b 8794 703d

fc_encoder.2.weight f4 [16, 8]
-0.03594178 0.21846566 0.20777948 0.1041057 0.9533734 -0.16755953 0.08535418 0.026917817
-0.022422204 0.012609263 0.23332042 -0.03778894 0.5031966 0.43205392 0.25334728 0.29692513
-0.29029095 -0.37859243 -0.5449014 0.121126115 0.030127333 0.50309384 0.08019416 0.37598464
0.259077 0.035629768 0.15938294 -0.109866 0.019492684 0.33175948 0.6053259 -0.31257445
0.08884096 -0.15682343 -0.22268257 -0.2147989 -0.2924525 0.26807767 -0.6372749 -0.10014515
-0.26456854 0.26182517 -0.12052076 0.15375395 0.6536841 -0.27064124 -0.42020965 0.58115673
-0.044674505 -0.5387855 0.17185037 0.050592624 -0.6256941 0.47953767 0.7368432 -0.12154092
-0.34386986 0.08211693 0.3182721 -0.04832953 -0.62538475 0.22587396 0.04477289 0.3874282
0.1171801 0.35777935 0.0037222742 -0.062878445 -0.5257095 -0.013108711 -0.46981484 0.07233946
-0.079489484 -0.34852117 0.53883356 -0.21243493 0.17114946 0.6248955 0.24989234 0.40070343
-0.07712752 -0.26774937 -0.2710233 0.31472707 0.13049646 0.19367898 0.24434334 -0.41048583
-0.013634783 0.47928527 -0.22239164 0.38038465 -0.49712753 -0.13829343 0.24753924 0.07470722
0.3140708 -0.027515816 0.47947955 -0.068203546 -0.64402324 0.33489385 0.21539797 0.23940538
0.51511794 -0.50604993 0.41891024 -0.14369638 0.202534 0.071950026 0.07190466 -0.68005717
0.20170331 -0.4208818 0.33973002 0.28077298 -0.6157231 -0.0065459046 0.50937897 -0.40676197
-0.2515967 0.31890458 -0.16246594 0.08035964 -0.6598827 -0.3502044 -0.43753767 0.38624445
00000000: b037 13bd 76b5 5f3e 25c4 543e 5f35 d53d
00000010: 4710 743f ba94 2bbe 2cce ae3d c182 dc3c
00000020: c5ae b7bc 1597 4e3c 8ceb 6e3e 93c8 1abd
00000030: 7ed1 003f 2c36 dd3e bcb6 813e 9206 983e
00000040: 04a1 94be ded6 c1be a87e 0bbf f810 f83d
00000050: 99cd f63c c2ca 003f d63c a43d 0f81 c03e
00000060: bea5 843e 85f0 113d 4835 233e 6d01 e1bd
00000070: 1faf 9f3c 61dc a93e a3f6 1a3f c209 a0be
00000080: 40f2 b53d 5296 20be e606 64be 3ef4 5bbe
00000090: 56bc 95be 7a41 893e 7324 23bf e718 cdbd
000000a0: 8775 87be f30d 863e 97d3 f6bd ad71 1d3e
000000b0: d757 273f 7d91 8abe b825 d7be b0c6 143f
000000c0: 9dfc 36bd d9ed 09bf 8bf9 2f3e 363a 4f3d
000000d0: 7d2d 20bf f685 f53e c2a1 3c3f 72ea f8bd
000000e0: b60f b0be ec2c a83d 90f4 a23e 2ff5 45bd
000000f0: 3719 20bf 814b 673e c763 373d fd5c c63e
00000100: 1ffc ef3d db2e b73e 66f1 733b 6ac6 80bd
00000110: e694 06bf ebc5 56bc 928b f0be b626 943d
00000120: 62cb a2bd 5e71 b2be fff0 093f 8b88 59be
00000130: ce41 2f3e 27f9 1f3f c7e3 7f3e 0029 cd3e
00000140: 09f5 9dbd 7216 89be 91c3 8abe e823 a13e
00000150: dda0 053e c853 463e 2435 7a3e 332b d2be
00000160: 6d64 5fbc e164 f53e a2ba 63be c7c1 c23e
00000170: 8087 febe cb9c 0dbe ed7a 7d3e 1900 993d
00000180: e3cd a03e d968 e1bc 587e f53e 4dae 8bbd
00000190: b5de 24bf 3577 ab3e 4991 5c3e af26 753e
000001a0: c5de 033f 7d8c 01bf 677b d63e 2525 13be
000001b0: 1365 4f3e 895a 933d c042 933d 3a18 2ebf
000001c0: 508b 4e3e d27d d7be 18f1 ad3e 7ac1 8f3e
000001d0: 07a0 1dbf 077f d6bb a966 023f 1b43 d0be
000001e0: 48d1 80be 7647 a33e 795d 26be 9893 a43d
000001f0: 13ee 28bf fe4d b3be f004 e0be d5c1 c53e

fc_encoder.2.bias f4 [16]
-0.18295687 -0.27964064 -0.5103853 0.7891249 0.5753762 0.3677491 -0.79043174 0.20394297
0.74502116 -0.68459255 -0.12184129 0.38735834 -0.05485993 -0.5516235 0.44039768 -0.4977928
00000000: 0c59 3bbe 0f2d 8fbe 9ca8 02bf 1704 4a3f
00000010: db4b 133f 9c49 bc3e bc59 4abf 6dd6 503e
00000020: b5b9 3e3f 7541 2fbf ed87 f9bd d553 c63e
00000030: ceb4 60bd 3337 0dbf ce7b e13e b3de febe

fc_encoder.4.weight f4 [32, 16]
0.26598474 0.40635166 0.2052123 0.15403046 -0.120207354 -0.12234454 0.33237982 -0.21843483
0.46597102 -0.3403484 0.2857239 0.35184324 -0.27984527 0.57266766 0.06519412 0.20225306
0.05162833 -0.01847398 -0.33639377 0.1661656 0.15615274 -0.24960084 -0.2526511 0.3394308
0.54487336 0.114147045 0.41838327 -0.16648506 -0.549297 0.2653017 -0.5306344 -0.30122888
0.30424887 0.1750803 0.3621652 0.37113547 0.2176529 0.3096403 -0.28444937 -0.3909106
-0.09678022 0.13444231 -0.40802532 -0.45446876 -0.41121393 -0.4862809 0.43542108 0.016063316
0.2552396 0.26026723 0.20285057 0.0121543715 -0.24103904 -0.2832616 -0.32849932 -0.50669825
-0.35454375 -0.5512835 0.07871317 -0.08685458 0.26528656 -0.5657104 -0.14565605 -0.37526867
0.42539078 -0.24053699 0.413852 -0.087960795 -0.38871464 -0.09713719 0.43356174 -0.03867017
0.4592285 0.09452452 -0.1459886 -0.2199656 -0.090964295 -0.35498506 -0.1871293 -0.03082674
-0.31014737 -0.30174756 -0.053880367 0.16579174 0.47971413 0.4360164 -0.07944976 0.014301755
-0.47040683 -0.055487446 0.40572414 0.16207236 0.57448876 0.49510777 0.10554784 0.2053902
-0.14749552 -0.59307384 0.46730417 -0.0626656 0.3669571 0.23943117 -0.34873316 0.36701524
-0.5498665 0.5163979 -0.39099532 0.09586426 -0.103707254 0.16352242 0.36157075 0.28070542
0.3143931 0.253482 0.2015597 0.35177234 -0.28960234 -0.48002574 0.32765213 0.271534
-0.56817704 0.22238186 0.0951589 0.38590527 0.47967416 -0.030247398 -0.4432315 0.27275416
-0.4460458 0.24852237 0.077833615 -0.18265022 -0.29575735 0.3096021 0.5404316 -0.34286472
0.5077882 -0.5639371 -0.3919642 -0.3817712 0.50530124 -0.25584036 -0.16233638 0.25440797
0.44589075 -0.26630262 -0.14127825 -0.3256164 0.12961772 0.39642048 0.60026276 -0.13306665
0.22619297 -0.09675684 -0.15087864 0.0841948 -0.15590306 -0.21593185 -0.26122063 0.0017323415
0.07558825 -0.37721968 0.12020687 -0.44298533 0.5480929 -0.38678876 0.21149257 0.0009455547
-0.25951242 -0.54000694 -0.18109614 -0.47169083 -0.1347114 -0.1545777 0.57250506 -0.43921658
-0.23352225 0.12338503 0.39559132 0.10595748 -0.43624216 0.54682624 -0.34717718 0.399378
-0.4388801 -0.15884201 0.23046832 -0.47292185 -0.10766366 0.42551196 0.118086085 -0.121353306
0.58792937 -0.46621904 0.24683869 0.10266021 -0.38033494 0.24744432 -0.0968025 0.4529961
-0.55963427 -0.48112592 -0.011075976 -0.062413562 0.3493047 0.19086929 0.4010299 0.4061633
0.13013202 -0.52876985 -0.35175344 -0.08912553 0.19415653 0.08398938 0.10936805 -0.5213388
0.3736519 0.28027683 -0.4005405 0.23277609 -0.3968493 -0.4618986 0.36008134 0.35634917
0.04793684 0.25160822 -0.34631884 0.066880204 -0.068695076 0.48308736 -0.069253765 -0.37772575
-0.21976234 0.20569864 -0.36388278 -0.29091296 -0.18769091 0.051665314 0.29278263 -0.2720667
-0.318696 -0.06326285 -0.34761587 -0.06621996 -0.28482416 -0.2664806 -0.2760879 0.17399448
-0.43351397 0.021595007 0.46971413 0.47778067 0.37572518 -0.27391142 -0.059197962 0.08138802
00000000: 272f 883e 530d d03e 2c23 523e 29ba 1d3e
00000010: 462f f6bd c68f fabd b02d aa3e 61ad 5fbe
00000020: c193 ee3e 2542 aebe 674a 923e cc24 b43e
00000030: e147 8fbe 599a 123f 7f84 853d 6d1b 4f3e
00000040: 3a78 533d be56 97bc ce3b acbe 5127 2a3e
00000050: 81e6 1f3e 5d97 7fbe 7c5b 81be e0c9 ad3e
00000060: d27c 0b3f edc5 e93d 5536 d63e 0f7b 2abe
00000070: ba9e 0cbf a0d5 873e a8d7 07bf ac3a 9abe
00000080: 82c6 9b3e 4048 333e b86d b93e 7805 be3e
00000090: 67e0 5e3e 2c89 9e3e 59a3 91be 6f25 c8be
000000a0: b534 c6bd 3fab 093e b2e8 d0be 21b0 e8be
000000b0: a28a d2be cff9 f8be 83ef de3e 3797 833c
000000c0: c4ae 823e bf41 853e 0fb8 4f3e 2123 473c
000000d0: f0d2 76be aa07 91be 1031 a8be fab6 01bf
000000e0: c286 b5be ea20 0dbf 5f34 a13d d0e0 b1bd
000000f0: a4d3 873e 66d2 10bf dc26 15be 3723 c0be
00000100: d2cc d93e 544f 76be 69e4 d33e ca24 b4bd
00000110: 9b05 c7be ddef c6bd cefb dd3e 9d64 1ebd
00000120: ff1f eb3e 1296 c13d 097e 15be aa3e 61be
00000130: 7d4b babd 9ac0 b5be d39e 3fbe 5c88 fcbc
00000140: a3cb 9ebe a87e 9abe a9b1 5cbd 4fc5 293e
00000150: 179d f53e 8b3d df3e 8eb6 a2bd e951 6a3c
00000160: 2ad9 f0be ce46 63bd 13bb cf3e 4cf6 253e
00000170: b211 133f c47e fd3e 7729 d83d cf51 523e
00000180: 1109 17be b0d3 17bf 7e42 ef3e d256 80bd
00000190: cde1 bb3e 722d 753e 278d b2be 6ce9 bb3e
000001a0: 0dc4 0cbf a732 043f 8a30 c8be 7b54 c43d
000001b0: 7864 d4bd 6c72 273e cd1f b93e 9fb8 8f3e
000001c0: 22f8 a03e 65c8 813e aa65 4e3e 811b b43e
000001d0: c246 94be efc5 f5be 05c2 a73e 8106 8b3e
000001e0: 0d74 11bf 12b8 633e abe2 c23d 6095 c53e
000001f0: da97 f53e 64c9 f7bc 3def e2be 6fa6 8b3e
00000200: 1d60 e4be a67c 7e3e 3b67 9f3d a908 3bbe
00000210: 826d 97be 2b84 9e3e ba59 0a3f f78b afbe
00000220: 68fe 013f 2f5e 10bf 88af c8be 8477 c3be
00000230: 6c5b 013f 82fd 82be 823b 26be c341 823e
00000240: cb4b e43e d158 88be 3fab 10be 31b7 a6be
00000250: 82ba 043e a0f7 ca3e d2aa 193f a042 08be
00000260: 219f 673e 7328 c6bd ee7f 1abe 536e ac3d
00000270: 0da5 1fbe 3d1d 5dbe b6be 85be bc0f e33a
00000280: 03ce 9a3d f022 c1be 052f f63d f9ce e2be
00000290: d14f 0c3f 2d09 c6be 8291 583e 1adf 773a
000002a0: d0de 84be e53d 0abf 4471 39be 7681 f1be
000002b0: c9f1 09be 9e49 1ebe b18f 123f ffe0 e0be
000002c0: 7520 6fbe 4ab1 fc3d f28a ca3e 3c00 d93d
000002d0: 225b dfbe cefc 0b3f 35c1 b1be 467b cc3e
000002e0: e4b4 e0be 7ba7 22be e3ff 6b3e d022 f2be
000002f0: c47e dcbd b4dc d93e 1ed7 f13d 1588 f8bd
00000300: 8a82 163f 43b4 eebe 48c3 7c3e 843f d23d
00000310: 43bb c2be 0b62 7d3e 6440 c6bd 1bef e73e
00000320: 3144 0fbf 2356 f6be 0378 35bc 5da5 7fbd
00000330: 11d8 b23e 3d73 433e cb53 cd3e a3f4 cf3e
00000340: 5441 053e 765d 07bf 0719 b4be 7287 b6bd
00000350: f8d0 463e a002 ac3d 5bfc df3d 7676 05bf
00000360: 4d4f bf3e 7280 8f3e a513 cdbe db5c 6e3e
00000370: d52f cbbe f97d ecbe 955c b83e 6673 b63e
00000380: 6c59 443d cbd2 803e b450 b1be 7df8 883d
00000390: 01b0 8cbd 3a57 f73e ebd4 8dbd 4565 c1be
000003a0: 6109 61be aaa2 523e d84e babe 8bf2 94be
000003b0: 0c32 40be 029f 533d 9be7 953e 544c 8bbe
000003c0: 1f2c a3be f48f 81bd b5fa b1be 559e 87bd
000003d0: 79d4 91be 2570 88be 655b 8dbe 9c2b 323e
000003e0: 8bf5 ddbe 03e8 b03c 5f7e f03e ab9f f43e
000003f0: 0d5f c03e 1e3e 8cbe 9079 72bd c3ae a63d

fc_encoder.4.bias f4 [32]
0.42938453 -0.38613248 0.3470331 0.28068352 0.25741792 0.35881725 -0.36901316 0.35030785
-0.48911372 -0.279924 0.4022385 0.40175638 0.3717895 -0.19671546 0.10653202 0.30783918
-0.46173885 -0.4039846 0.32398844 0.43462336 -0.41872936 -0.077796765 0.18606673 -0.31127256
-0.3260073 0.46425828 0.2838712 -0.18336761 0.02980497 -0.29301846 0.47363684 -0.5265433
00000000: 4ad8 db3e 28b3 c5be 53ae b13e c0b5 8f3e
00000010: 48cc 833e e5b6 b73e 4bef bcbe 8d5b b33e
00000020: 1d6d fabe 3352 8fbe 34f2 cd3e 03b3 cd3e
00000030: 315b be3e c76f 49be 762d da3d 199d 9d3e
00000040: 0969 ecbe 12d7 cebe d0e1 a53e f486 de3e
00000050: b263 d6be e953 9fbd 4788 3e3e 1e5f 9fbe
00000060: 6eea a6be 43b3 ed3e 9157 913e b8c4 3bbe
00000070: 8d29 f43c 8406 96be 8780 f23e 8bcb 06bf

decoder.0.weight f4 [128, 128]
0.0061614723 0.0076551936 0.0046366416 0.0048624277 0.006347476 0.004450817 -0.004362928 0.0016917316
-0.004428895 0.0042387964 -0.0053235115 -0.006140412 0.0018736846 -0.005247622 -0.0014700327 0.009537311
-0.005984369 0.0023714812 -0.0007567998 -0.0046746284 0.0030255131 -0.0043594185 0.0017674154 -0.00066621235
0.006122829 0.0052122804 -0.0033902673 0.0038439336 0.007181673 0.0013957068 0.0062360126 0.009964775
0.0010210593 0.0117170485 -0.004004007 -0.00025500407 0.0015441492 -0.00015477145 -0.0019067088 -0.0040619895
-0.0028389457 0.0008572806 0.0114263445 -0.0009173344 -0.00475652 1.0903788e-05 0.0007934349 0.0074110297
0.0076003238 0.0006687455 5.6287416e-05 0.0044343537 -0.0016689501 -0.004000007 0.006708624 -0.004425884
-0.0022996399 -0.004804721 0.002939354 0.006801057 0.001688066 -0.0019574813 0.0037268207 0.0021416752
-0.0017921826 0.0019464465 -0.007490474 -0.0029912586 -0.0044617457 -0.0018377806 0.0004903419 0.0114420885
0.0027281165 0.0038620364 0.009635773 -0.0007743582 0.012651578 0.003178412 0.004200606 -0.0021005752
0.006468754 -0.001775334 0.0050537116 0.0023944583 -0.008552382 -0.009780077 -0.00053183886 -0.0067054676
-0.00134429 0.005041593 0.0064714355 -0.0014584529 0.0038922061 0.005431188 -0.009308915 0.0019898757
-0.0024085825 0.0027567183 0.0037165289 -0.0035667508 -0.009895226 -0.0068847467 -0.0031196633 0.0038573444
0.0053117573 -1.3206032e-05 -0.0056143 0.0015772814 0.0018628011 -0.00090580917 0.0011024069 -0.0015927635
0.00021170687 0.0010171337 -0.003235523 -0.0013407058 -0.0040878807 0.0031420186 0.0055089635 -0.000590645
-0.0021136883 -0.0018948833 0.0026297208 -0.005818734 0.0003165076 -0.0058472822 -0.0032721784 0.011866976
0.0028110654 -4.7217447e-05 -0.0086722355 -0.004304391 -0.003294465 -0.007356476 0.0017539687 -0.0019897954
0.0004737422 -0.01076681 0.005332837 -0.0069264662 0.0018438521 -0.012437352 0.004407491 -0.004271213
-0.0044441577 -0.0038821402 -0.014172579 -0.0055628936 0.003821357 0.005391829 0.009769374 -0.00085674645
-0.010475451 0.0035783625 0.013870946 0.0012400415 -0.0034670013 -0.011736686 0.01065553 -0.007805864
0.005244471 -0.0011414238 -0.00677091 0.0035491479 0.013616738 -0.011912872 0.0044341786 0.009321213
-0.0023064201 0.004317051 0.006074593 0.009664671 0.0008584469 0.0034115934 0.0047063404 -0.0021264143
-0.0016959088 0.003863988 -0.0020939622 -0.0029149977 0.007803974 0.00017849595 -0.0032979038 0.0020679138
-0.007362436 0.00651736 -0.0025851426 -0.002187874 -0.0022550882 0.0005544922 0.009081814 0.002509478
-0.002708405 0.009742783 0.0038902399 -0.0032721774 -0.0035352493 -0.0057083718 -0.0051717907 -0.001471296
-0.005094639 -0.00608692 0.0076337187 0.0014856898 -0.015578165 -0.009548247 -0.0023398309 0.0041712867
-0.0077803903 0.00022336133 -0.008420982 -0.003411538 0.013462615 0.0002335003 0.0064977235 0.0013443663
-0.010015991 -0.002856044 -0.007964737 0.0097672 -0.011018669 -0.0007140103 0.004413778 -0.0014497667
-0.0030771117 0.0023250503 0.0020081627 0.0026322342 -0.003090355 -0.0027380618 -0.0066040284 -0.0011433505
-0.0002141577 0.0017068391 0.0013506757 0.0026681786 0.0031080202 0.0022490022 -0.003569889 -0.00431282
0.00018288549 0.002507858 -0.0066565108 0.0008415046 -0.00060475874 0.00096522184 0.005432233 0.0050095813
0.0030588845 0.000464473 -0.0008385326 0.0015418427 -0.0024577482 -0.0007395264 -0.0022853285 -0.0022813235
00000000: 2de6 c93b 6bd8 fa3b f8ee 973b 0055 9f3b
00000010: 7dfe cf3b 29d8 913b e5f6 8ebb 18bd dd3a
00000020: 4420 91bb 9ae5 8a3b da70 aebb 8235 c9bb
00000030: 6c96 f53a 3ef4 abbb 1dae c0ba 6242 1c3c
00000040: 8718 c4bb da6a 1b3b fa63 46ba a02d 99bb
00000050: b047 463b 74d9 8ebb 9fa8 e73a c1a4 2eba
00000060: 03a2 c83b c7cb aa3b 3f2f 5ebb 81ea 7b3b
00000070: 3d54 eb3b 26f0 b63a 7757 cc3b 4c43 233c
00000080: 11d5 853a ddf8 3f3c 0c34 83bb 11b2 85b9
00000090: 0d65 ca3a 254a 22b9 88ea f9ba 701a 85bb
000000a0: 9b0d 3abb 21bb 603a 9035 3b3c 4579 70ba
000000b0: 95dc 9bbb 6aef 3637 84fe 4f3a 39d8 f23b
000000c0: 230c f93b c04e 2f3a 2716 6c38 0e4e 913b
000000d0: acc0 daba 7e12 83bb 04d4 db3b 0207 91bb
000000e0: 8eb5 16bb ec70 9dbb 2da2 403b 67db de3b
000000f0: 1942 dd3a 1649 00bb ad3d 743b 595b 0c3b
00000100: abe7 eaba e81f ff3a a672 f5bb fe08 44bb
00000110: d633 92bb afe1 f0ba 4a8a 003a 9977 3b3c
00000120: 33ca 323b 381a 7d3b 5cdf 1d3c 4dfe 4aba
00000130: 9048 4f3c e84c 503b 3da5 893b cea9 09bb
00000140: d7f7 d33b 53b2 e8ba 9b99 a53b 58ec 1c3b
00000150: 4a1f 0cbc 9e3c 20bc 1a6b 0bba 8ab9 dbbb
00000160: e332 b0ba f333 a53b 560e d43b 8f29 bfba
00000170: 6214 7f3b 1bf8 b13b 6b84 18bc 9368 023b
00000180: 4fd9 1dbb 0faa 343b 0291 733b 26c0 69bb
00000190: 961f 22bc 7199 e1bb 4473 4cbb 80cb 7c3b
000001a0: 400e ae3b 7a8f 5db7 29f8 b7bb c8bc ce3a
000001b0: 3c29 f43a d373 6dba a37e 903a 46c4 d0ba
000001c0: a1fd 5d39 5851 853a 110b 54bb 9fba afba
000001d0: a1f3 85bb 53ea 4d3b 8984 b43b 84d5 1aba
000001e0: ce85 0abb bc5d f8ba 6557 2c3b 14ab bebb
000001f0: eef0 a539 8f9a bfbb 0b72 56bb b46d 423c
00000200: da39 383b 590b 46b8 fe15 0ebc d90b 8dbb
00000210: f3e7 57bb 980e f1bb 6ce5 e53a 3a67 02bb
00000220: 9a60 f839 4667 30bc 14bf ae3b 69f7 e2bb
00000230: 69ad f13a 09c6 4bbc b76c 903b 88f5 8bbb
00000240: 4ca0 91bb 816b 7ebb 1b34 68bc ef48 b6bb
00000250: bb6f 7a3b f1ad b03b b90f 203c 4897 60ba
00000260: 3aa1 2bbc f682 6a3b f742 633c e388 a23a
00000270: a136 63bb 3b4b 40bc 8894 2e3c 55c8 ffbb
00000280: d0d9 ab3b d49b 95ba 83de ddbb d298 683b
00000290: bd18 5f3c 352e 43bc 964c 913b 00b8 183c
000002a0: 4f27 17bb 0c76 8d3b 610d c73b 9158 1e3c
000002b0: 6509 613a 0a95 5f3b a537 9a3b 505b 0bbb
000002c0: 4249 deba f63a 7d3b db3a 09bb 8c09 3fbb
000002d0: 7bb8 ff3b a42a 3b39 a521 58bb d685 073b
000002e0: 9740 f1bb 948f d53b 7f6b 29bb 6f62 0fbb
000002f0: 1aca 13bb 575b 113a e4cb 143c 0e76 243b
00000300: 7f7f 31bb 32a0 1f3c 65f3 7e3b 0772 56bb
00000310: a4af 67bb 4b0d bbbb 2078 a9bb 80d8 c0ba
00000320: eef0 a6bb c974 c7bb 4624 fa3b 7abb c23a
00000330: 8f3b 7fbc 4070 1cbc d957 19bb 4aaf 883b
00000340: a5f2 febb 1a36 6a39 29f8 09bc 1c94 5fbb
00000350: 4d92 5c3c c2d7 7439 dbea d43b 7335 b03a
00000360: 1c1a 24bc 782c 3bbb 877e 02bc 9b06 203c
00000370: a687 34bc 6c2c 3bba 74a1 903b 1906 beba
00000380: 5ea9 49bb df5f 183b 619b 033b 9081 2c3b
00000390: 8e87 4abb 0e71 33bb 9b66 d8bb 7adc 95ba
000003a0: 858f 60b9 04b8 df3a 2809 b13a 9cdc 2e3b
000003b0: edaf 4b3b ff63 133b cdf4 69bb 8e52 8dbb
000003c0: f3c4 3f39 e05a 243b dc1e dabb 6b98 5c3a
000003d0: ac88 1eba f106 7d3a e000 b23b 6a27 a43b
000003e0: 9177 483b 8384 f339 f8d0 5bba a817 ca3a
000003f0: 2c12 21bb c7dc 41ba 73c5 15bb 4282 15bb

decoder.0.bias f4 [128]
0.0014411112 -0.0025177062 0.0014608093 -0.0044457135 0.009204961 -0.007349907 -0.0049174433 -0.0064419433
-0.00068450894 -0.00027723168 0.006158589 -0.0067955432 -0.0033046713 0.008025524 0.0031641389 -0.0053865993
0.003410101 0.002480582 0.0015532097 0.0048757955 -0.0074009025 0.0008534735 -0.0008412629 -0.0032604774
0.003982337 -0.0057352 0.004038262 0.0021885603 0.0010425539 -0.00238763 -0.0048273965 -0.00956706
0.0024526648 0.007155144 0.008451204 0.0031531993 0.00975873 0.011132406 -0.005178807 0.003427684
0.005026135 0.00088009884 -0.009873662 -0.0058482997 -0.0029920274 0.0032057625 -0.007450412 -0.006770113
-0.00920595 0.0029366498 0.0059002377 0.0038412588 0.0059428327 0.006711247 0.00040302327 0.0020863167
-0.009218926 -0.0025999187 -0.0004380182 -0.0040308307 -0.0055754036 -0.0054640947 0.0033593364 0.0033831713
0.00077618676 -0.0020797672 0.002154579 -0.0071468735 -0.004045827 0.004212916 -0.006708961 0.0067112423
-0.0005397309 0.006942526 -0.006850445 -0.0036397753 -0.005017693 0.004347903 -0.006379572 -0.004129516
-0.0041188733 -0.005882879 0.004524141 0.0013216552 0.0043890723 -0.009243641 -0.008663855 -0.0059857666
0.0074919844 0.003168962 0.006535783 -0.008897993 -0.012770392 -0.0068958397 -0.0016040632 -0.0007947637
-0.0027294185 0.0033603944 -0.0053201416 0.0024852636 -0.0027232391 -0.0027136456 0.0032735816 -0.0035490044
-0.00050159707 -0.0024845987 7.577944e-05 0.0016055192 0.007071902 0.005459289 0.005341373 -0.010789239
0.0037541103 0.007100536 0.005280502 0.008813547 0.00048748983 0.0036682147 -0.004351622 0.00033472755
0.0058303964 -0.0028714826 0.0067360587 -0.0056838337 -0.008188062 0.003814351 0.0056613227 0.0059434166
00000000: abe3 bc3a 1a00 25bb a078 bf3a 59ad 91bb
00000010: 68d0 163c 7dd7 f0bb 8122 a1bb f016 d3bb
00000020: 9e70 33ba 6859 91b9 fdcd c93b 26ad debb
00000030: 2f93 58bb 7d7d 033c 715d 4f3b 1282 b0bb
00000040: 007c 5f3b 4391 223b 1295 cb3a 23c5 9f3b
00000050: 4583 f2bb a3bb 5f3a 3388 5cba bcad 55bb
00000060: 447e 823b 58ee bbbb 6653 843b f36d 0f3b
00000070: 4ea6 883a c979 1cbb 232f 9ebb 28bf 1cbc
00000080: e3bc 203b b375 ea3b eb76 0a3c e8a5 4e3b
00000090: 15e3 1f3c b264 363c fbb2 a9bb ffa2 603b
000000a0: 47b2 a43b 6fb6 663a 24c5 21bc 18a3 bfbb
000000b0: e415 44bb c517 523b 9622 f4bb d3d7 ddbb
000000c0: 8ed4 16bc cf74 403b c856 c13b a1bd 7b3b
000000d0: 18bc c23b 05ea db3b de4c d339 96ba 083b
000000e0: fa0a 17bc 6663 2abb cfa5 e5b9 0f15 84bb
000000f0: e0b1 b6bb 260c b3bb 5028 5c3b 32b8 5d3b
00000100: 0379 4b3a b44c 08bb d633 0d3b 5230 eabb
00000110: db92 84bb 800c 8a3b d8d6 dbbb fbe9 db3b
00000120: ba7c 0dba 217e e33b b379 e0bb 4c89 6ebb
00000130: 766b a4bb db78 8e3b bb0b d1bb e450 87bb
00000140: 9df7 86bb 2ac5 c0bb 3f3f 943b 643b ad3a
00000150: 35d2 8f3b a472 17bc d7f2 0dbc 4024 c4bb
00000160: 527f f53b 5cae 4f3b 1f2a d63b e3c8 11bc
00000170: e83a 51bc 7ff6 e1bb 6e3f d2ba b057 50ba
00000180: 0be0 32bb 103a 5c3b 9554 aebb cedf 223b
00000190: 5f78 32bb 6bd7 31bb 9689 563b 6a96 68bb
000001a0: 9c7d 03ba a6d4 22bb c7eb 9e38 4970 d23a
000001b0: 6abb e73b d6e3 b23b af06 af3b 59c5 30bc
000001c0: 8507 763b 9dab e83b 1008 ad3b b266 103c
000001d0: c795 ff39 6e66 703b 0d98 8ebb 5f7e af39
000001e0: e90c bf3b 7c2f 3cbb 28ba dc3b 743f babb
000001f0: 3927 06bc 31fa 793b 9e82 b93b fec0 c23b

decoder.2.weight f4 [64, 128]
-0.07743645 -0.11688027 -0.09637275 -0.18482809 0.0989084 -0.080704994 -0.12429996 0.08033695
-0.17575406 -0.014352618 0.21149965 0.13403092 0.13445307 -0.080415525 -0.12561643 0.18035829
-0.016105711 -0.09844593 -0.16140796 -0.18070552 0.029602226 0.006309831 -0.023739439 0.114994034
0.11292031 0.09202435 0.17838626 -0.059326347 -0.13322653 -0.069736876 0.12788264 -0.02320573
0.109627634 -0.16077422 0.11244958 0.008840769 0.11241422 -0.12434297 0.07167337 -0.08835565
-0.01319865 0.1748815 -0.0041468493 -0.111610994 -0.09074214 0.06085771 -0.026169712 0.051052794
-0.17294736 0.08213336 -0.18852377 -0.062141422 0.07272339 0.1561053 0.118562 0.13020124
-0.18999906 -0.0038619966 -0.037348032 0.18762444 -0.14828375 0.018926732 -0.15533338 0.08450621
0.010310091 -0.10497829 0.03744792 0.18297474 0.20227635 0.0022825352 0.03413022 -0.21973033
0.24884672 -0.023062162 0.018242411 0.047883775 -0.17454119 -0.1568102 0.015537834 0.14809644
0.16805683 -0.20900546 -0.22495353 -0.053759534 0.021730796 0.17864953 0.064932354 -0.14551497
0.06820525 0.061381917 -0.059571717 0.03445892 0.036771294 -0.15991573 -0.048589658 0.05481423
-0.118156664 -0.17665313 -0.1397433 -0.022048432 -0.16625284 0.15311316 -0.16197619 -0.07799621
-0.086424366 0.13975596 -0.032489043 -0.1867216 0.18005209 0.14388663 -0.07157752 -0.0072181495
-0.1877386 -0.019186888 -0.0018586866 0.16901433 -0.09654961 -0.053810123 -0.079697736 -0.011482385
0.069391206 0.0095497575 -0.14691103 0.005568703 -0.004757837 -0.18238124 -0.15688933 -0.049357954
-0.050615184 0.044322852 0.20131879 -0.057689596 -0.07480399 0.20538501 -0.104713656 -0.052275512
0.08798515 0.099940374 0.17982167 -0.095549755 -0.1525125 0.07105164 0.008217519 0.07560775
0.017203871 -0.023035765 -0.035237055 0.111705236 -0.0301396 -0.05663831 0.07870153 -0.13869897
-0.16697305 0.17131637 0.058733612 0.16383983 -0.0956339 -0.11732949 -0.16288476 -0.15535605
0.15337262 -0.13364795 0.028341105 -0.04229095 0.19381113 0.15996261 -0.10728768 0.16911684
-0.1319256 -0.18283291 0.15315305 -0.11900866 0.1336189 -0.03969825 0.16348659 -0.06946442
0.1814312 -0.08008872 0.14538768 0.17342092 -0.05309298 0.01997523 0.18444838 0.043026667
-0.0037989775 0.09269913 0.16666627 -0.049760338 0.022924613 0.07878277 -0.19499059 -0.1159732
-0.0907091 0.10248756 -0.16036189 0.2055828 -0.14444305 0.18231744 -0.08695202 -0.16502002
-0.0043833605 -0.19435479 0.038411427 -0.12334191 -0.042555284 0.19868399 -0.052115172 -0.1664648
0.11994787 -0.13211893 0.12922813 -0.1505996 -0.052880872 0.068981 -0.088200934 -0.058092408
0.11829916 -0.15612629 -0.010397943 0.17468402 0.055425055 -0.16116652 0.033838455 -0.008722447
0.11303601 -0.06101433 0.22276437 -0.16488786 0.06180424 -0.05538666 0.017440276 0.021403264
-0.13747339 -0.21247344 0.010031827 0.052591123 0.16227548 0.06505782 -0.1660251 -0.024125999
0.17430516 0.11631357 0.17543934 -0.016267817 0.12627248 0.073241554 0.0030130998 0.06886035
-0.10542473 0.19812134 0.16318229 -0.107394286 0.07792561 -0.099119015 0.05207415 0.050203264
00000000: 0097 9ebd ec5e efbd 145f c5bd 9343 3dbe
00000010: 7d90 ca3d a948 a5bd fa90 febd b387 a43d
00000020: dff8 33be 3e27 6bbc 5d93 583e 673f 093e
00000030: 11ae 093e e5b0 a4bd 98a1 00be d8af 383e
00000040: 20f0 83bc 059e c9bd 2148 25be de0a 39be
00000050: 5e80 f23c b3c2 ce3b 3679 c2bc fe81 eb3d
00000060: c342 e73d 4377 bc3d e3aa 363e 2f00 73bd
00000070: 896c 08be 35d2 8ebd abf3 023e f119 bebc
00000080: 7484 e03d ffa1 24be f74b e63d dfd8 103c
00000090: 6d39 e63d 87a7 febd 7dc9 923d cff3 b4bd
000000a0: 273f 58bc 2314 333e 4be2 87bb 4e94 e4bd
000000b0: 04d7 b9bd ef45 793d dd61 d6bc bc1c 513d
000000c0: 1d19 31be 8935 a83d 600c 41be 0188 7ebd
000000d0: 00f0 943d 11da 1f3e a2d0 f23d 7953 053e
000000e0: 1d8f 42be 8d19 7dbb 40fa 18bd 9f20 403e
000000f0: b2d7 17be 3c0c 9b3c b70f 1fbe 9811 ad3d
00000100: a8eb 283c dcfe d6bd fd62 193d bb5d 3b3e
00000110: 8821 4f3e 9696 153b 21cc 0b3d fd00 61be
00000120: add1 7e3e dcec bcbc 1c71 953c c721 443d
00000130: edba 32be da92 20be 6692 7e3c 98a6 173e
00000140: 1717 2c3e 8705 56be 385a 66be f532 5cbd
00000150: c804 b23c e7ef 363e 41fb 843d e001 15be
00000160: 32af 8b3d 9b6b 7b3d 7901 74bd cc24 0d3d
00000170: 7f9d 163d f3c0 23be f305 47bd e384 603d
00000180: 1ffc f1bd 8fe4 34be de18 0fbe ea9e b4bc
00000190: 2f3e 2abe b2c9 1c3e 16dd 25be 7abc 9fbd
000001a0: 42ff b0bd 301c 0f3e 3b13 05bd f233 3fbe
000001b0: 935f 383e 0457 133e 3c97 92bd 3a86 ecbb
000001c0: 8c3e 40be d22d 9dbc 2c9f f3ba 1812 2d3e
000001d0: cdbb c5bd 0168 5cbd 9138 a3bd 9d20 3cbc
000001e0: fa1c 8e3d 9676 1c3c d86f 16be ab79 b63b
000001f0: a1e7 9bbb 26c2 3abe 99a7 20be 912b 4abd
00000200: de51 4fbd e18b 353d 8326 4e3e ed4b 6cbd
00000210: d632 99bd 7350 523e 1d74 d6bd d91e 56bd
00000220: 8f31 b43d 8aad cc3d 2c23 383e 97af c3bd
00000230: 3d2c 1cbe 8683 913d c6a2 063c 3cd8 9a3d
00000240: 22ef 8c3c 80b5 bcbc bb54 10bd b7c5 e43d
00000250: 53e7 f6bc 93fd 67bd 452e a13d 1a07 0ebe
00000260: fcfa 2abe 8f6d 2f3e a892 703d a1c5 273e
00000270: b5db c3bd 724a f0bd 43cb 26be a815 1fbe
00000280: b60d 1d3e 02db 08be 9b2b e83c 4639 2dbd
00000290: 6d76 463e 3dcd 233e a5b9 dbbd f72c 2d3e
000002a0: 8117 07be 8d38 3bbe 27d4 1c3e d0ba f3bd
000002b0: 65d3 083e a29a 22bd 0769 273e 5d43 8ebd
000002c0: 1ac9 393e 8e05 a4bd 82e0 143e 4195 313e
000002d0: 0678 59bd 18a3 a33c 09e0 3c3e bb3c 303d
000002e0: 44f8 78bb 0bd9 bd3d 90aa 2a3e 7fd1 4bbd
000002f0: 66cc bb3c dc58 a13d 9dab 47be 5b83 edbd
00000300: b1c5 b9bd ffe4 d13d e835 24be 4c84 523e
00000310: e1e8 13be 6cb1 3a3e e713 b2bd 02fb 28be
00000320: 4ba2 8fbb f104 47be 4d55 1d3d af9a fcbd
00000330: 734e 2ebd d173 4b3e b876 55bd c075 2abe
00000340: 3ba7 f53d 2f4a 07be 6154 043e c836 1abe
00000350: 9d99 58bd e945 8d3d b1a2 b4bd 4ef2 6dbd
00000360: d446 f23d 92df 1fbe 225c 2abc 5ee0 323e
00000370: 6205 633d d608 25be 319a 0a3d 98e8 0ebc
00000380: 6c7f e73d 29ea 79bd 581c 643e 5dd8 28be
00000390: 7126 7d3d 1fdd 62bd e9de 8e3c e655 af3c
000003a0: d3c5 0cbe a392 59be 885c 243c ca69 573d
000003b0: 8b2b 263e 093d 853d 7c02 2abe e3a3 c5bc
000003c0: 0d7d 323e cf35 ee3d 5fa6 333e 1644 85bc
000003d0: 934d 013e abff 953d 6d77 453b a806 8d3d
000003e0: ece8 d7bd 52e0 4a3e 4219 273e 89f1 dbbd
000003f0: 7697 9f3d e9fe cabd b44b 553d f0a1 4d3d

decoder.2.bias f4 [64]
0.15630409 0.18882565 -0.12827358 -0.18860562 0.15194601 0.065307155 0.17457314 -0.16766974
-0.0824195 -0.18016393 -0.13495785 0.027983863 0.18823518 0.013673841 0.12350897 0.17390142
-0.036138322 0.07805368 -0.040096708 0.158292 0.0838139 0.16516523 0.10963297 0.1949253
-0.13290629 -0.17944069 -0.10525929 0.082866035 -0.018166913 -0.106927715 0.1849821 -0.08539119
0.019652426 0.08745843 0.072635144 0.06622111 0.12598944 -0.08736132 0.00090175064 -0.17971963
0.13469642 0.09339918 0.0492505 0.0386406 -0.1326944 0.19138199 0.09100991 0.14344397
-0.17232573 -0.015140315 0.20150524 -0.0039905356 0.18802975 -0.101980455 -0.17160401 0.054498304
-0.19238017 0.13173056 0.1945708 -0.08902882 0.07173082 0.056371465 -0.16569944 0.19494931
00000000: 2e0e 203e 835b 413e 265a 03be d521 41be
00000010: bc97 1b3e c2bf 853d 4dc3 323e 9eb1 2bbe
00000020: 8ecb a8bd e57c 38be 6432 0abe 6a3e e53c
00000030: b9c0 403e 3f08 603c 45f2 fc3d 3713 323e
00000040: c705 14bd 9cda 9f3d 723c 24bd 4c17 223e
00000050: 9fa6 ab3d 1321 293e 4087 e03d 7f9a 473e
00000060: 9618 08be 4dbf 37be 2f92 d7bd abb5 a93d
00000070: c7d2 94bc ebfc dabd f36b 3d3e 94e1 aebd
00000080: 20fe a03c 681d b33d bcc1 943d ef9e 873d
00000090: 6003 013e 7eea b2bd 7663 6c3a 6c08 38be
000000a0: dced 093e 1248 bf3d e4ba 493d 9b45 1e3d
000000b0: 0ae1 07be a4f9 433e 6763 ba3d fae2 123e
000000c0: 2876 30be 150f 78bc 6457 4e3e 0ac3 82bb
000000d0: df8a 403e 21db d0bd f6b8 2fbe 9d39 5f3d
000000e0: 4fff 44be 60e4 063e 913d 473e be54 b6bd
000000f0: 9ce7 923d c4e5 663d 1dad 29be cba0 473e

decoder.4.weight f4 [1, 64]
-0.02111026 0.02829414 0.06168665 -0.089879125 0.12867332 0.1684838 -0.24965324 0.00011161438
0.13077831 0.11445217 -0.17294423 0.09889521 -0.23458152 0.061207857 -0.16361177 0.019229148
0.03609914 -0.20438313 0.01036146 0.052702025 0.018729445 -0.16484435 0.18275946 0.17363068
-0.022796098 0.09536842 0.053686563 -0.14161414 0.19987495 -0.07025995 0.16056255 0.08212923
0.11691426 -0.22672834 0.0396661 -0.018868724 0.059394117 -0.14989163 -0.02286728 -0.11645482
0.015278527 0.09877134 0.016179748 -0.23938821 0.2548144 0.07932796 -0.07043502 -0.05119801
-0.07227993 -0.19950259 -0.23337397 -0.2577329 -0.030686487 -0.07183478 0.07744899 0.16653043
-0.012714729 0.23201454 -0.12515862 -0.14281286 0.100945756 0.25241265 0.0018513578 0.2079528
00000000: 6def acbc 1dc9 e73c 24ab 7c3d 8c12 b8bd
00000010: f0c2 033e 0487 2c3e 19a5 7fbe 8412 ea38
00000020: c0ea 053e e665 ea3d 4b18 31be 9289 ca3d
00000030: 2336 70be 17b5 7a3d d889 27be 7286 9d3c
00000040: b1dc 133d d049 51be 1dc3 293c 14de 573d
00000050: 7e6e 993c f5cc 28be 4c25 3b3e 3ecc 313e
00000060: e2be babc 8550 c33d 71e6 5b3d 4c03 11be
00000070: 05ac 4c3e 73e4 8fbd 826a 243e 5f33 a83d
00000080: be70 ef3d 792b 68be ec78 223d 9592 9abc
00000090: 3f47 733d 317d 19be 2954 bbbc dd7f eebd
000000a0: c952 7a3c a148 ca3d 648b 843c 2f22 75be
000000b0: 0877 823e b376 a23d 3c40 90bd 01b5 51bd
000000c0: 8007 94bd 684a 4cbe 96f9 6ebe 91f5 83be
000000d0: 3a62 fbbc 1d1e 93bd 939d 9e3d f486 2a3e
000000e0: 7051 50bc 3895 6d3e 9529 00be 893d 12be
000000f0: a6bc ce3d 3b3c 813e 42a9 f23a 94f1 543e
